Model/MLP/MLP_model.pkl (torch, 140880 bytes, 13 tensors)

0.weight f4 [128, 18]
00000000: 1dd6 28bc d034 4639 4ba8 8cba 0f7d 243c
00000010: ae0c d03a 7395 68bb 960c 21bc 125b e6bb
00000020: f2c3 fbbb 3091 28ba e1b6 a43c 9624 583b
00000030: 64a0 623b a25d 0c3d fa47 493d bfb6 c6bb
00000040: 50af a0ba 401d 9338 6fe4 753b 4871 26bc
00000050: a267 bf3c 355e 15bc 6075 56bc 25c0 653b
00000060: 301c 29bc 9361 02bc 42cd b7bc 7670 b0bc
00000070: b7aa c4bc c8ce c83c 2c71 e8b8 b3fc ad3d
00000080: 98a7 a43d 0f35 393b 9c39 09bc aa8b 17bb
00000090: 91d5 0e90 c735 9390 225b 0190 f17b a190
000000a0: 8a46 448f ea04 c08f 6064 a30c e793 928f
000000b0: 3b9a 9a0f 68a2 8b0e 4132 9d90 a190 f88e
000000c0: 76d2 8f90 02a6 a98e 2587 c80f 08c5 ae8f
000000d0: c2ae 2e90 f4aa 500e 3446 3f38 3bd6 7ab8
000000e0: ec89 a838 714b 24b8 c706 75b8 4766 d3b6
000000f0: 9a89 a3b7 e20c d737 e7b1 8eb8 c91f 48b8
00000100: f592 9938 a10f c9b8 bd31 76b6 7218 a8b8
00000110: 3b61 2936 36b1 72b7 3c59 5a38 56df 3437
00000120: 6065 828f d36d af8e b16e 1b8f 5e76 728e
00000130: 240a 088f f0a8 c28f a9ef 8f8d 6ee3 ef8f
00000140: 3f1b 080f ce83 058e 0402 f08f 207b 2d8f
00000150: e6fc ab8f b36e b38c 58d4 a80e 12dc be8f
00000160: e0db f28f 6bcf 280e 896b 4b91 0df7 ba8f
00000170: ac8e 3791 de0b 8e0e f663 2090 9735 4a91
00000180: bd74 5091 5cd5 3491 db68 d090 cc7f 8f90
00000190: 0756 c090 39d7 4a91 f383 0791 a2a1 4f91
000001a0: b2b2 2e91 fc0b 9c90 4efa 9990 f82f 958c
000001b0: d4ab a8b3 4aa5 0bb2 faef 8fb3 217a 9d30
000001c0: 17c8 72b2 c6f3 99b3 38df 94b3 c7c7 8ab3
000001d0: e5be 3cb3 3745 dbb2 d49a 49b3 a07e 9db3
000001e0: fa5d 85b3 b4dc 29b3 91ae 8db1 ef83 10b3
000001f0: c298 27b3 9bcd e930 3ada 5180 ce01 2580
00000200: 33db 3680 08fb 1880 d36b 2b80 6532 5280
00000210: 3a15 5c80 c93f 4f80 2581 4580 7552 3480
00000220: 0de1 3f80 9866 6b80 cf1c 5380 85b0 4080
00000230: 5a75 2580 db5f 2980 d39c 3580 fad2 0100
00000240: 1501 14bb db0c 57b9 2142 8239 758b f73a
00000250: c762 3bb8 11dd 27ba 4b15 14bb ed33 b4ba
00000260: b0f2 f7ba 257b c1b9 6a27 933b b64a c63a
00000270: e3de 933a 07f5 fd3b 8e2a 1d3c 8db1 efba
00000280: 0c8d 48ba 2c5f 1fb9 381b b3a7 5a34 0a0b
00000290: 819f 3da6 89a1 2804 9013 3a90 aa32 5194
000002a0: 00bd 4987 7ce5 289c b75c 8602 971b 0080
000002b0: ed4c 65a2 610f 62a2 650a ae23 7f1b 0000
000002c0: 8e1b 0080 eb2f 030d 33b9 a39b 6b1c 0080
000002d0: f267 a139 30e7 21bc 8673 c03c 7de3 10bc
000002e0: c8f7 4fbc 47e8 633b fb3c 21bc 2345 fbbb
000002f0: e13c afbc 891d a8bc 6f99 bebc 96b6 ba3c
00000300: 7098 f138 0a67 a63d bd57 9d3d 1ed6 223b
00000310: 63cf 08bc cad7 10bb 961b 0080 430d 0000
00000320: 691b 0080 971b 0080 d91b 0000 df1b 0080
00000330: 2d1c 0080 171c 0080 a01b 0080 861c 0080
00000340: 5f1b 0080 ff1a 0080 8f1b 0080 d01b 0080
00000350: 961c 0000 111c 0080 2b08 0080 5322 0000
00000360: 4867 1f3b aedb fcbb 2bd9 c93b 5da4 b8ba
00000370: 4d98 77bc a7bb b1bc 119c 1ebd 1fdb 71bc
00000380: b7ec a8bc df64 13bc 15f0 cd3c 1635 d4bc
00000390: 93bb 643d c767 cf3d f648 283e 04fc fe3b
000003a0: 8af4 8f3a 5c46 64bb ed74 8423 d420 0080
000003b0: c9c2 7f22 d11b 0080 b21d 0000 5d9b f183
000003c0: 9c1f 0080 5484 f590 9c1b 0000 851b 0000
000003d0: 99c8 2a99 f74a 0398 54ba fb99 971b 0080
000003e0: ab1b 0000 2217 0300 0475 0606 3b1c 0080
000003f0: 2b56 8184 6f63 5483 60bc 5984 5f59 a182
-0.010304955 0.00018902426 -0.0010731308 0.010039582 0.001587292 -0.003548947 -0.009829661 -0.0070298994
-0.0076832706 -0.0006430326 0.020106735 0.0032980791 0.0034580464 0.034268983 0.049140908 -0.0060642655
-0.0012259278 7.0149545e-05 0.003752019 -0.010158844 0.023364846 -0.009116699 -0.013089508 0.0035057154
-0.010321662 -0.007957834 -0.022436742 -0.021538 -0.024007184 0.024512663 -0.00011083702 0.08495464
0.080397785 0.0028260385 -0.008375552 -0.0023124018 -2.8169088e-29 -5.8064134e-29 -2.551097e-29 -6.3694265e-29
-9.6771314e-30 -1.8934555e-29 2.5174537e-31 -1.4453681e-29 1.524498e-29 3.4422537e-30 -6.200301e-29 -6.1275993e-30
-5.672782e-29 -4.1821576e-30 1.9773578e-29 -1.7233618e-29 -3.4450078e-29 2.572029e-30 4.560333e-05 -5.9804162e-05
8.036554e-05 -3.9170907e-05 -5.8418864e-05 -6.3001967e-06 -1.949519e-05 2.5635996e-05 -6.8042245e-05 -4.7713318e-05
7.3229814e-05 -9.587338e-05 -3.6685808e-06 -8.0154176e-05 2.5239558e-06 -1.4465584e-05 5.2058356e-05 1.07808355e-05
-1.2858038e-29 -4.3246588e-30 -7.6634084e-30 -2.9885795e-30 -6.707271e-30 -1.919495e-29 -8.8707515e-31 -2.3654822e-29
6.710565e-30 -1.6456977e-30 -2.3666604e-29 -8.5532716e-30 -1.6959315e-29 -2.7645941e-31 4.1619677e-30 -1.8820214e-29
-2.3947735e-29 2.0807467e-30 -1.6047013e-28 -1.8436177e-29 -1.4480119e-28 3.501713e-30 -3.1631443e-29 -1.5951504e-28
-1.644428e-28 -1.4265243e-28 -8.220309e-29 -5.6600457e-29 -7.5863193e-29 -1.6001311e-28 -1.0690282e-28 -1.6379228e-28
-1.3781244e-28 -6.1549615e-29 -6.0733515e-29 -2.2985955e-31 -7.854365e-08 -8.128447e-09 -6.702608e-08 1.1457965e-09
-1.4131749e-08 -7.16896e-08 -6.93239e-08 -6.462465e-08 -4.394578e-08 -2.552643e-08 -4.6939775e-08 -7.333915e-08
-6.2103894e-08 -3.9549107e-08 -4.123486e-09 -3.3647606e-08 -3.902165e-08 1.7011418e-09 -7.51696e-39 -3.398561e-39
-5.03775e-39 -2.294105e-39 -3.987606e-39 -7.548589e-39 -8.45648e-39 -7.277886e-39 -6.382978e-39 -4.805026e-39
-5.866369e-39 -9.863202e-39 -7.632681e-39 -5.940795e-39 -3.440011e-39 -3.799642e-39 -4.923539e-39 1.6752e-40
-0.0022583653 -0.00020508787 0.00024844802 0.0018886166 -4.4676268e-05 -0.0006403486 -0.00225957 -0.0013748385
-0.0018916931 -0.00036903578 0.0044907825 0.0015128467 0.0011281635 0.007750157 0.009592665 -0.0018287167
-0.0007650412 -0.00015198876 -4.971199e-15 2.6617218e-32 -6.5788715e-16 1.9822478e-36 -3.6697102e-29 -1.0561795e-26
-1.5177101e-34 -5.588314e-22 1.9742746e-37 -9.897e-42 -3.1076011e-18 -3.0636853e-18 1.886952e-17 9.864e-42
-9.885e-42 4.042517e-31 -2.708577e-22 -1.0194e-41 0.00030785758 -0.00988178 0.023492586 -0.0088433
-0.012693353 0.00347759 -0.009841199 -0.007668154 -0.021391334 -0.020521896 -0.023266522 0.022792142
0.00011520169 0.08125122 0.076827504 0.0024846862 -0.008350226 -0.0022101277 -9.896e-42 4.757e-42
-9.833e-42 -9.897e-42 9.99e-42 -9.998e-42 -1.0108e-41 -1.0077e-41 -9.91e-42 -1.0232e-41
-9.819e-42 -9.684e-42 -9.886e-42 -9.977e-42 1.0255e-41 -1.0068e-41 -2.93e-42 1.2313e-41
0.0024323035 -0.0077166175 0.0061599216 -0.001408707 -0.015111995 -0.021695925 -0.038723055 -0.014761715
-0.020620687 -0.0089962175 0.025138894 -0.02590422 0.055842947 0.10127216 0.16434082 0.0077815074
0.0010982912 -0.0034831977 1.4360989e-17 -1.1777e-41 3.4662063e-18 -9.979e-42 1.0653e-41 -1.4200377e-36
-1.134e-41 -9.6839345e-29 9.904e-42 9.872e-42 -8.829304e-24 -1.69692e-24 -2.6028049e-23 -9.897e-42
9.925e-42 2.83805e-40 2.5288568e-35 -1.0127e-41 -3.0406887e-36 -6.2415345e-37 -2.5594725e-36 -2.370812e-37

0.bias f4 [128]
00000000: 214d fcbb 3be8 7bbc 2723 ab90 828a 78b7
00000010: 805c 1390 75b0 1391 96e2 95b3 d5ed 5880
00000020: 1ce3 04bb 6e28 daa9 ce15 44bc a61b 0000
00000030: 683f c5bb 3454 55a6 3a77 0185 9b38 d93b
00000040: 94c1 02bd 540a 1d99 05b3 1f8e c014 03bd
00000050: 801b 0080 901b 0080 4385 dc39 bb37 1a9b
00000060: ab25 a1bb ec65 d7bc 005f 92bb d477 96a3
00000070: 1e60 e8a6 4eec 5db8 90bd aab7 7c1b 0080
00000080: 834c 4284 7cde d6b8 ff67 55a5 268a 1dba
00000090: 0913 0080 b419 0000 3863 c1bb 850a c296
000000a0: 5ca7 fdbc cf36 e0ae 4243 603c 4a20 1dba
000000b0: ae1b 0080 25be a2bc 7025 8395 97e4 07bc
000000c0: 94b3 ed39 3129 67a6 08f7 8ebc e0ec 7bbc
000000d0: 7c1b 0080 f1bc 9fbb 87a4 b6bc 4020 98b7
000000e0: b61b 0000 93cd 209b 0518 0000 2dee 58b9
000000f0: 85ea 66bc 1d22 efbb 2871 ab35 9ed2 06b7
00000100: 911b 0000 aa1f 0080 76d5 57bc 4c8c 7eb5
00000110: 89da 4db6 3c37 6b84 5d1d 85bc 9720 cb8d
00000120: b3ff ffbc c32a 45bd 4922 0080 831b 0080
00000130: 3898 3fbc 457f aba1 7596 c6bc 45b6 81a0
00000140: 8a1b 0080 5c1b 0000 8843 da3b 221e 0080
00000150: fbd2 bc8c e46c 82a6 20e4 3e3c 1bf3 b181
00000160: 7048 4db6 0f1a 81ba ae45 233b 3737 c2ac
00000170: 5fbe 3b84 4985 3ab0 2a29 3aba 741b 0080
00000180: 8680 3dba 0b92 13ac 81a0 91bc 4f69 c5b1
00000190: 641b 0080 770a 27a8 d222 c3bc 9f3a 9d3c
000001a0: eb16 0e1a 8f1b 0000 9b1b 0080 3db5 07a5
000001b0: 3219 0080 5dd7 273c 7ee8 c3ba a81b d9bc
000001c0: 1ddb 0798 fecf 39b9 7b6e cda8 1af9 f7b9
000001d0: 2dfc 7fbb 66df dbb7 5414 76b4 54b9 8e3a
000001e0: a21b 0000 981b 0000 a51b 0080 506b edbb
000001f0: 97cb 0dbc d096 32bd 9f1b 0080 6d1b 0080
-0.007699624 -0.015375192 -6.750177e-29 -1.4814201e-05 -2.9061898e-29 -1.165063e-28 -6.979569e-08 -8.166842e-39
-0.002027697 -9.688158e-14 -0.011968089 9.918e-42 -0.0060195215 -7.4013337e-16 -6.087449e-36 0.0066290624
-0.03192289 -8.1187955e-24 -1.9684458e-30 -0.03200221 -9.865e-42 -9.888e-42 0.00042060958 -1.2756589e-22
-0.0049178204 -0.026293717 -0.0044668913 -1.6313782e-17 -1.6124286e-15 -5.2910582e-05 -2.0353851e-05 -9.86e-42
-2.2839723e-36 -0.00010245756 -1.851004e-16 -0.00060096604 -6.829e-42 9.22e-42 -0.0059017204 -3.134903e-25
-0.030963592 -1.01960766e-10 0.0136879105 -0.0005993886 -9.93e-42 -0.019866059 -5.2969545e-26 -0.008294246
0.0004533796 -8.020005e-16 -0.017451778 -0.0153763 -9.86e-42 -0.0048748185 -0.02229525 -1.813483e-05
9.941e-42 -1.3301314e-22 8.617e-42 -0.00020688093 -0.014094 -0.007297768 1.2773426e-06 -8.0360605e-06
9.889e-42 -1.1359e-41 -0.013173452 -9.482653e-07 -3.0674585e-06 -2.764948e-36 -0.016249353 -1.2518687e-30
-0.031249857 -0.048136484 -1.2299e-41 -9.87e-42 -0.011694007 -1.1621099e-18 -0.024241665 -2.1974066e-19
-9.879e-42 9.815e-42 0.0066608824 -1.081e-41 -2.9092966e-31 -9.050077e-16 0.011651069 -6.536837e-38
-3.0589545e-06 -0.0009849685 0.0024913359 -5.5199417e-12 -2.2069158e-36 -6.7855815e-10 -0.0007101471 -9.848e-42
-0.00072289293 -2.0971027e-12 -0.01777673 -5.745427e-09 -9.826e-42 -9.2726315e-15 -0.023820315 0.019192992
2.9383425e-23 9.886e-42 -9.903e-42 -1.177079e-16 -9.038e-42 0.010244218 -0.0014946607 -0.026502445
-1.7558965e-24 -0.00017720458 -2.2807485e-14 -0.00047297106 -0.003906022 -2.6210862e-05 -2.291793e-07 0.0010888972
9.913e-42 9.899e-42 -9.917e-42 -0.0072454587 -0.008654497 -0.043600857 -9.909e-42 -9.839e-42

2.weight f4 [128, 128]
00000000: aa1b 0000 a71b 0080 f907 0080 611b 0080
00000010: 9d1b 0000 6308 0000 8b1b 0000 ad1b 0000
00000020: 811b 0000 731b 0080 5a1b 0000 841b 0080
00000030: 2f14 0080 9e1b 0080 841b 0080 c409 0080
00000040: d51c 0000 ef1d 0080 8820 0080 701b 0000
00000050: 841c 0000 1d11 0000 6a1d 0080 fb0a 0000
00000060: 7e1b 0000 641b 0080 db20 0080 6b1b 0080
00000070: 1211 0080 761b 0000 6b05 0000 6a1b 0000
00000080: bf08 0080 2a11 0000 a71b 0000 651b 0000
00000090: fa12 0000 8c1b 0000 3006 0080 7c1b 0080
000000a0: 771b 0080 7d1c 0000 e30b 0080 7c1b 0080
000000b0: 7b1b 0000 8a1b 0080 7601 0080 681b 0000
000000c0: 1402 0000 ad09 0080 e01b 0080 6a1d 0080
000000d0: ed0e 0080 9c20 0000 6420 0080 0608 0080
000000e0: 9e1b 0080 240b 0000 711b 0000 791b 0000
000000f0: a61c 0080 c31b 0080 1b1c 0080 b721 0000
00000100: b721 0080 201c 0080 e11b 0080 591b 0000
00000110: ae1b 0000 881b 0000 c00f 0080 961b 0080
00000120: 811b 0000 0b1c 0080 7b1b 0000 a11b 0000
00000130: b709 0080 ef65 0080 9d0d 0080 d11c 0080
00000140: 221c 0000 971b 0080 8620 0080 781b 0000
00000150: a11b 0000 bf15 0000 fa1b 0080 741b 0080
00000160: 0a1e 0080 fa1e 0080 fc15 0000 6105 0000
00000170: f516 0080 731b 0000 5d1b 0000 8f1b 0000
00000180: b31b 0000 b01b 0000 431c 0000 4d1c 0000
00000190: 971c 0000 bb09 0000 1e10 0080 671b 0080
000001a0: a202 0080 ea1b 0000 9a1b 0080 f20c 0080
000001b0: 1d1c 0080 0d1d 0080 701b 0080 681b 0080
000001c0: b322 0080 761b 0000 9e1b 0000 721b 0000
000001d0: 2d1c 0000 961b 0000 8f1b 0080 7b1b 0080
000001e0: 2704 0080 931b 0000 591b 0000 b61b 0000
000001f0: 950d 0080 d81d 0080 131a 0000 271c 0000
00000200: fe1f 0080 6e1c 0080 261d 0080 691b 0000
00000210: c10e 0080 561c 0080 8e1b 0080 901b 0000
00000220: 981d 0080 811b 0080 ee1b 0080 861c 0000
00000230: af1c 0080 581b 0000 8e1b 0000 111e 0080
00000240: 091c 0080 7d1b 0000 941b 0080 731c 0080
00000250: 0c1c 0000 b11b 0080 781b 0080 971c 0000
00000260: 781b 0000 141d 0080 f01b 0080 891b 0000
00000270: 981b 0080 7b1b 0000 731b 0000 6d1b 0080
00000280: 251d 0080 9b11 0000 591b 0000 e51c 0080
00000290: 951b 0000 be1b 0080 9b1e 0000 891b 0000
000002a0: 7b1b 0080 a81c 0080 0f1a 0080 a51b 0080
000002b0: 9f1b 0000 871b 0000 a81a 0000 d11b 0080
000002c0: af1d 0080 b81b 0080 1e1c 0080 b51b 0080
000002d0: c01b 0080 731b 0080 631b 0080 451c 0000
000002e0: b51b 0080 121e 0080 5e1b 0080 651c 0000
000002f0: 4122 0080 610f 0000 931b 0080 ca1b 0000
00000300: f11e 0080 eb1c 0080 cd1d 0080 9b1d 0080
00000310: 871b 0000 701b 0080 b01b 0080 4d1d 0080
00000320: 490b 0000 061c 0080 851b 0000 611b 0000
00000330: d820 0080 b91b 0080 f71b 0080 3b21 0000
00000340: 901b 0000 7e1b 0000 c21b 0080 b922 0080
00000350: 1615 0000 851b 0000 6c1b 0000 5c1b 0080
00000360: 031c 0080 ef18 0000 621b 0000 611c 0000
00000370: 881b 0080 9a1b 0000 c61b 0000 2922 0080
00000380: ad1b 0000 c31c 0000 6000 0080 d01b 0000
00000390: 821b 0080 131c 0000 4221 0080 3c1e 0080
000003a0: 7c1b 0080 1c1c 0080 ba14 0080 891b 0080
000003b0: 721b 0080 6e1b 0080 581b 0000 751b 0000
000003c0: a81b 0080 c120 0000 6a1b 0000 cb11 0000
000003d0: 7d1b 0000 d81c 0080 eb21 0000 841b 0000
000003e0: 0803 0080 f61c 0080 6d1b 0080 a31b 0080
000003f0: 901b 0000 bd1b 0080 c70d 0000 a51b 0000
9.924e-42 -9.92e-42 -2.86e-42 -9.822e-42 9.906e-42 3.009e-42 9.88e-42 9.928e-42
9.867e-42 -9.847e-42 9.812e-42 -9.871e-42 -7.24e-42 -9.907e-42 -9.871e-42 -3.503e-42
1.0343e-41 -1.0738e-41 -1.167e-41 9.843e-42 1.023e-41 6.139e-42 -1.0552e-41 3.939e-42
9.862e-42 -9.826e-42 -1.1786e-41 -9.836e-42 -6.124e-42 9.851e-42 1.944e-42 9.834e-42
-3.138e-42 6.157e-42 9.92e-42 9.827e-42 6.808e-42 9.882e-42 -2.22e-42 -9.86e-42
-9.853e-42 1.022e-41 -4.264e-42 -9.86e-42 9.858e-42 -9.879e-42 -5.24e-43 9.832e-42
7.45e-43 -3.471e-42 -1e-41 -1.0552e-41 -5.354e-42 1.1698e-41 -1.162e-41 -2.878e-42
-9.907e-42 3.997e-42 9.844e-42 9.855e-42 -1.0277e-41 -9.959e-42 -1.0082e-41 1.2095e-41
-1.2095e-41 -1.009e-41 -1.0001e-41 9.81e-42 9.93e-42 9.876e-42 -5.65e-42 -9.896e-42
9.867e-42 -1.006e-41 9.858e-42 9.911e-42 -3.485e-42 -3.6567e-41 -4.884e-42 -1.0337e-41
1.0092e-41 -9.897e-42 -1.1667e-41 9.854e-42 9.911e-42 7.801e-42 -1.0036e-41 -9.848e-42
-1.0776e-41 -1.1112e-41 7.887e-42 1.93e-42 -8.235e-42 9.847e-42 9.816e-42 9.886e-42
9.937e-42 9.932e-42 1.0138e-41 1.0152e-41 1.0256e-41 3.49e-42 -5.782e-42 -9.83e-42
-9.44e-43 1.0014e-41 -9.902e-42 -4.644e-42 -1.0085e-41 -1.0421e-41 -9.843e-42 -9.832e-42
-1.2448e-41 9.851e-42 9.907e-42 9.846e-42 1.0108e-41 9.896e-42 -9.886e-42 -9.858e-42
-1.49e-42 9.892e-42 9.81e-42 9.941e-42 -4.872e-42 -1.0706e-41 9.354e-42 1.0099e-41
-1.1477e-41 -1.0199e-41 -1.0456e-41 9.833e-42 -5.293e-42 -1.0165e-41 -9.885e-42 9.888e-42
-1.0616e-41 -9.867e-42 -1.0019e-41 1.0232e-41 -1.029e-41 9.809e-42 9.885e-42 -1.0786e-41
-1.0057e-41 9.861e-42 -9.893e-42 -1.0206e-41 1.0061e-41 -9.934e-42 -9.854e-42 1.0256e-41
9.854e-42 -1.0431e-41 -1.0022e-41 9.878e-42 -9.899e-42 9.858e-42 9.847e-42 -9.839e-42
-1.0455e-41 6.316e-42 9.81e-42 -1.0365e-41 9.895e-42 -9.952e-42 1.0979e-41 9.878e-42
-9.858e-42 -1.028e-41 -9.348e-42 -9.917e-42 9.909e-42 9.875e-42 9.562e-42 -9.979e-42
-1.0648e-41 -9.944e-42 -1.0087e-41 -9.94e-42 -9.955e-42 -9.847e-42 -9.825e-42 1.0141e-41
-9.94e-42 -1.0787e-41 -9.817e-42 1.0186e-41 -1.2288e-41 5.517e-42 -9.892e-42 9.969e-42
-1.11e-41 -1.0374e-41 -1.069e-41 -1.062e-41 9.875e-42 -9.843e-42 -9.932e-42 -1.0511e-41
4.048e-42 -1.0053e-41 9.872e-42 9.822e-42 -1.1782e-41 -9.945e-42 -1.0032e-41 1.1921e-41
9.888e-42 9.862e-42 -9.958e-42 -1.2456e-41 7.564e-42 9.872e-42 9.837e-42 -9.815e-42
-1.0049e-41 8.944e-42 9.823e-42 1.018e-41 -9.876e-42 9.902e-42 9.963e-42 -1.2254e-41
9.928e-42 1.0318e-41 -1.35e-43 9.977e-42 -9.868e-42 1.0071e-41 -1.193e-41 -1.0846e-41
-9.86e-42 -1.0084e-41 -7.435e-42 -9.878e-42 -9.846e-42 -9.84e-42 9.809e-42 9.85e-42
-9.921e-42 1.175e-41 9.834e-42 6.383e-42 9.861e-42 -1.0347e-41 1.2167e-41 9.871e-42
-1.087e-42 -1.0389e-41 -9.839e-42 -9.914e-42 9.888e-42 -9.95e-42 4.942e-42 9.917e-42

2.bias f4 [128]
00000000: 611b 0080 9c1b 0080 591b 0080 c71b 0080
00000010: b3f8 223c f493 babb 01ee d43c 2927 1b3b
00000020: 2dac 153b 74b8 80bb 1dd8 9b3a 661b 0080
00000030: 801b 0080 f0af 893a 1b35 633a c7aa 8bb1
00000040: 99ff b7bb 8f1b 0080 8f1b 0080 3f56 773c
00000050: a01c 6f3b c539 9ebb 961b 0080 64cb ee3a
00000060: 27e5 a03b 361c 0080 d21b 0080 731b 0080
00000070: 3d79 a03b 8b06 59bb 6e1b 0080 9d1b 0080
00000080: e7bb b53b 811b 0080 0251 ee3b bd41 2fb1
00000090: d416 1d3a c81b 0080 de1d 0080 85be 8cbb
000000a0: 5f1b 0080 be1b d53a 3349 073b ea48 cabb
000000b0: 5d1b 0080 811b 0080 a51b 0080 6c1b 0080
000000c0: 631b 0080 8521 0080 f1a7 a7b2 ce20 1e3a
000000d0: bd33 7d3a e7fb 643a 4f74 513b 8881 c93a
000000e0: 991b 0080 6c07 dd3a 1d58 b5bb 661d 0080
000000f0: 791b 0080 941b 0080 751b 0080 ff1a 093b
00000100: 8f1b 0080 a4c7 d93b 5bf6 ae39 951b 0080
00000110: a01b 0080 9e1b 0080 e1be e1ae 811b 0080
00000120: d71b 0080 14ed cabb f8ac 553c 1567 4a3c
00000130: b61b 0080 931b 0080 b77c 02bb 7e1b 0080
00000140: 7e0e 033c 6230 2584 eae3 653b 1a4a f93a
00000150: 781b 0080 9d1b 0080 5cc6 ee39 971b 0080
00000160: fff4 c9ba ad3b a13b c739 2f3c 841b 0080
00000170: 931b 0080 f2d0 22a7 d97d 9cba 841b 0080
00000180: f41b 0080 c23c 123b b21b 0080 801b 0080
00000190: 831b 0080 941b 0080 e711 723b 991b 0080
000001a0: 731b 0080 6f53 a13a 571d 0080 7c1b 0080
000001b0: fa0e 493b 8d1b 0080 6c1b 0080 5c57 44ba
000001c0: b0d6 123b 4f84 77b1 a3eb 403c be6e 363a
000001d0: 67b3 373b 4be3 ae3a e618 0080 cc1b 0080
000001e0: e862 29ba 801b 0080 f6b4 fa3b ce02 153b
000001f0: 6e1b 0080 d68e 073b 6f1b 0080 2532 40b8
-9.822e-42 -9.904e-42 -9.81e-42 -9.965e-42 0.00994699 -0.005693907 0.025992395 0.0023674464
0.002283822 -0.0039282385 0.0011889968 -9.829e-42 -9.865e-42 0.0010504704 0.0008667276 -4.0648476e-09
-0.0056151864 -9.886e-42 -9.886e-42 0.015096246 0.0036485568 -0.004828664 -9.896e-42 0.0018218574
0.0049101296 -1.012e-41 -9.98e-42 -9.847e-42 0.004897265 -0.0033115472 -9.84e-42 -9.906e-42
0.0055460813 -9.867e-42 0.0072728405 -2.550322e-09 0.00059924764 -9.966e-42 -1.0714e-41 -0.0042951726
-9.819e-42 0.0016258878 0.0020642995 -0.006173243 -9.816e-42 -9.867e-42 -9.917e-42 -9.837e-42
-9.825e-42 -1.2025e-41 -1.951773e-08 0.000603211 0.00096588937 0.0008735046 0.0031960194 0.0015373686
-9.9e-42 0.0016863174 -0.0055341856 -1.0546e-41 -9.855e-42 -9.893e-42 -9.85e-42 0.0020920632
-9.886e-42 0.0066461135 0.00033371415 -9.895e-42 -9.91e-42 -9.907e-42 -1.0265722e-10 -9.867e-42
-9.987e-42 -0.0061928127 0.013041727 0.012353678 -9.941e-42 -9.892e-42 -0.0019910762 -9.862e-42
0.007999061 -1.9417873e-36 0.0035078474 0.0019019276 -9.854e-42 -9.906e-42 0.00045542687 -9.897e-42
-0.0015408098 0.004920444 0.010694928 -9.871e-42 -9.892e-42 -2.2595286e-15 -0.0011939361 -9.871e-42
-1.0028e-41 0.0022314047 -9.935e-42 -9.865e-42 -9.87e-42 -9.893e-42 0.003693694 -9.9e-42
-9.847e-42 0.001230819 -1.0525e-41 -9.86e-42 0.0030679093 -9.883e-42 -9.837e-42 -0.0007489824
0.0022405796 -3.601844e-09 0.01177493 0.0006959251 0.0028030516 0.0013342885 -8.932e-42 -9.972e-42
-0.00064615766 -9.865e-42 0.0076509668 0.0022737267 -9.84e-42 0.0020684502 -9.841e-42 -4.5823068e-05

4.weight f4 [64, 128]
00000000: ad1b 0000 5f1b 0000 351c 0080 bc25 0080
00000010: b10f 163d 0f6f 183d 050b 5a3d 5b54 b73c
00000020: 9bf5 b33c 4502 d23c 155d e63c 821b 0000
00000030: 771b 0080 a2e2 cb3c 474f f43c 6779 85b1
00000040: c077 163d b61d 0000 c71b 0080 34e7 1f3d
00000050: 1f00 bc3c 4706 023d e31c 0000 ac51 0b3d
00000060: ae3a f93c eb1e 0080 201d 0080 250c 0000
00000070: fa4f ed3c 0d31 b03c 971b 0000 f11e 0080
00000080: bc52 263d 881b 0000 30dc 303d c61b 0000
00000090: 3158 d83c 881c 0000 c81b 0080 c44d e63c
000000a0: 4c1c 0000 92bf 2b3d f76e 8c3c 3e6c 253d
000000b0: 741c 0000 461c 0080 e41b 0000 0b1c 0000
000000c0: 741b 0080 b11b 0080 59c7 2291 33e6 473c
000000d0: d7ad 8a3c 1c83 d93c caf5 e23c e7a9 ac3c
000000e0: 911b 0000 a5a8 a13c 154e 143d d71b 0000
000000f0: 741b 0080 761b 0000 831b 0080 0a97 873c
00000100: 991c 0080 f987 203d 3d34 583c 6a05 0000
00000110: 811e 0080 121d 0000 bf1b 0000 b11b 0080
00000120: 281f 0000 c523 263d 73c9 163d 92ad 153d
00000130: f71b 0000 461c 0080 4feb 583c 731b 0080
00000140: 51cd e03c 7df6 a502 df35 2b3d aad0 bd3c
00000150: 6a22 0080 481c 0000 e377 743c 5f1b 0080
00000160: fbf4 253c deac ee3c 313b 133d e41b 0000
00000170: 7d07 0000 721b 0000 33bc 033c 4d1c 0080
00000180: eb1f 0000 f998 9a3c 8f0d 0080 ea10 0080
00000190: 911c 0000 5f1c 0000 46e4 a23c 2616 0080
000001a0: de1b 0000 d29a ab3c 0518 0000 f61c 0080
000001b0: 19f5 9f3c 5a1d 0080 5b1d 0000 c110 c13b
000001c0: 813c 1b3d ae1b 0000 44bd 103d a0c9 a33c
000001d0: 9b6c f03c a440 ad3c 9f1b 0000 711f 0080
000001e0: ba45 083d 5e1b 0000 38e1 023d c1ac 973c
000001f0: 361c 0000 5410 903c bf1b 0080 8c96 ee2d
00000200: e80f 0080 b61c 0080 ed1b 0080 f31b 0080
00000210: 170c 303d 1ee0 323d 9860 7f3d 9d4a d73c
00000220: cf56 d33c 2a87 f63c 533a 073d b51b 0000
00000230: 8c1b 0080 d867 ef3c 6c67 0f3d 14be f5b1
00000240: 7392 303d 2101 0080 be1b 0000 b085 3b3d
00000250: 08c4 dc3c 4a9b 183d d71c 0000 8f84 233d
00000260: 1645 123d bc1b 0080 cc1b 0000 0703 0080
00000270: 5149 0b3d e7d8 ce3c 771b 0000 5d1c 0000
00000280: 2d20 433d 7b1b 0000 d571 4f3d 971b 0000
00000290: 0605 fe3c e41b 0000 3809 0080 c02a 073d
000002a0: ec1e 0080 8d81 493d a7f7 a43c fd17 423d
000002b0: 731c 0080 a51c 0080 a01b 0000 3a08 0000
000002c0: 821c 0000 f621 0080 1f85 9214 9ddf 6a3c
000002d0: 52e7 a23c 2c63 ff3c c639 053d fec7 ca3c
000002e0: ef1b 0000 e8de bd3c 6c09 2e3d 201c 0000
000002f0: e01b 0080 3521 0000 ca1b 0000 a848 9f3c
00000300: 911b 0000 6155 3c3d 6302 7e3c 841b 0080
00000310: cc1d 0080 631c 0080 8a1b 0000 761b 0000
00000320: 5c1b 0000 01ef 423d 8cdf 303d 7694 2f3d
00000330: 6c1c 0000 821b 0000 38a4 7e3c bc1c 0080
00000340: 87f0 033d 85bc 6c82 13dd 483d 5fe6 de3c
00000350: 1c1c 0080 f81b 0000 e998 8f3c d21b 0000
00000360: 09c6 423c b415 0c3d d9b9 2c3d ac1b 0000
00000370: ca02 0000 a11b 0000 f9a3 1a3c a31b 0080
00000380: 721f 0000 2c96 b53c 801d 0080 4e0f 0080
00000390: 3e1c 0000 761b 0000 f650 bf3c e716 0080
000003a0: 221b 0000 178a c93c ad1b 0000 641b 0000
000003b0: 01e0 bb3c 6c1c 0080 e81d 0000 566b e23b
000003c0: 182a 363d 781b 0000 04cd 293d 035e c03c
000003d0: 841e 0d3d f778 cb3c 901b 0000 981c 0000
000003e0: e8f1 1f3d 421d 0000 8598 193d 5728 b23c
000003f0: 5e1b 0000 193a a93c a01b 0080 04f7 98ac
9.928e-42 9.819e-42 -1.0119e-41 -1.3537e-41 0.03663606 0.03721529 0.053233165 0.022379091
0.0219677 0.025635848 0.028120557 9.868e-42 -9.853e-42 0.02488834 0.029822959 -3.8846113e-09
0.036735296 1.0658e-41 -9.965e-42 0.03903885 0.022949276 0.031744268 1.0363e-41 0.034013435
0.030423488 -1.1091e-41 -1.0448e-41 4.357e-42 0.0289688 0.021507764 9.897e-42 -1.11e-41
0.040606245 9.876e-42 0.043178737 9.963e-42 0.02640924 1.0235e-41 -9.966e-42 0.028113253
1.0151e-41 0.041930743 0.017142756 0.04038643 1.0207e-41 -1.0143e-41 1.0005e-41 1.006e-41
-9.848e-42 -9.934e-42 -1.2840975e-28 0.01220088 0.016928596 0.026551776 0.027705092 0.02107711
9.889e-42 0.019733736 0.036207277 9.987e-42 -9.848e-42 9.851e-42 -9.87e-42 0.016551513
-1.0259e-41 0.039192174 0.013196048 1.942e-42 -1.0943e-41 1.0428e-41 9.953e-42 -9.934e-42
1.1177e-41 0.040561456 0.03681321 0.036542483 1.0032e-41 -1.0143e-41 0.013239696 -9.847e-42
0.027441652 2.4386048e-37 0.041799422 0.023170788 -1.2345e-41 1.0145e-41 0.014921161 -9.819e-42
0.010129209 0.029135164 0.03594512 1.0005e-41 2.686e-42 9.846e-42 0.008040476 -1.0152e-41
1.145e-41 0.018871771 -4.864e-42 -6.068e-42 1.0248e-41 1.0178e-41 0.01988424 -7.945e-42
9.997e-42 0.020947848 8.617e-42 -1.0389e-41 0.019526051 -1.053e-41 1.0531e-41 0.00589189
0.037899498 9.93e-42 0.035336748 0.019993603 0.029348662 0.021148987 9.909e-42 -1.1279e-41
0.03326962 9.817e-42 0.031953067 0.018514993 1.012e-41 0.01758591 -9.953e-42 2.7124324e-11
-5.706e-42 -1.03e-41 -1.0018e-41 -1.0026e-41 0.04298028 0.043670766 0.06234798 0.026280696
0.02579823 0.030093748 0.033014607 9.94e-42 -9.882e-42 0.029224321 0.03501074 -7.152048e-09
0.043108415 -4.05e-43 9.952e-42 0.04578179 0.026948944 0.03725747 1.0346e-41 0.03992134
0.035710417 -9.949e-42 9.972e-42 -1.086e-42 0.034005467 0.025249911 9.853e-42 1.0175e-41
0.047638107 9.858e-42 0.050645668 9.897e-42 0.031008255 1.0005e-41 -3.307e-42 0.032999754
-1.1093e-41 0.049195815 0.020137621 0.04738616 -1.0206e-41 -1.0276e-41 9.91e-42 2.951e-42
1.0227e-41 -1.2183e-41 1.479474e-26 0.01433554 0.019885693 0.031175219 0.0325258 0.024753567
1.002e-41 0.023177579 0.042489454 1.009e-41 -1e-41 1.1912e-41 9.969e-42 0.019443825
9.889e-42 0.04597986 0.015503499 -9.871e-42 -1.0689e-41 -1.0183e-41 9.879e-42 9.851e-42
9.815e-42 0.047591213 0.04318194 0.042866193 1.0196e-41 9.868e-42 0.0155420825 -1.0308e-41
0.032211807 -1.7392644e-37 0.049038958 0.027209459 -1.0084e-41 1.0033e-41 0.017528968 9.98e-42
0.011888036 0.034200385 0.042169426 9.927e-42 1e-42 9.911e-42 0.009438508 -9.914e-42
1.128e-41 0.022166334 -1.0583e-41 -5.49e-42 1.0131e-41 9.851e-42 0.023354035 -8.216e-42
9.733e-42 0.02460198 9.928e-42 9.826e-42 0.022933962 -1.0196e-41 1.0728e-41 0.006909768
0.044473737 9.854e-42 0.041455284 0.023482328 0.03445293 0.024837954 9.888e-42 1.0258e-41
0.03904906 1.0496e-41 0.03749897 0.021747751 9.817e-42 0.020657586 -9.91e-42 -4.347524e-12

4.bias f4 [64]
00000000: d7cc dc3b 5933 053d 86bd 4fba fa44 94ac
00000010: 631b 0080 ea0a 67b8 6321 0080 8828 6f3c
00000020: 871b 0080 91bd 763b 791b 0080 84b7 e53c
00000030: 8c30 7c3b 382a 8c3c b21b 0080 7a39 003c
00000040: e75c 24ba d020 92b9 21f9 1c31 23d6 c53a
00000050: 7a59 bf3b 5a1b 0080 741b 0080 d153 8a3a
00000060: 6b1b 0080 9a1b 0080 981b 0080 c45b 978e
00000070: 73e3 963a cbf8 2405 e482 09a2 1c3f 4a3b
00000080: ac1e 0080 a04a 45bb 961b 0080 e4a8 723b
00000090: 7a1b 0080 9c05 58b1 f1a6 353b d31b 0080
000000a0: e595 2cb1 6e1b 0080 7d1b 0080 be1b 0080
000000b0: a8f7 23ba ba1a 923c 681b 0080 121f 0080
000000c0: 8db5 7c3b 991b 0080 f353 823b b203 033d
000000d0: 55c3 cdb1 a41b 0080 0d19 82b7 731b 0080
000000e0: 03e5 2f3b 4baa f5b9 ad12 953c c009 d83b
000000f0: dc1c a53a 9e1b 0080 aa17 023d 9443 723b
0.006738286 0.032519672 -0.00079246645 -4.214071e-12 -9.825e-42 -5.5084856e-05 -1.1977e-41 0.014597066
-9.875e-42 0.0037649611 -9.855e-42 0.028041609 0.0038481085 0.017109975 -9.935e-42 0.0078262035
-0.0006269947 -0.00027871737 2.2842601e-09 0.0015093725 0.005839524 -9.812e-42 -9.848e-42 0.0010553544
-9.836e-42 -9.902e-42 -9.899e-42 -3.731274e-30 0.0011511877 7.756939e-36 -1.8636255e-18 0.003086037
-1.1003e-41 -0.0030104294 -9.896e-42 0.0037026936 -9.857e-42 -3.1435325e-09 0.0027717913 -9.981e-42
-2.51145e-09 -9.84e-42 -9.861e-42 -9.952e-42 -0.000625486 0.01783501 -9.832e-42 -1.1146e-41
0.003856036 -9.9e-42 0.0039772927 0.031985946 -5.988492e-09 -9.916e-42 -1.5508873e-05 -9.847e-42
0.0026839382 -0.0004685692 0.018197382 0.006592959 0.0012597102 -9.907e-42 0.03176085 0.003696655

6.weight f4 [64, 64]
00000000: e91a 0080 8b1c 0080 ae22 0000 601b 0080
00000010: 361f 0080 e816 0080 b21b 0080 e51e 0080
00000020: df1b 0080 df20 0080 8e1d 0080 981d 0080
00000030: 3a17 0080 f11d 0080 5f1b 0000 2f20 0080
00000040: b321 0080 911e 0080 d621 0000 1718 0080
00000050: 5820 0080 1f1d 0000 0121 0080 0622 0080
00000060: 981b 0000 591b 0000 f01e 0000 0f1f 0080
00000070: 3720 0080 5e1b 0080 3709 0080 e01a 0080
00000080: ae1e 0000 1920 0080 cf1b 0080 4016 0080
00000090: aa22 0080 5f1b 0000 771d 0080 5a1b 0000
000000a0: 691b 0080 cd1e 0000 741b 0080 741b 0080
000000b0: 1d1d 0000 911b 0080 6f1c 0080 5a1b 0080
000000c0: 9a1c 0080 741b 0000 a31a 0080 731d 0080
000000d0: 9d21 0080 a41b 0000 4d20 0000 311c 0080
000000e0: ea1f 0080 1a1c 0000 8018 0080 2320 0000
000000f0: 5e1f 0000 0023 0080 ff1c 0080 671f 0080
00000100: 6b0f 103d e060 293d 3f1f 133b 6f1b 0000
00000110: 341f 0000 8efe f43c b71b 0000 cd15 df3c
00000120: d004 0080 298a a33c 141c 0080 0662 293d
00000130: cc76 a83c a333 003d 6f1b 0000 8cba a53c
00000140: 21c4 c4b4 0081 913b 0f4c e0b0 e84a 2d3d
00000150: f794 ab3c 6f1b 0000 e41b 0000 ec9b df3c
00000160: fe1b 0080 2e1c 0080 7f1c 0080 967c eb0c
00000170: c5f9 dc3c 1041 8985 c41b 0000 6722 d63c
00000180: 8b11 0080 58bf a13c dc1f 0080 273b cf3c
00000190: 9422 0000 f41b 0080 cbb6 db3c 5d1b 0000
000001a0: ee22 14b0 691c 0080 591b 0080 411e 0000
000001b0: 1a30 f03a 11dd f13c eb1b 0000 e31d 0000
000001c0: 442c 843c c01b 0080 db8b 0a3d fe0e 4a3d
000001d0: a41b 0080 7710 0080 124a e235 111e 0000
000001e0: cfbb 343c 5a78 b93a 7ea7 053d 8c29 8d3c
000001f0: 8a30 cc3c 831d 0000 508e 253d 4fa6 803c
00000200: a22f fb3c 726d 133d 656f 013b 881b 0080
00000210: 4c0e 0000 80bd d53c 220a 0000 2d7b c23c
00000220: c51d 0000 0ebd 8e3c c31b 0080 b279 133d
00000230: 6107 933c e274 df3c 7b1b 0080 d297 903c
00000240: c71b 31b5 6618 7f3b b229 e8af 950d 173d
00000250: 48b8 953c 951c 0080 7e1b 0000 f61a c33c
00000260: bb1b 0080 c61b 0080 b91b 0080 f22a 110d
00000270: 7bcf c03c 0103 0a85 661b 0000 ddd3 ba3c
00000280: e01d 0000 eb45 8d3c ed1b 0080 89ce b43c
00000290: 0c1c 0000 6d1b 0080 deb0 bf3c 7c1b 0080
000002a0: cd75 13b0 621d 0080 951b 0000 a61b 0000
000002b0: 4d7b d33a c7ca d23c 491e 0000 bd1b 0000
000002c0: 91c9 663c a522 0000 2ca0 f13c 68d1 2f3d
000002d0: dd1b 0080 310a 0080 fd13 8b35 c41e 0000
000002e0: c9e5 1d3c 774a a33a e5ee e83c 2f63 763c
000002f0: 7e30 b23c 1c1c 0000 e41b 103d d0a5 603c
00000300: 251e 24b7 462c 6b37 eb35 c6b5 690f 0000
00000310: 326e 0000 bd09 6fb7 7f1b 0080 5f55 2bb7
00000320: 881b 0080 796b 0637 5c1b 0000 eb18 6637
00000330: 6015 0337 8af0 0fb7 8d1b 0000 efd0 bd36
00000340: 8f6a 52b2 4285 e3b4 071b de2b 4bd2 d436
00000350: b6f0 ce36 831b 0080 5e1b 0080 e1cb 07b7
00000360: f31b 0000 8f1b 0080 6a1b 0000 a006 d983
00000370: 529c efb6 9721 1804 081c 0000 52ff b8b6
00000380: 0c1e 0080 39ca 0c37 391e 0080 ac97 5ab6
00000390: af1b 0000 e661 0080 eba9 f8b6 ff21 0080
000003a0: 93d1 5fa3 0620 0080 7f1b 0080 861b 0080
000003b0: 8f41 8e35 8aa8 1eb7 051f 0000 4521 0000
000003c0: 4095 5335 581b 0080 eea6 64b7 5ee4 9237
000003d0: 964f 0000 831b 0080 7bfb 3e2c 581b 0080
000003e0: 26a7 c135 9890 74b5 6eae d1b6 9f41 a336
000003f0: 4592 acb4 611b 0000 731f 5837 32ef 00b5
-9.654e-42 -1.0239e-41 1.2441e-41 -9.82e-42 -1.1196e-41 -8.217e-42 -9.935e-42 -1.1083e-41
-9.998e-42 -1.1792e-41 -1.0602e-41 -1.0616e-41 -8.332e-42 -1.0741e-41 9.819e-42 -1.1545e-41
-1.2089e-41 -1.0965e-41 1.2138e-41 -8.642e-42 -1.1603e-41 1.0447e-41 -1.184e-41 -1.2205e-41
9.899e-42 9.81e-42 1.1098e-41 -1.1142e-41 -1.1557e-41 -9.817e-42 -3.306e-42 -9.641e-42
1.1006e-41 -1.1514e-41 -9.976e-42 -7.982e-42 -1.2435e-41 9.819e-42 -1.057e-41 9.812e-42
-9.833e-42 1.1049e-41 -9.848e-42 -9.848e-42 1.0444e-41 -9.889e-42 -1.02e-41 -9.812e-42
-1.026e-41 9.848e-42 -9.555e-42 -1.0564e-41 -1.2058e-41 9.916e-42 1.1587e-41 -1.0113e-41
-1.1449e-41 1.0081e-41 -8.789e-42 1.1528e-41 1.1252e-41 -1.2556e-41 -1.0402e-41 -1.1265e-41
0.035170954 0.041352153 0.0022449044 9.841e-42 1.1194e-41 0.029906537 9.942e-42 0.027232075
-1.726e-42 0.01996334 -1.0073e-41 0.041353248 0.02056446 0.031299245 9.841e-42 0.020230554
-3.6650547e-07 0.004440427 -1.6319762e-09 0.042307764 0.020945055 9.841e-42 1.0005e-41 0.027296029
-1.0042e-41 -1.0109e-41 -1.0222e-41 3.6282465e-31 0.026974568 -1.2907318e-35 9.96e-42 0.026139451
-6.293e-42 0.01974456 -1.1429e-41 0.02529676 1.2404e-41 -1.0028e-41 0.02682056 9.816e-42
-5.3891724e-10 -1.0192e-41 -9.81e-42 1.0853e-41 0.0018324882 0.029524358 1.0015e-41 1.0721e-41
0.016134389 -9.955e-42 0.033824783 0.049330704 -9.916e-42 -5.906e-42 1.685987e-06 1.0786e-41
0.011031105 0.0014150247 0.032630436 0.017231725 0.024925489 1.0587e-41 0.040418923 0.015704302
0.030662362 0.035993047 0.0019750234 -9.876e-42 5.129e-42 0.026091337 3.635e-42 0.023740375
1.0679e-41 0.017424133 -9.959e-42 0.03600473 0.017947854 0.027277414 -9.858e-42 0.017650519
-6.597806e-07 0.0038924455 -4.223018e-10 0.036878187 0.018276349 -1.0253e-41 9.862e-42 0.023816567
-9.948e-42 -9.963e-42 -9.945e-42 4.473327e-31 0.023536434 -6.4892805e-36 9.829e-42 0.022806102
1.0717e-41 0.017245254 -1.0018e-41 0.02207114 1.0061e-41 -9.839e-42 0.023399767 -9.86e-42
-5.3645693e-10 -1.054e-41 9.895e-42 9.918e-42 0.0016134769 0.025731457 1.0864e-41 9.95e-42
0.014086143 1.2428e-41 0.029495321 0.042924315 -9.995e-42 -3.656e-42 1.0362124e-06 1.1037e-41
0.009637305 0.0012458105 0.028434226 0.015038296 0.021751639 1.0084e-41 0.03518285 0.013711408
-9.78218e-06 1.40174e-05 -1.4767842e-06 5.528e-42 3.953e-41 -1.42477775e-05 -9.864e-42 -1.0212271e-05
-9.876e-42 8.012045e-06 9.815e-42 1.371487e-05 7.813185e-06 -8.579469e-06 9.883e-42 5.656962e-06
-1.2247837e-08 -4.2379003e-07 1.578155e-12 6.3425737e-06 6.167301e-06 -9.87e-42 -9.817e-42 -8.094096e-06
1.0026e-41 -9.886e-42 9.834e-42 -1.2755635e-36 -7.140953e-06 1.7882938e-36 1.0056e-41 -5.5133505e-06
-1.0779e-41 8.391734e-06 -1.0842e-41 -3.2572816e-06 9.931e-42 -3.512e-41 -7.410757e-06 -1.2196e-41
-1.2133233e-17 -1.1488e-41 -9.864e-42 -9.874e-42 1.0598905e-06 -9.456775e-06 1.1128e-41 1.1935e-41
7.882081e-07 -9.809e-42 -1.3628725e-05 1.7510898e-05 2.855e-41 -9.87e-42 2.7140224e-12 -9.809e-42
1.4428267e-06 -9.1107495e-07 -6.2489917e-06 4.865418e-06 -3.2143922e-07 9.822e-42 1.2881926e-05 -4.803179e-07

6.bias f4 [64]
00000000: 6f1b 0080 09f1 4bbb 6209 5b3c 1c9d b5ba
00000010: 6723 aaba bb21 0080 761b 0080 5601 b9bb
00000020: 941b 0080 56b2 3bba 701b 0080 7651 053a
00000030: af9c a5b8 6d00 0080 af4e 213b 871b 0080
00000040: e315 953c ea1b 0080 a31b 0080 33b6 1200
00000050: d521 0080 07b4 733b 9986 a53c 1658 043c
00000060: 3076 deba 42b5 3dbc 6f1b 0080 9a1b 0080
00000070: ce74 15bb 38f5 caba cd1b 0080 06b4 fcba
00000080: 798c 90bb 6e1b 0080 281c 0080 0b8b 623b
00000090: 5d7c 443b 6d1b 0080 37bf 7c3c 892b 1a3a
000000a0: e01b 0080 ce1e ca3b ba82 233d 941b 0080
000000b0: 09a8 0d3b 7c1b 0080 631b db3c e01b 0080
000000c0: 5b7a 0fba 611b 0080 a2ed b53c c3a4 a73c
000000d0: 5a1b 0080 721b 0080 2da4 f13c 0d1c 0080
000000e0: 897b dd3c d51b 0a3b 621b 0080 831b 0080
000000f0: dcc7 503b 4a52 71bc 764d 84ba c466 ab3b
-9.841e-42 -0.003111901 0.013368936 -0.0013856026 -0.0012980521 -1.21e-41 -9.851e-42 -0.005645911
-9.893e-42 -0.0007160058 -9.843e-42 0.0005085686 -7.896998e-05 -1.53e-43 0.002461355 -9.875e-42
0.018198913 -1.0014e-41 -9.914e-42 1.7184e-39 -1.2137e-41 0.0037186162 0.020205783 0.008077642
-0.0016972478 -0.01157886 -9.841e-42 -9.902e-42 -0.0022805217 -0.0015484458 -9.973e-42 -0.0019279725
-0.004411277 -9.84e-42 -1.01e-41 0.003456774 0.0029981353 -9.839e-42 0.015426449 0.0005881121
-1e-41 0.006168223 0.039919592 -9.893e-42 0.002161505 -9.86e-42 0.026746457 -1e-41
-0.00054732495 -9.822e-42 0.022208039 0.020464307 -9.812e-42 -9.846e-42 0.02949723 -1.0063e-41
0.027036445 0.0021073718 -9.823e-42 -9.87e-42 0.0031857407 -0.014729092 -0.0010093886 0.0052307565

8.weight f4 [32, 64]
00000000: b91c 0000 1c5e 023d 4c4d e33c 6942 5fb7
00000010: 5d52 cb3c 5d1b 0000 b209 0000 9c2b c73c
00000020: 8405 0000 b326 f83c c707 0000 0cac 013d
00000030: 3951 903b 471c 0000 c020 b83c d91b 0080
00000040: 9eca da3c 9d1b 0000 311c 0000 ba31 0000
00000050: db1c 0080 cab5 5d3c ad3b 2b3d 9e63 fc3c
00000060: d1ed e63c 854e 723d ba1c 0000 f61e 0080
00000070: 49fb 1f3d 9944 393d 241f 0000 cd76 063d
00000080: 5db3 113d f11b 0000 d61b 0080 64fe 9f3c
00000090: 1ce8 213d 2f1c 0000 196d 813d 10dc 183c
000000a0: 061c 0000 e26d 9d3c 578f 563d a41b 0080
000000b0: b111 223d 9c1e 0000 c706 283d 6b1b 0080
000000c0: 80d4 8cb3 a91b 0000 bc5b 403d 8b96 ea3c
000000d0: fb1b 0000 5416 0080 c21b 253d 1f00 0080
000000e0: d20d 223d 3bc1 d43c b41c 0000 931c 0080
000000f0: 2a38 953c 41c3 2b3d 7f4b 9e3c 31fe bd3c
00000100: 701c 0000 971e 0080 731c 0000 4a7a 0000
00000110: b01c 0000 3a1c 0000 ad1b 0080 411d 0080
00000120: 7b1b 0000 cd1b 0080 9e1b 0080 941c 0080
00000130: b71b 0000 ab1b 0080 e11b 0080 2c1d 0080
00000140: 821b 0000 651b 0000 591b 0000 511d 0000
00000150: 901b 0080 7d20 0080 ff1c 0000 3b1d 0080
00000160: 731d 0080 c01d 0000 e01c 0080 291f 0080
00000170: 801c 0000 a41b 0000 dc1b 0080 991f 0080
00000180: 331f 0080 591b 0000 921b 0080 f01e 0080
00000190: d61c 0000 4b1c 0080 f31c 0080 861f 0080
000001a0: 923d 0000 521f 0080 e51b 0080 7a1b 0080
000001b0: b91c 0000 251d 0080 b91d 0000 1f1d 0000
000001c0: 3936 0000 1d1c 0000 e11d 0000 f11d 0000
000001d0: a21b 0080 2323 0080 fa1b 0000 911b 0080
000001e0: da1b 0000 d81f 0080 831b 0080 5d1c 0080
000001f0: b11b 0080 001d 0080 e21f 0080 2f1c 0080
00000200: 650a 0000 a5dd 6f3d 9ee3 503d 4666 8638
00000210: 593d 3b3d 7b1b 0080 781b 0000 1469 373d
00000220: 0d1c 0000 d55d 643d 471d 0000 f29e 6e3d
00000230: 6aad 053c c51b 0000 3f9f 293d 131c 0080
00000240: eaf2 483d 701b 0000 b11b 0080 23a1 0e00
00000250: c81b 0080 62bd cc3c 551e 9c3d eb20 683d
00000260: ba93 543d 6db5 de3d 801b 0000 cf1b 0000
00000270: fa20 933d e243 aa3d 581d 0080 2270 773d
00000280: c203 863d 7e1c 0000 fd1f 0000 f778 133d
00000290: b923 953d 371d 0000 9868 ee3d fe49 8d3c
000002a0: 3d1e 0000 8921 113d 72be c23d a41b 0080
000002b0: 6206 953d 451c 0000 c17e 993d 6e1b 0000
000002c0: 827b fa34 b81b 0000 63d6 b03d 9954 573d
000002d0: 421c 0080 aa1b 0000 1ac5 963d b11f 0000
000002e0: 27a6 923d 9ae1 433d fe1b 0000 fd1b 0000
000002f0: 0195 093d d7ed 9d3d 7fe4 113d 76f7 2e3d
00000300: d21c 0080 ba1d 0080 a01b 0080 cd1f 0000
00000310: ac1e 0080 4b1c 0080 a71b 0080 3f1d 0000
00000320: 6c09 0080 a01e 0000 791d 0080 d01b 0080
00000330: a61e 0000 c41c 0080 4620 0080 741b 0080
00000340: 0c1d 0080 981b 0080 b04b 0080 811d 0000
00000350: 1a1d 0000 8b20 0080 7920 0000 ca1c 0080
00000360: a622 0080 8c1b 0000 250d 0080 011c 0000
00000370: a81d 0080 5c1d 0000 c01b 0000 d21b 0080
00000380: 741c 0080 941b 0080 bf03 0000 761b 0080
00000390: 051d 0080 181d 0080 691c 0000 ab1d 0080
000003a0: 4d13 0000 5e1f 0080 b41b 0080 1a1d 0080
000003b0: 9d1d 0080 4b22 0000 5a1c 0000 581e 0080
000003c0: 9b22 0000 8e1c 0080 b51d 0000 7e1d 0080
000003d0: 5e1d 0080 831c 0080 041f 0000 a41b 0000
000003e0: 121c 0000 4c20 0080 211c 0000 6f1c 0080
000003f0: 6220 0080 fe1c 0080 6421 0080 6b1e 0080
1.0304e-41 0.03182803 0.027746819 -1.3307298e-05 0.024819547 9.816e-42 3.478e-42 0.024312787
1.979e-42 0.03029189 2.79e-42 0.031658217 0.0044042137 1.0144e-41 0.022476554 -9.99e-42
0.026707944 9.906e-42 1.0113e-41 1.7839e-41 -1.0351e-41 0.013532111 0.041804958 0.03080922
0.028189572 0.059156913 1.0305e-41 -1.1107e-41 0.039058004 0.045231435 1.1171e-41 0.03282814
0.035571445 1.0023e-41 -9.986e-42 0.019530483 0.039527997 1.011e-41 0.06319637 0.009329811
1.0053e-41 0.019217435 0.052382793 -9.916e-42 0.039567653 1.098e-41 0.04102209 -9.836e-42
-6.5579115e-08 9.923e-42 0.046962485 0.028636238 1.0038e-41 -8.01e-42 0.040309675 -4.3e-44
0.03956396 0.025971046 1.0297e-41 -1.025e-41 0.018215258 0.041934256 0.019323109 0.023192497
1.0201e-41 -1.0974e-41 1.0206e-41 4.3869e-41 1.0291e-41 1.0126e-41 -9.928e-42 -1.0494e-41
9.858e-42 -9.973e-42 -9.907e-42 -1.0252e-41 9.942e-42 -9.925e-42 -1.0001e-41 -1.0465e-41
9.868e-42 9.827e-42 9.81e-42 1.0517e-41 -9.888e-42 -1.1655e-41 1.0402e-41 -1.0486e-41
-1.0564e-41 1.0672e-41 -1.0358e-41 -1.1178e-41 1.0224e-41 9.916e-42 -9.994e-42 -1.1335e-41
-1.1192e-41 9.81e-42 -9.89e-42 -1.1098e-41 1.0344e-41 -1.015e-41 -1.0385e-41 -1.1308e-41
2.2087e-41 -1.1236e-41 -1.0007e-41 -9.857e-42 1.0304e-41 -1.0455e-41 1.0662e-41 1.0447e-41
1.9451e-41 1.0085e-41 1.0719e-41 1.0741e-41 -9.913e-42 -1.2605e-41 1.0036e-41 -9.889e-42
9.991e-42 -1.1423e-41 -9.87e-42 -1.0175e-41 -9.934e-42 -1.0403e-41 -1.1437e-41 -1.011e-41
3.729e-42 0.058560986 0.050998323 6.408668e-05 0.045712803 -9.858e-42 9.854e-42 0.044777945
1.0063e-41 0.055753548 1.0503e-41 0.05825705 0.008159021 9.962e-42 0.041411635 -1.0071e-41
0.049059786 9.843e-42 -9.934e-42 1.343502e-39 -9.966e-42 0.024992649 0.07622973 0.056672018
0.051898696 0.10874448 9.865e-42 9.976e-42 0.07184024 0.08313729 -1.0527e-41 0.060409673
0.065436855 1.0221e-41 1.1475e-41 0.036004033 0.07282204 1.048e-41 0.116410434 0.017247196
1.0847e-41 0.035432372 0.09508981 -9.916e-42 0.07276608 1.0141e-41 0.074948795 9.84e-42
4.6655992e-07 9.944e-42 0.08634641 0.052570913 -1.0137e-41 9.924e-42 0.07361813 1.1369e-41
0.07160597 0.047822572 1.0042e-41 1.004e-41 0.033589367 0.0771138 0.0356183 0.042716466
-1.0339e-41 -1.0664e-41 -9.91e-42 1.1408e-41 -1.1003e-41 -1.015e-41 -9.92e-42 1.0492e-41
-3.38e-42 1.0986e-41 -1.0573e-41 -9.977e-42 1.0995e-41 -1.0319e-41 -1.1578e-41 -9.848e-42
-1.042e-41 -9.899e-42 -2.7152e-41 1.0584e-41 1.044e-41 -1.1674e-41 1.1649e-41 -1.0328e-41
-1.243e-41 9.882e-42 -4.715e-42 1.0046e-41 -1.0639e-41 1.0532e-41 9.955e-42 -9.98e-42
-1.0207e-41 -9.893e-42 1.344e-42 -9.851e-42 -1.041e-41 -1.0437e-41 1.0192e-41 -1.0643e-41
6.924e-42 -1.1252e-41 -9.938e-42 -1.044e-41 -1.0623e-41 1.2302e-41 1.017e-41 -1.0885e-41
1.2414e-41 -1.0243e-41 1.0657e-41 -1.058e-41 -1.0535e-41 -1.0228e-41 1.1126e-41 9.916e-42
1.007e-41 -1.1586e-41 1.0091e-41 -1.02e-41 -1.1617e-41 -1.04e-41 -1.1978e-41 -1.0912e-41

8.bias f4 [32]
00000000: 30ef 823a 9a1b 0080 9b0e 243c 761b 0080
00000010: 3f3d 79bb 5f1b 0080 da1b 0080 bad3 2b90
00000020: 89fe c83c 86b9 9bbc cc1c 0080 881b 0080
00000030: fb1f 9d00 3099 8e3b 7aca 353c 6152 ff9d
00000040: 5d1b 0080 6e1b 0080 bda5 0032 c81b 0080
00000050: 59e6 ea3c 141c 0080 9408 1c3d 37a4 8938
00000060: 744a 293c 2e21 0080 7ffb cbbc 2c33 423c
00000070: 0bdd 0abb 31b4 be3b b617 013a 7b1c 0080
0.0009989496 -9.902e-42 0.010013248 -9.851e-42 -0.003803089 -9.819e-42 -9.991e-42 -3.3886912e-29
0.024535434 -0.019009363 -1.033e-41 -9.876e-42 1.4429645e-38 0.0043517575 0.011095637 -6.7583116e-21
-9.816e-42 -9.84e-42 7.488265e-09 -9.966e-42 0.028674291 -1.0073e-41 0.03809412 6.5632565e-05
0.010332692 -1.1903e-41 -0.024900196 0.011853021 -0.002118888 0.0058198203 0.00049244927 -1.0217e-41

10.weight f4 [16, 32]
00000000: a5d5 86bb 4f1f 0000 6c33 fbbb 291d 0000
00000010: 6785 c1bb 471c 0000 5d22 0080 6c1b 0000
00000020: ebcf 5dbb 3f70 d0bb d90f 0080 ee1e 0000
00000030: d5bd f300 e37a a6bb 06bb 91bb 6322 0000
00000040: 7b21 0000 3b06 0080 6326 bd30 7c01 0080
00000050: b9e4 ddbb 621b 0080 e5c5 9dbb 2dd1 97b9
00000060: 360b 9ebb ff1b 0080 39ec a7bb 8288 c2bb
00000070: 2144 3cbb 7b0d 8abb eaf7 2f37 911b 0000
00000080: fa1e 0080 7e1b 0000 7c1f 0080 591b 0080
00000090: a41b 0080 901f 0000 1e1c 0000 881b 0080
000000a0: f61b 0080 661d 0080 9f1b 0000 9e1b 0080
000000b0: 631b 0080 c91b 0080 5c1d 0000 801b 0080
000000c0: 971e 0000 8320 0000 731b 0000 9f1b 0000
000000d0: 6f1b 0080 a81b 0080 a11c 0000 f208 0080
000000e0: cc1b 0000 b91b 0000 9c1b 0080 891f 0000
000000f0: c31b 0080 d821 0080 231e 0080 6e1b 0000
00000100: 7b1c 0080 6f1b 0080 a61e 0000 1e1d 0080
00000110: 0e21 0080 801b 0080 bd21 0080 ec1d 0000
00000120: 921c 0080 d61b 0080 7b1b 0080 8b1b 0000
00000130: 6b1b 0000 601b 0000 8c1d 0080 af1b 0080
00000140: 771b 0000 6f1b 0000 8d1b 0000 c31e 0080
00000150: aa1c 0080 881b 0000 a21b 0080 2b1c 0080
00000160: 611c 0080 611b 0080 8c1e 0000 751d 0080
00000170: 471c 0080 681b 0080 371c 0000 6b1b 0000
00000180: bd4a bf9e 8b1b 0080 1070 2b9f 2d10 0080
00000190: c5e1 ea9e c91c 0000 5021 0080 9367 0080
000001a0: c794 029f 94b5 bb9e 221d 0000 a51c 0080
000001b0: 981d 0080 3c48 ef9e 6385 f49e f618 0080
000001c0: a878 0080 701d 0080 8b58 7191 581c 0080
000001d0: a263 399f 5b1b 0080 a964 309f 56f1 899c
000001e0: ea33 ff9e 8520 0000 fd73 789e 6324 169f
000001f0: 60aa 7a9e 1a08 d69e 3b70 5e9a 741b 0080
00000200: bf15 853d 7f1c 0080 e872 ed3d 151c 0000
00000210: 393d b93d 831c 0080 5e1d 0000 641b 0080
00000220: 2c9d 6a3d 78a9 c33d 861b 0080 8918 0080
00000230: aed5 0102 c8ca a23d a378 913d 8d1b 0000
00000240: 4c1d 0080 3517 0000 8629 a6b1 4a1c 0000
00000250: b9bc d73d 5622 0000 7b02 a23d 73bd a73b
00000260: ab54 9c3d f21b 0080 93ba 9c3d 00c2 be3d
00000270: 0d6c 3a3d 17f0 883d 231b 46b9 c11b 0000
00000280: 9ce0 fcbc 5a1c 0080 6be8 64bd a71c 0080
00000290: d93a 33bd 941d 0000 6c1b 0000 9d1b 0080
000002a0: 1fc4 d2bc e436 41bd ec22 0080 a91b 0080
000002b0: 61d5 3380 4ed2 1abd fd66 08bd ac06 0080
000002c0: 731e 0000 051c 0000 3706 edb0 631c 0000
000002d0: 0d87 4dbd cd1b 0080 c2c2 0dbd 489a 16bb
000002e0: 325a 13bd 5e1d 0000 c1fa 1bbd 08ba 31bd
000002f0: 6af9 b0bc e60f 01bd 35f5 f038 5f1b 0000
00000300: 87d0 4fb8 c417 0000 e4fa 9338 1747 0000
00000310: 9f3b 2bb6 c820 0000 9821 0080 a76d 0000
00000320: 3313 22b8 dde6 25b7 d51c 0000 b022 0000
00000330: 3048 0080 d061 98b7 f173 edb7 993c 0000
00000340: 7722 0080 db0f 0000 2a68 f728 ea71 0080
00000350: 85a6 9738 4e1e 0080 dcad 0e38 4858 5db4
00000360: 470a 8eb7 be0d 0080 525a 40b8 3f04 d737
00000370: 6e43 23b8 38e4 33b8 b73b 31b4 701b 0080
00000380: 770e 693d e31c 0000 edce cf3d f71c 0080
00000390: 9f2b a23d dd1b 0080 2f1c 0080 7d1b 0000
000003a0: 980c 4d3d 8b4d ab3d 021c 0080 3b1d 0000
000003b0: 3a9d ef01 1980 8e3d e29d 7e3d 0b1c 0080
000003c0: 141c 0080 dc1b 0080 42d9 8fb0 a11b 0000
000003d0: e5a5 bc3d 771b 0000 a1ae 8d3d 603e 933b
000003e0: c0ce 883d 1b1c 0080 c962 893d d8a0 a63d
000003f0: 0f7e 233d 65ed 6f3d 98ed 2bb9 c61b 0080
-0.004114824 1.1231e-41 -0.007666042 1.046e-41 -0.0059057954 1.0144e-41 -1.2327e-41 9.837e-42
-0.0033845853 -0.006361037 -5.685e-42 1.1095e-41 2.2384124e-38 -0.005080567 -0.0044473438 1.2336e-41
1.201e-41 -2.235e-42 1.376247e-09 -5.32e-43 -0.0067716506 -9.823e-42 -0.0048148506 -0.00028956812
-0.004823114 -1.0043e-41 -0.0051245955 -0.005936683 -0.0028727131 -0.004213033 1.0488535e-05 9.889e-42
-1.1112e-41 9.862e-42 -1.1294e-41 -9.81e-42 -9.916e-42 1.1322e-41 1.0087e-41 -9.876e-42
-1.003e-41 -1.0546e-41 9.909e-42 -9.907e-42 -9.825e-42 -9.967e-42 1.0532e-41 -9.865e-42
1.0974e-41 1.1663e-41 9.847e-42 9.909e-42 -9.841e-42 -9.921e-42 1.027e-41 -3.209e-42
9.972e-42 9.945e-42 -9.904e-42 1.1313e-41 -9.959e-42 -1.2141e-41 -1.0811e-41 9.84e-42
-1.0217e-41 -9.841e-42 1.0995e-41 -1.0445e-41 -1.1858e-41 -9.865e-42 -1.2103e-41 1.0734e-41
-1.0249e-41 -9.986e-42 -9.858e-42 9.88e-42 9.836e-42 9.82e-42 -1.06e-41 -9.931e-42
9.853e-42 9.841e-42 9.883e-42 -1.1035e-41 -1.0283e-41 9.876e-42 -9.913e-42 -1.0105e-41
-1.018e-41 -9.822e-42 1.0958e-41 -1.0567e-41 -1.0144e-41 -9.832e-42 1.0122e-41 9.836e-42
-2.0253823e-20 -9.88e-42 -3.6303354e-20 -5.803e-42 -2.486909e-20 1.0326e-41 -1.195e-41 -3.7155e-41
-2.7651637e-20 -1.9874494e-20 1.0451e-41 -1.0276e-41 -1.0616e-41 -2.5334985e-20 -2.5889672e-20 -8.954e-42
-4.3283e-41 -1.056e-41 -1.9038832e-28 -1.0168e-41 -3.9257688e-20 -9.813e-42 -3.7352714e-20 -9.128283e-22
-2.7020646e-20 1.1666e-41 -1.31529965e-20 -3.1793834e-20 -1.32701225e-20 -2.2661482e-20 -4.5999183e-23 -9.848e-42
0.06498288 -1.0222e-41 0.11594182 1.0074e-41 0.090448804 -1.0228e-41 1.0535e-41 -9.826e-42
0.057278797 0.09553808 -9.874e-42 -8.802e-42 9.538746e-38 0.07948834 0.07103088 9.883e-42
-1.051e-41 8.325e-42 -4.8359565e-09 1.0148e-41 0.10534043 1.2317e-41 0.07910629 0.0051190197
0.07633337 -1.0025e-41 0.07652774 0.09314346 0.0455132 0.066864185 -0.0001889286 9.956e-42
-0.03086882 -1.017e-41 -0.055885714 -1.0279e-41 -0.043757293 1.061e-41 9.837e-42 -9.906e-42
-0.025728283 -0.04717149 -1.2528e-41 -9.923e-42 -4.760156e-39 -0.03779822 -0.033301342 -2.393e-42
1.0923e-41 1.0052e-41 -1.7245786e-09 1.0183e-41 -0.050177623 -9.973e-42 -0.034609564 -0.0022980142
-0.03597469 1.0535e-41 -0.038080934 -0.043390304 -0.021603305 -0.031509303 0.00011489765 9.819e-42
-4.9546852e-05 8.525e-42 7.056238e-05 2.5502e-41 -2.551569e-06 1.176e-41 -1.2051e-41 3.9336e-41
-3.864169e-05 -9.888518e-06 1.0343e-41 1.2444e-41 -2.5896e-41 -1.816536e-05 -2.8306591e-05 2.1738e-41
-1.2364e-41 5.688e-42 2.7467683e-14 -4.0865e-41 7.231258e-05 -1.0871e-41 3.4017357e-05 -2.0614345e-07
-1.6932505e-05 -4.93e-42 -4.5860485e-05 2.5631974e-05 -3.8925027e-05 -4.288947e-05 -1.6506134e-07 -9.843e-42
0.05689856 1.0363e-41 0.1014689 -1.039e-41 0.07918476 -9.995e-42 -1.011e-41 9.861e-42
0.05006084 0.083643995 -1.0047e-41 1.0486e-41 8.8020343e-38 0.069580264 0.062162288 -1.006e-41
-1.0073e-41 -9.994e-42 -1.0466368e-09 9.911e-42 0.09211329 9.853e-42 0.069180734 0.0044935197
0.066800594 -1.0082e-41 0.06708295 0.08136147 0.03991514 0.058576006 -0.00016396341 -9.963e-42

10.bias f4 [16]
00000000: 40c7 6f3c 7c1b 0080 a71b 0080 c40e 939e
00000010: 2623 a83b 0ec8 dd3d 18d6 7eb9 9683 f23b
00000020: 981b 0080 118c e53c b2f4 d13b c580 8f3d
00000030: 8c1b 0080 2861 50bd 811b 0080 841c 0080
0.014634907 -9.86e-42 -9.92e-42 -1.5570337e-20 0.005131143 0.10829173 -0.00024303084 0.00740094
-9.899e-42 0.02802089 0.006407344 0.07006983 -9.882e-42 -0.050873905 -9.867e-42 -1.023e-41

12.weight f4 [1, 16]
00000000: 708c c1bc 131c 0000 6d1b 0080 6c1f 459e
00000010: 3125 8b3e 1214 2cbe 14e0 cbb8 c6e0 743e
00000020: df1b 0000 5eed 703e 82a1 3a3e a355 de3e
00000030: d81b 0000 96bb 053f fa1b 0000 210e 0080
-0.023626536 1.0071e-41 -9.839e-42 -1.0435591e-20 0.27176812 -0.16804531 -9.721532e-05 0.2391387
9.998e-42 0.23528048 0.18225673 0.4342471 9.988e-42 0.5223936 1.0036e-41 -5.068e-42
