Model/MLP/MLP_model.pkl (torch, 136784 bytes, 13 tensors)

0.weight f4 [128, 10]
-0.26921493 0.29201186 -0.19908448 0.05857195 -0.04698951 0.31956914 0.099256195 -0.22481878
-0.432077 -0.006088035 -0.3018017 0.0450201 -0.34648582 0.24484953 -0.083592124 0.18434836
-0.07468688 -0.16113698 -0.002827031 0.042035732 -0.1770651 0.010788046 -0.34176284 -0.2517713
0.09585793 0.21309698 0.22925092 0.13854824 -0.26523906 -0.04603529 -0.28365883 -0.1640411
0.2255565 0.03367665 -0.0026205196 0.035224006 0.21292287 -0.15799586 0.2719131 -0.07119793
-0.20877028 0.2535558 -0.102255404 0.16641648 -0.28452474 0.08646989 0.18500577 -0.021796735
-0.00293144 0.026186222 -0.32841912 0.20516437 0.20958745 -0.28541425 -0.18035506 0.18491605
-0.117323 -0.14747865 0.20637593 -0.21785033 0.121942274 0.22423628 -0.37566122 0.15241788
0.07312973 0.14807948 -0.40485165 0.15444855 -0.32256925 -0.0549924 0.2091725 0.22790746
-0.17751732 -0.071604036 0.11091142 -0.11517336 -0.14297265 -0.34737763 -0.29929164 -0.26175946
0.31183562 -0.02367047 0.21688634 -0.06676971 0.2726177 -0.25061786 0.18188424 -0.056715578
0.374116 -0.05056725 0.23024516 -0.17080396 0.3804314 0.32957876 -0.017440658 -0.31789738
-0.30553442 -0.11415763 -0.075141095 0.35313582 0.0045522135 0.20006041 -0.066211484 0.1347475
-0.26435408 -0.27117357 -0.24397926 -0.0013981924 -0.05319338 0.071335085 0.102293715 0.071556754
-0.30402383 0.057324044 0.09762484 -0.29416075 -0.058225043 0.14755674 -0.17404705 -0.19072619
0.0373932 -0.058673404 0.2932701 -0.36548674 -0.19528913 0.09744169 -0.07509522 0.21812207
-0.1887143 -0.37354186 0.09297568 -0.049512792 0.23966646 0.29021177 -0.17782064 -0.104314774
0.1393 -0.41916063 0.06969529 0.22036955 0.30135202 0.00020290827 0.028550345 -0.27990216
0.37737805 -0.18056174 0.32499415 0.3099281 0.14531966 -0.16098106 0.0025269624 -0.12753263
-0.086386405 0.11932522 0.18256415 -0.03117713 -0.11343718 -0.16268323 0.22790116 0.09064967
-0.30893433 -0.25841996 0.025101153 0.059771575 0.05974835 -0.02956994 0.0945483 -0.13199675
0.14122245 -0.2926565 -0.048182923 0.17146742 -0.21435334 -0.29111633 0.19489877 -0.17208232
-0.14793417 0.19749354 -0.25773942 -0.383874 -0.038348507 0.21826524 0.22593151 0.06329222
0.18051653 -0.16048512 -0.2560692 -0.26163775 -0.045204196 -0.061285455 0.061082307 0.13040079
-0.15980868 -0.2532701 0.10231394 -0.24739572 0.010866884 -0.15019165 -0.15747596 0.19772735
-0.012256131 -0.3560482 -0.025668684 0.041846085 0.13381097 -0.27450955 -0.04442225 0.19125451
-0.2011943 0.13032368 -0.25013253 0.3116844 0.06016738 0.054547574 -0.085333794 -0.125758
0.2241698 0.038344473 -0.35893083 -0.09440242 0.09918264 0.30403617 0.31523982 0.03026351
0.028707359 -0.1766505 -0.2886839 -0.13839428 -0.12542 -0.030357867 -0.05390937 0.12305395
-0.05728984 -0.32624772 0.009489723 -0.25565577 -0.25144437 -0.187136 0.12238583 0.14806788
-0.19826898 0.1549786 -0.09906157 -0.07345619 -0.09294727 0.15315068 -0.14354582 -0.19543013
0.08545068 0.2482515 0.078336686 -0.054067843 -0.32351935 0.17623891 0.19968016 0.27370292
00000000: 8ad6 89be 9482 953e cddc 4bbe 24e9 6f3d
00000010: 1378 40bd 919e a33e d546 cb3d e536 66be
00000020: 3239 ddbe 247e c7bb c185 9abe ff66 383d
00000030: 9766 b1be d6b9 7a3e 5932 abbd d1c5 3c3e
00000040: 6ff5 98bd 1801 25be b645 39bb a92d 2c3d
00000050: 8e50 35be 58c0 303c 8afb aebe 2be8 80be
00000060: 2a51 c43d 1836 5a3e c1c0 6a3e 97df 0d3e
00000070: 6acd 87be 808f 3cbd bb3b 91be 64fa 27be
00000080: 48f8 663e 87f0 093d 06bd 2bbb 0c47 103d
00000090: 7408 5a3e abc9 21be 3238 8b3e 38d0 91bd
000000a0: e0c7 55be 11d2 813e 486b d1bd 1569 2a3e
000000b0: 3aad 91be 2017 b13d 2772 3d3e 118f b2bc
000000c0: 671d 40bb 7d84 d63c 8d26 a8be 9c16 523e
000000d0: 189e 563e d121 92be ffae 38be a25a 3d3e
000000e0: 0b47 f0bd a504 17be 3654 533e 2814 5fbe
000000f0: dfbc f93d 329e 653e ab56 c0be 6f13 1c3e
00000100: 0ac5 953d 26a2 173e b748 cfbe c327 1e3e
00000110: cc27 a5be b63f 61bd 5131 563e 9360 693e
00000120: 1ac7 35be 23a5 92bd 8725 e33d 03e0 ebbd
00000130: 6c67 12be 7bdb b1be c13c 99be 5605 86be
00000140: eba8 9f3e 93e8 c1bc 7417 5e3e 8fbe 88bd
00000150: 8c94 8b3e fc50 80be dd3f 3a3e 984e 68bd
00000160: 228c bf3e 9b1f 4fbd 63c5 6b3e 3ce7 2ebe
00000170: e8c7 c23e 8cbe a83e b6df 8ebc 72c3 a2be
00000180: 026f 9cbe 7acb e9bd 93e3 99bd 38ce b43e
00000190: bc2a 953b a3dc 4c3e e399 87bd 40fb 093e
000001a0: 6b59 87be 43d7 8abe b3d5 79be 8d43 b7ba
000001b0: 4de1 59bd 2118 923d 5e7f d13d 598c 923d
000001c0: 03a9 9bbe 9ecc 6a3d 88ef c73d 3d9c 96be
000001d0: 627d 6ebd 1d19 173e 6439 32be ba4d 43be
000001e0: 9d29 193d 8653 70bd 8027 963e 1421 bbbe
000001f0: e0f9 47be 828f c73d 86cb 99bd 645b 5f3e
00000200: 523e 41be e140 bfbe 096a be3d edcd 4abd
00000210: 206b 753e a396 943e 9d16 36be fca2 d5bd
00000220: a9a4 0e3e 399c d6be 67bc 8e3d 8ea8 613e
00000230: d04a 9a3e c6c3 5439 6ae2 e93c 564f 8fbe
00000240: b237 c13e 2de5 38be a265 a63e e5ae 9e3e
00000250: adce 143e 38d8 24be 659b 253b ea97 02be
00000260: 5beb b0bd c860 f43d 19f2 3a3e 2e67 ffbc
00000270: c151 e8bd 6f96 26be ec5e 693e 89a6 b93d
00000280: a42c 9ebe 9f4f 84be efa0 cd3c 0ad3 743d
00000290: b0ba 743d a93c f2bc 8aa2 c13d 282a 07be
000002a0: 9e9c 103e 13d7 95be 755b 45bd 2895 2f3e
000002b0: 717f 5bbe 330d 95be 8b93 473e 5936 30be
000002c0: 0e7c 17be bf3b 4a3e 6cf6 83be 228b c4be
000002d0: 5313 1dbd ec80 5f3e 975a 673e 5a9f 813d
000002e0: 53d9 383e 3656 24be 811b 83be 62f5 85be
000002f0: 0928 39bd 7506 7bbd 7131 7a3d c987 053e
00000300: e3a4 23be 9eac 81be f989 d13d 4e55 7dbe
00000310: 040b 323c d7cb 19be 6141 21be 0a79 4a3e
00000320: f0cd 48bc f34b b6be 2247 d2bc cd66 2b3d
00000330: be05 093e 848c 8cbe 1bf4 35bd 39d8 433e
00000340: e105 4ebe 9273 053e 5f11 80be 1995 9f3e
00000350: 1272 763d 476d 5f3d 7cc3 aebd b5c6 00be
00000360: c58c 653e 180f 1d3d c8c5 b7be 0e56 c1bd
00000370: 4520 cb3d a1aa 9b3e 1d67 a13e 2eeb f73c
00000380: b22b eb3c dee3 34be 60ce 93be 3bb7 0dbe
00000390: 1a6e 00be 10b1 f8bc 12d0 5cbd b603 fc3d
000003a0: c0a8 6abd f109 a7be c87a 1b3c 50e5 82be
000003b0: 51bd 80be 94a0 3fbe 6ca5 fa3d 1b9f 173e
000003c0: 0607 4bbe b6b2 1e3e cbe0 cabd 3370 96bd
000003d0: 235b bebd 88d3 1c3e adfd 12be d61e 48be
000003e0: c400 af3d a435 7e3e fc6e a03d 3e76 5dbd
000003f0: 54a4 a5be f977 343e f578 4c3e ca22 8c3e

0.bias f4 [128]
-0.0005721005 0.24787736 -0.057565924 -0.25055903 -0.068289384 -0.319549 0.2151831 0.17551932
-0.15264338 0.099212736 -0.13757385 0.119635366 0.25632438 0.16398278 -0.055882584 -0.30802104
-0.30720937 0.19018064 0.2139935 -0.27714068 0.10777028 -0.040055983 0.22088099 0.24750555
0.011340436 0.2084525 0.2845157 -0.024684364 -0.19393013 0.1853438 -0.12796566 0.06523545
-0.13461344 -0.28711838 0.12278233 0.19107689 -0.21835934 0.20953515 -0.2823343 -0.16990042
-0.18368544 -0.15672044 -0.19455835 0.28791624 0.20658801 0.13977374 -0.30303526 0.22398235
-0.03456721 0.16756287 0.0027014725 0.1348794 0.3306734 -0.3626544 0.07534089 -0.2722736
0.21619235 0.17830671 -0.10855848 0.024571788 -0.2732329 0.01294842 0.056870133 0.19114971
-0.020343227 0.18973717 -0.21893784 0.16065389 -0.070155166 0.07510631 0.18368095 -0.07099447
-0.28696403 -0.0739477 0.083432466 0.16259429 -0.29766592 -0.14714485 -0.28759047 0.13779025
-0.302281 0.24074481 -0.27365184 0.15425211 0.23151469 0.24525388 -0.24933766 0.11223454
0.036072932 -0.11237702 -0.12241356 -0.13640861 0.03219329 -0.17862076 -0.15940773 0.079008035
-0.024740707 -0.07687921 0.26969758 0.09996446 -0.19771254 -0.30164257 0.2357271 0.11364484
-0.0869855 0.36774498 -0.15450442 -0.18513699 0.20622246 -0.24151996 -0.30886 -0.1658509
0.1313477 -0.27633464 -0.20896725 0.2574638 0.1300632 0.22807057 -0.24604544 0.11367178
-0.1755633 0.10779866 -0.051991045 0.22672662 0.0038935007 -0.31919497 0.07603722 -0.21328104
00000000: 04f9 15ba 90d3 7d3e 3fca 6bbd 4649 80be
00000010: 4edb 8bbd ed9b a3be f558 5c3e 56bb 333e
00000020: 8c4e 1cbe 0c30 cb3d 29e0 0cbe 6303 f53d
00000030: f33c 833e 1aeb 273e 23e5 64bd efb4 9dbe
00000040: 8c4a 9dbe b7be 423e 1d21 5b3e 62e5 8dbe
00000050: aab6 dc3d be11 24bd a02e 623e 1872 7d3e
00000060: 3ccd 393c 9274 553e 0bac 913e dd36 cabc
00000070: 9f95 46be c4ca 3d3e 6e09 03be 2a9a 853d
00000080: 1bd8 09be 2e01 93be 4d75 fb3d a9a9 433e
00000090: 9799 5fbe 6290 563e 1f8e 90be 60fa 2dbe
000000a0: 0918 3cbe 537b 20be 4e3a 47be c269 933e
000000b0: cf8b 533e d920 0f3e 7027 9bbe a15b 653e
000000c0: 5996 0dbd 9a95 2b3e 300b 313b d31d 0a3e
000000d0: 064e a93e d6ad b9be 534c 9a3d 7267 8bbe
000000e0: 8761 5d3e 0996 363e e953 debd c64a c93c
000000f0: 2fe5 8bbe 9c25 543c a8f0 683d c0bc 433e
00000100: d7a6 a6bc 764a 423e 3e31 60be 7482 243e
00000110: 83ad 8fbd 56d1 993d dc16 3c3e 8c65 91bd
00000120: f3ec 92be e471 97bd a4de aa3d 1e7f 263e
00000130: ab67 98be 24ad 16be 0f3f 93be e318 0d3e
00000140: 93c4 9abe cf85 763e 181c 8cbe 44f4 1d3e
00000150: 3012 6d3e d523 7b3e 5f52 7fbe 39db e53d
00000160: 36c1 133d ec25 e6bd f6b3 fabd b3ae 0bbe
00000170: 1cdd 033d 5ce8 36be c83b 23be f7ce a13d
00000180: 06ad cabc d972 9dbd cd15 8a3e 2bba cc3d
00000190: 2875 4abe e570 9abe 7262 713e a0be e83d
000001a0: 7425 b2bd 1249 bc3e 6836 1ebe 8d94 3dbe
000001b0: fb2b 533e 0251 77be e622 9ebe d1d4 29be
000001c0: 0380 063e bc7b 8dbe 83fb 55be 4cd2 833e
000001d0: 4a2f 053e 558b 693e 56f3 7bbe c0cc e83d
000001e0: dec6 33be 8bc5 dc3d 90f4 54bd 062b 683e
000001f0: 1a2a 7f3b 866d a3be 67b9 9b3d 5866 5abe

2.weight f4 [128, 128]
0.015446817 0.06413956 0.021833781 -0.08158209 0.019406687 0.06522635 0.0114847915 -0.014073475
0.038002282 -0.10955643 -0.009146509 -0.09369798 0.030511241 -0.052806586 0.018083768 0.020127531
-0.0882914 0.038659737 -0.0220774 0.029326124 -0.07296929 -0.033810034 -0.007150597 0.065169126
-0.0366791 -0.067243285 0.051391263 -0.017917775 -0.08732471 0.022777643 0.04296729 0.06798573
-0.05669068 0.031897422 0.039853558 -0.0484878 -0.04256468 -0.06678375 -0.03135658 -0.042199817
-0.024105405 -0.034883194 0.051169354 0.041522656 -0.045222647 0.045419414 0.0021720484 0.041200284
-0.0660017 -0.014353237 -0.0576656 -0.010624302 -0.05865307 -0.08054199 -0.065367036 0.040710017
-0.047849268 0.031010201 -0.05447112 0.064794436 -0.06259391 -0.05217234 -0.07881196 -0.013629953
0.029160779 0.06543025 0.026954511 0.0156769 -0.0039253994 0.005253301 -0.0329548 0.059191197
-0.10170443 -0.06597055 0.017595265 0.07441837 -0.08580872 -0.031669486 -0.025012627 -0.04358918
-0.08831574 -0.08171162 -0.07894861 0.031134067 0.074405454 0.07479909 -0.052528564 -0.08160383
-0.041268174 -0.039531257 0.01965867 -0.024254756 -0.0444276 0.0293697 -0.044501677 0.012507366
-0.06521352 -0.06644666 -0.03329194 -0.064359754 -0.0040833284 0.052688226 0.02990178 -0.008223979
-0.07007316 -0.067533314 0.04602302 -0.049651504 -0.09023064 0.019836182 0.022650875 -0.011346354
-0.08968156 0.087521784 0.06474069 -0.047812507 0.06000336 0.019535685 0.007408415 -0.021195738
-0.033552464 -0.06443599 0.053240437 -0.092555 -0.007791644 -0.06822341 -0.05268754 0.038563184
-0.06781418 0.029733296 -0.030130057 -0.06735624 -0.019625286 -0.020350194 -0.07518681 -0.08693275
0.009010126 0.020497566 -0.038798567 -0.009353799 -0.0016196196 0.0077168955 0.022803092 -0.041550305
-0.040581778 -0.012022135 -0.10084701 0.015439002 -0.014269181 -0.06845377 -0.030292418 0.04120206
0.07781677 -0.019079007 -0.034236096 -0.05178245 0.06904453 -0.0354431 -0.076078035 0.017903673
0.0069545433 0.013864266 -0.04690031 0.06487691 -0.006317992 0.013558849 0.06813245 -0.13231064
-0.05660438 -0.012111461 -0.076069325 0.05151656 0.023572905 0.028026605 0.06315898 0.02685926
0.08561306 0.040206302 -0.014378565 0.027385615 0.04790213 0.080509126 0.054452404 0.06194907
-0.03958474 -0.08745367 0.016769871 -0.09941629 -0.028931031 -0.04580906 -0.117080405 0.03749254
-0.113922365 -0.07141909 0.031750906 0.024940925 -0.091544285 -0.047038235 -0.056833092 -0.096667506
-0.040397003 -0.08310935 -0.040142186 0.04718993 -0.10423302 -0.036831092 0.020304864 0.0010880337
-0.09122748 -0.105513416 -0.012470219 -0.08045843 0.0056189173 0.021837868 0.027993495 0.03705444
-0.03419924 -0.071652204 0.007823142 0.024900362 -0.09922989 0.039064106 -0.033783864 0.054822057
-0.10735189 0.01205847 0.0025014088 0.03570503 0.05871209 0.06828775 -0.13192369 -0.1056662
-0.07123186 -0.051611196 -0.0062048594 0.06872022 -0.07923744 -0.0780267 0.016866269 -0.07787918
-0.051084705 -0.07728893 0.063578576 -0.06029008 0.07477462 -0.07938856 0.005849799 0.012310842
0.027502252 -0.026878446 0.028618256 -0.102812745 0.014073601 -0.08201809 -0.061033536 0.024630798
00000000: a514 7d3c 9a5b 833d c2dc b23c 8314 a7bd
00000010: c6fa 9e3c 6595 853d b52a 3c3c 6f94 66bc
00000020: 48a8 1b3d 1f5f e0bd 3ddb 15bc bae4 bfbd
00000030: b6f2 f93c b84b 58bd 6924 943c 7ee2 a43c
00000040: 1fd2 b4bd ac59 1e3d aadb b4bc 573d f03c
00000050: ec70 95bd 647c 0abd 8e4f eabb 6477 853d
00000060: d33c 16bd d9b6 89bd a57f 523d 4cc8 92bc
00000070: 4cd7 b2bd 2e98 ba3c 78fe 2f3d 1a3c 8b3d
00000080: 7d34 68bd dfa6 023d 7c3d 233d 259b 46bd
00000090: 4d58 2ebd ebc5 88bd c26f 00bd b7d9 2cbd
000000a0: b378 c5bc aee1 0ebd f596 513d a913 2a3d
000000b0: 623b 39bd b509 3a3d ed58 0e3b a1c1 283d
000000c0: e62b 87bd d729 6bbc c432 6cbd 8d11 2ebc
000000d0: 343e 70bd 33f3 a4bd 27df 85bd 8cbf 263d
000000e0: 98fd 43bd 1b09 fe3c 1c1d 5fbd f2b2 843d
000000f0: 3c31 80bd aab2 55bd 2a68 a1bd 2b50 5fbc
00000100: 96e2 ee3c 4b00 863d b5cf dc3c d86c 803c
00000110: a3a0 80bb e223 ac3b 9dfb 06bd 7872 723d
00000120: 6a4a d0bd 911b 87bd f223 903c a968 983d
00000130: 7bbc afbd ddb7 01bd 48e7 ccbc 918a 32bd
00000140: e2de b4bd 6c58 a7bd cfaf a1bd df0c ff3c
00000150: e361 983d 4430 993d 3128 57bd e91f a7bd
00000160: d108 29bd 87eb 21bd 380b a13c e9b1 c6bc
00000170: b7f9 35bd ba98 f03c 6447 36bd b2eb 4c3c
00000180: aa8e 85bd 3015 88bd 215d 08bd 0ccf 83bd
00000190: 71cd 85bb 9ccf 573d 94f4 f43c debd 06bc
000001a0: 8482 8fbd e84e 8abd a282 3c3d 605f 4bbd
000001b0: d7ca b8bd 7d7f a23c 548e b93c 0fe6 39bc
000001c0: f7aa b7bd 9f3e b33d c496 843d 0cd7 43bd
000001d0: 15c6 753d 4d09 a03c 4ac2 f23b afa2 adbc
000001e0: 4f6e 09bd 04f7 83bd a512 5a3d 7a8d bdbd
000001f0: 0c51 ffbb b7b8 8bbd e4ce 57bd 6ef4 1d3d
00000200: 29e2 8abd 3e93 f33c 4fd3 f6bc 11f2 89bd
00000210: 35c5 a0bc 73b5 a6bc 8bfb 99bd cc09 b2bd
00000220: 359f 133c 83ea a73c 3feb 1ebd ad40 19bc
00000230: 6a49 d4ba 03de fc3b 8dcd ba3c a730 2abd
00000240: 1439 26bd 7df8 44bc e188 cebd def3 7c3c
00000250: 48c9 69bc 7d31 8cbd ce27 f8bc 7ec3 283d
00000260: 665e 9f3d 944b 9cbc 263b 0cbd d619 54bd
00000270: 3867 8d3d c92c 11bd cdce 9bbd b9aa 923c
00000280: f0e2 e33b f226 633c 8a1a 40bd 2fde 843d
00000290: 2907 cfbb ef25 5e3c 0789 8b3d 717c 07be
000002a0: ffd9 67bd 266f 46bc 3cca 9bbd 0703 533d
000002b0: f71b c13c 0d98 e53c 7f59 813d f307 dc3c
000002c0: e655 af3d 5daf 243d 1394 6bbc cc57 e03c
000002d0: 0635 443d f8e1 a43d 7c09 5f3d 4fbe 7d3d
000002e0: 9c23 22bd e91a b3bd f860 893c c59a cbbd
000002f0: c500 edbc 48a2 3bbd dac7 efbd c791 193d
00000300: 2150 e9bd 2c44 92bd 3d0d 023d e950 cc3c
00000310: 927b bbbd 2aab 40bd d1c9 68bd 9df9 c5bd
00000320: 5477 25bd 3c35 aabd 226c 24bd 3a4a 413d
00000330: 1f78 d5bd 33dc 16bd 6356 a63c 5a9c 8e3a
00000340: 79d5 babd 6b17 d8bd e44f 4cbc 64c7 a4bd
00000350: e51e b83b 54e5 b23c 9d52 e53c 65c6 173d
00000360: 8114 0cbd 64be 92bd a32c 003c d8fb cb3c
00000370: 0a39 cbbd af01 203d f360 0abd 188d 603d
00000380: 4fdb dbbd e490 453c adee 233b 703f 123d
00000390: 177c 703d 73da 8b3d 0117 07be 8567 d8bd
000003a0: 02e2 91bd 4366 53bd 2252 cbbb 30bd 8c3d
000003b0: 3d47 a2bd 76cc 9fbd 212b 8a3c 1f7f 9fbd
000003c0: 323e 51bd a949 9ebd 7c35 823d bbf2 76bd
000003d0: 7023 993d 7896 a2bd acaf bf3b 6ab3 493c
000003e0: 674c e13c 3030 dcbc d570 ea3c 7d8f d2bd
000003f0: f694 663c 1af9 a7bd 4dfe 79bd 87c6 c93c

2.bias f4 [128]
0.028245762 -0.035542134 0.008014094 0.024050748 0.0015725449 -0.0797267 -0.01915097 0.05303526
-0.012220847 0.016216358 -0.076775685 -0.04738597 0.007974214 -0.042324346 0.082126774 -0.06133736
-0.0126805315 -0.061221123 -0.01876939 -0.07531218 -0.021432487 -0.08292276 0.062882386 -0.055785783
0.013718083 0.07450687 -0.018712807 -0.011490899 0.024369802 0.07589569 0.054458126 0.0055954587
0.03611063 -0.06641437 0.049582392 0.021528676 0.0670735 -0.04065558 0.0776037 -0.08178171
-0.06819496 -0.089028366 -0.023503486 -0.06358932 0.05958867 -0.008382589 -0.0406429 -0.06512892
0.025723714 -0.005474021 -0.09141549 0.0069875224 0.010955379 -0.10647886 0.059051704 0.07690054
0.00284069 -0.0827925 0.07274635 -0.074039616 -0.017426485 -0.07694899 0.013865958 -0.06919663
0.022753637 -0.0840468 -0.0421083 -0.001114695 -0.048521902 -0.10356494 -0.036460064 -0.040953208
-0.010382647 0.037039697 -0.03315924 0.013243088 -0.00028316656 -0.03581932 0.05981503 -0.05687024
0.008639031 0.008063129 0.0018104108 0.044946514 0.10116653 -0.09600096 -0.052020915 -0.067537166
-0.08617982 -0.047380168 -0.038312044 0.05213069 -0.06449625 -0.10805805 0.027620893 -0.06905983
0.03603806 -0.025212796 -0.031522803 0.058156062 -0.0022040447 -0.070043586 -0.003951595 -0.058469687
-0.0741222 0.06859704 -0.0697645 0.0697746 -0.09231392 -0.07867393 -0.036485743 -0.08027434
0.047223087 -0.07126022 0.060426492 0.0056988415 -0.025522975 -0.032395717 0.02428101 -0.07460756
-0.066412665 0.038941734 -0.011521109 -0.066123575 0.02200043 -0.061775308 0.113079764 0.021104308
00000000: a863 e73c a194 11bd 8c4d 033c 1306 c53c
00000010: da1d ce3a c147 a3bd 7fe2 9cbc 803b 593d
00000020: f339 48bc 2bd8 843c 923c 9dbd ca17 42bd
00000030: 47a6 023c 4b5c 2dbd 1532 a83d e23c 7bbd
00000040: 01c2 4fbc 00c3 7abd 44c2 99bc 463d 9abd
00000050: 2f93 afbc 68d3 a9bd 7bc8 803d a27f 64bd
00000060: cfc1 603c 0f97 983d 9a4b 99bc 5344 3cbc
00000070: 2ea3 c73c 336f 9b3d 7c0f 5f3d 1c5a b73b
00000080: bde8 133d 4204 88bd e816 4b3d e85c b03c
00000090: d55d 893d 7786 26bd b0ee 9e3d 2b7d a7bd
000000a0: cda9 8bbd 8154 b6bd 628a c0bc 1e3b 82bd
000000b0: 4013 743d 2057 09bc 2b79 26bd 5062 85bd
000000c0: 8aba d23c 6b5f b3bb 0b38 bbbd 96f7 e43b
000000d0: 317e 333c 9711 dabd 33e0 713d 087e 9d3d
000000e0: df2a 3a3b 1d8f a9bd 0afc 943d 15a2 97bd
000000f0: fdc1 8ebc 6f97 9dbd 0b2e 633c f6b6 8dbd
00000100: d665 ba3c bb20 acbd c179 2cbd f51a 92ba
00000110: e7be 46bd db19 d4bd 2657 15bd 8dbe 27bd
00000120: fa1b 2abc f0b6 173d fcd1 07bd 89f9 583c
00000130: f975 94b9 47b7 12bd 9b00 753d c5f0 68bd
00000140: b98a 0d3c 371b 043c 4e4b ed3a d619 383d
00000150: 6630 cf3d 279c c4bd e213 55bd ed50 8abd
00000160: 0c7f b0bd b511 42bd 17ed 1cbd fe86 553d
00000170: 9c16 84bd 8a4d ddbd 3645 e23c 3d6f 8dbd
00000180: a59c 133d 118b cebc 0e1e 01bd 0d35 6e3d
00000190: bc71 10bb 0373 8fbd 627c 81bb e97d 6fbd
000001a0: 61cd 97bd 9b7c 8c3d b1e0 8ebd fce5 8e3d
000001b0: 150f bdbd cc1f a1bd 1372 15bd e066 a4bd
000001c0: ff6c 413d e1f0 91bd c581 773d 59bd ba3b
000001d0: 8f15 d1bc 5fb1 04bd f8e8 c63c d9cb 98bd
000001e0: 5d03 88bd 5e81 1f3d 09c3 3cbc cc6b 87bd
000001f0: 3f3a b43c 1b08 7dbd 5d96 e73d f1e2 ac3c

4.weight f4 [64, 128]
-0.061291832 0.06089405 0.017274696 -0.073691994 0.04484073 0.07917689 0.0046909126 0.061570656
-0.09362401 0.043997 0.017545406 -0.0978183 -0.058113974 0.04035218 0.014797737 -0.046049487
-0.096833475 0.083340585 -0.022803545 0.07690487 -0.039256617 -0.07738802 -0.014249107 -0.020199489
-0.0021010835 0.077696145 -0.09941966 -0.04923423 0.03242107 -0.021729097 -0.07473065 0.038125165
-0.039908785 -0.06943827 0.075290486 -0.00873288 0.04316187 0.03700624 0.06348878 0.036363132
-0.08687649 -0.033435926 -0.01682303 0.03146795 -0.042189762 0.045954056 0.064925954 -0.025597125
-0.047150806 -0.07535294 0.03766293 -0.059958205 -0.014363725 -0.07513087 -0.10224138 -0.07054261
0.067926906 0.009037717 0.06261815 -0.07932315 -0.022787653 -0.04062502 -0.038546547 0.003769045
0.08440926 0.0035881298 0.07813604 0.040554844 -0.099656865 0.023936324 -0.021531623 0.045451622
0.01062817 -0.10252477 0.019619642 0.029538944 0.0657741 0.05232651 -0.044928033 0.020596256
0.0047139246 0.071557574 -0.019344097 -0.05444733 -0.068976976 -0.014523541 -0.003969232 0.039790515
0.071306095 0.058360796 -0.060651947 -0.019127535 0.013666779 -0.057059973 -0.075018935 -0.03258103
-0.040655714 -0.04402056 -0.0077259806 -0.07073266 0.07317456 0.014616306 0.05936493 -0.00498338
-0.00937779 0.034301024 0.04290643 -0.011968134 0.0038106146 0.012261203 0.006353658 0.041226402
0.06472654 -0.06778405 -0.08157104 0.003341202 0.060985647 0.04816427 0.030918507 -0.066332065
-0.0130697265 -0.055473667 0.07465284 -0.008755175 0.0033212956 0.052576896 0.04549741 0.037209418
-0.037170265 -0.027213324 0.07314393 0.08061351 -0.007451877 0.0730413 -0.08713044 -0.029889533
-0.096490696 0.026864674 -0.009885016 0.010547953 -0.07785819 -0.036182772 -0.016879803 -0.049243923
0.030769538 0.07377867 -0.08339172 0.02060475 -0.07378916 -0.02443828 -0.07344577 -0.01924561
0.08125486 0.057903923 0.0744234 0.059998114 0.07840062 -0.123168245 -0.021021962 0.08492336
0.06076383 2.9692454e-05 -0.05720754 -0.04717517 -0.08640337 0.021666305 -0.09989981 -0.0854334
-0.067775205 0.048183866 0.0025612535 -0.050291527 0.003218544 0.047369696 -0.02118696 -0.070484065
-0.016173348 -0.08285065 0.01682734 0.027014464 -0.08688855 -0.024255015 -0.09426683 0.02821508
-0.060179006 0.028956307 -0.08375607 -0.0849233 0.015994908 -0.0067867385 -0.027586592 -0.049482204
-0.020994041 -0.07550239 0.039148994 -0.045007553 0.05135887 0.0116176205 -0.07458255 -0.039413244
-0.10490596 -0.0713435 -0.08645026 0.007162604 -0.0867195 0.052275978 0.010190286 0.01053157
-0.07172094 -0.06370816 0.012778977 0.07519824 -0.005664841 0.018828092 0.046665255 0.013376977
-0.08397282 -0.0049074087 -0.08479613 -0.0664795 0.075237446 0.032640364 0.03435147 -0.072907284
-0.08351593 -0.08277391 0.0006395535 0.008950536 -0.082847446 -0.06660154 0.028527347 0.021228725
0.077449225 -0.09222294 -0.020377252 0.035491332 -0.035071045 -0.06331877 0.021111831 0.013607574
-0.02616118 0.057694133 0.028806506 -0.033615388 -0.054862168 -0.015336352 0.05729702 -0.022359356
0.027384557 0.050471414 0.06560416 0.0066120396 -0.0066859056 -0.073386334 -0.07464864 -0.095577255
00000000: 250d 7bbd 0a6c 793d aa83 8d3c d4eb 96bd
00000010: eaaa 373d 7e27 a23d 3ab6 993b 8331 7c3d
00000020: f2bd bfbd 3336 343d 62bb 8f3c f654 c8bd
00000030: eb08 6ebd 5448 253d 3572 723c 639e 3cbd
00000040: a150 c6bd 78ae aa3d 80ce babc 4d80 9d3d
00000050: 8ccb 20bd 9c7d 9ebd 1675 69bc 6679 a5bc
00000060: 55b2 09bb 281f 9f3d 899c cbbd d5a9 49bd
00000070: f5cb 043d 3801 b2bc 620c 99bd 2229 1c3d
00000080: 6577 23bd a735 8ebd e631 9a3d 5a14 0fbc
00000090: 80ca 303d db93 173d 6806 823d 82f1 143d
000000a0: 4dec b1bd 1cf4 08bd 73d0 89bc 8ae4 003d
000000b0: 2ccf 2cbd 523a 3c3d e6f7 843d 10b1 d1bc
000000c0: 3421 41bd a452 9abd 7244 1a3d bc96 75bd
000000d0: d455 6bbc 37de 99bd ee63 d1bd a578 90bd
000000e0: 431d 8b3d ef12 143c f23d 803d 2d74 a2bd
000000f0: 2cad babc 6c66 26bd fce2 1dbd 1502 773b
00000100: c3de ac3d d426 6b3b ca05 a03d d61c 263d
00000110: e618 ccbd 1c16 c43c 1663 b0bc 7b2b 3a3d
00000120: c721 2e3c 82f8 d1bd 5fb9 a03c a8fb f13c
00000130: 92b4 863d 5354 563d 7506 38bd 7bb9 a83c
00000140: 4477 9a3b c78c 923d 8377 9ebc 2a04 5fbd
00000150: cd43 8dbd 25f4 6dbc 5510 82bb 61fb 223d
00000160: ee08 923d bb0b 6f3d 2d6e 78bd 59b1 9cbc
00000170: a0ea 5f3c b8b7 69bd 87a3 99bd b073 05bd
00000180: 9b86 26bd e74e 34bd 392a fdbb 49dc 90bd
00000190: 8bdc 953d 3b79 6f3c a428 733d 9f4b a3bb
000001a0: 4da5 19bc 3b7f 0c3d a7be 2f3d fe15 44bc
000001b0: 81bb 793b 36e3 483c 5932 d03b 04dd 283d
000001c0: 598f 843d 5dd2 8abd b80e a7bd 11f8 5a3b
000001d0: 16cc 793d e647 453d cf48 fd3c 1bd9 87bd
000001e0: 6822 56bc 5b38 63bd 97e3 983d de71 0fbc
000001f0: 18aa 593b df5a 573d 7e5b 3a3d e768 183d
00000200: d93f 18bd 7aee debc 7ccc 953d b218 a53d
00000210: e02e f4bb ad96 953d 7271 b2bd e5da f4bc
00000220: ea9c c5bd 4e13 dc3c c3f4 21bc 52d1 2c3c
00000230: 1d74 9fbd 6334 14bd 8347 8abc ffb3 49bd
00000240: 6610 fc3c 4519 973d 47c9 aabd 4bcb a83c
00000250: c51e 97bd ca32 c8bc bc6a 96bd f8a8 9dbc
00000260: f368 a63d aa2c 6d3d 4c6b 983d 95c0 753d
00000270: 8190 a03d a23f fcbd 4036 acbc 4cec ad3d
00000280: 7ee3 783d 0f14 f937 7452 6abd c03a 41bd
00000290: 40f4 b0bd 897d b13c 4698 ccbd b5f7 aebd
000002a0: bacd 8abd 725c 453d b4da 273b 7dfe 4dbd
000002b0: 35ee 523b ba06 423d 4790 adbc f359 90bd
000002c0: f87d 84bc 9aad a9bd 7dd9 893c 704d dd3c
000002d0: a0f2 b1bd 74b2 c6bc f80e c1bd 5023 e73c
000002e0: 437e 76bd c735 ed3c 4d88 abbd 44ec adbd
000002f0: c107 833c 4a63 debb 47fd e1bc daad 4abd
00000300: b2fb abbc ffa0 9abd b25a 203d d759 38bd
00000310: ae5d 523d d557 3e3c bcbe 98bd c86f 21bd
00000320: f0d8 d6bd 8a1c 92bd d50c b1bd 47b4 ea3b
00000330: fe99 b1bd 561f 563d 28f5 263c 9b8c 2c3c
00000340: 6ee2 92bd 6c79 82bd ea5e 513c 8901 9a3d
00000350: 21a0 b9bb 5f3d 9a3c 1124 3f3d 1c2b 5b3c
00000360: f1f9 abbd 54ce a0bb 98a9 adbd 6726 88bd
00000370: 1716 9a3d e7b1 053d 21b4 0c3d 6a50 95bd
00000380: 660a abbd 5e85 a9bd b5a7 273a 45a5 123c
00000390: ecab a9bd 6366 88bd 2fb2 e93c dde7 ad3c
000003a0: b39d 9e3d 61df bcbd 32ee a6bc 5c5f 113d
000003b0: a8a6 0fbd 45ad 81bd b8f2 ac3c 4df2 5e3c
000003c0: f94f d6bc af50 6c3d 9ffb eb3c 4ab0 09bd
000003d0: 27b7 60bd 5345 7bbc 48b0 6a3d f82a b7bc
000003e0: 9455 e03c 1dbb 4e3d 795b 863d cfa9 d83b
000003f0: 7115 dbbb 934b 96bd 63e1 98bd 02be c3bd

4.bias f4 [64]
-0.06706445 0.028587634 0.032351386 0.0007037993 -0.06775859 0.012750002 -0.043249376 0.05221819
-0.0871539 0.052754436 -0.039616827 0.008921417 -0.0421247 -0.09090645 -0.004004878 0.024512157
0.068031654 0.075230844 -0.04037496 0.035939764 -0.072228305 -0.10086365 -0.048063006 -0.01726671
-0.06556793 -0.0153938215 0.086395524 0.0054909964 0.018914808 -0.023142207 0.05836187 -0.06457228
0.04144218 -0.039915368 0.025285693 -0.041218054 -0.08921063 0.12779741 0.050333496 0.045281984
-0.08678536 -0.022484852 0.0067633325 -0.038604762 -0.0025956868 0.049642365 -0.027200144 -0.10964286
0.020981904 -0.07326905 -0.057867255 -0.04169456 -0.13979919 -0.016329594 -0.047031537 0.060060438
0.016316231 0.105397716 -0.075842515 -0.09306046 -0.017511265 0.040789302 -0.10708707 0.0054876083
00000000: 1659 89bd 9d30 ea3c e382 043d 2c7f 383a
00000010: 04c5 8abd 62e5 503c 4226 31bd bee2 553d
00000020: be7d b2bd 0915 583d 4145 22bd 232b 123c
00000030: f38a 2cbd 292d babd 5a3b 83bb b8cd c83c
00000040: 2e54 8b3d a112 9a3d 3760 25bd 9335 133d
00000050: 6fec 93bd 9a91 cebd b7dd 44bd ea72 8dbc
00000060: 7b48 86bd 5e36 7cbc 23f0 b03d d1ed b33b
00000070: 3af3 9a3c ba94 bdbc db0c 6f3d 793e 84bd
00000080: 46bf 293d 4c7e 23bd f123 cf3c 43d4 28bd
00000090: 10b4 b6bd 53dd 023e 7f2a 4e3d 9a79 393d
000000a0: 86bc b1bd 2732 b8bc f29e dd3b 0720 1ebd
000000b0: 661c 2abb cb55 4b3d d6d2 debc 708c e0bd
000000c0: 3ee2 ab3c 150e 96bd 3706 6dbd eac7 2abd
000000d0: 8527 0fbe a4c5 85bc 24a4 40bd ef01 763d
000000e0: 9ea9 853c c2da d73d 5253 9bbd 7c96 bebd
000000f0: c973 8fbc af12 273d 7750 dbbd 65d1 b33b

6.weight f4 [64, 64]
0.053298697 0.0560382 0.046001434 0.044785608 0.092450455 0.0643688 0.011331722 -0.08515145
0.034638867 0.088737555 -0.00093765557 -0.115087904 0.059220027 0.055370003 -0.07546876 0.019585999
-0.09199919 -0.06642288 -0.117676795 -0.116684005 0.113474354 -0.035470948 -0.05166202 0.109709516
-0.051725578 -0.083702505 0.081264995 0.053486936 0.058490127 -0.08032721 -0.06653867 -0.097416416
-0.0149460435 -0.08243193 0.10562405 0.032938708 -0.030561298 -0.043675818 0.03478261 0.10573159
0.07627403 0.11168965 -0.08767366 -0.12731436 -0.0693697 0.006523897 -0.088149086 -0.11645685
-0.014832258 0.08404293 0.02145274 -0.032922193 0.097721726 0.029317765 0.1002956 -0.06591572
-0.10129628 -0.123693176 -0.08940238 -0.007753517 -0.049228244 -0.1165708 0.054228783 0.11744742
0.0646083 -0.035718642 0.10910741 -0.13756537 0.12077875 0.14708516 -0.05187766 0.12862025
0.083948046 -0.037846 0.05050084 0.095577404 0.025522145 0.071219936 -0.11656602 0.12848772
-0.07775786 0.055464003 -0.033919983 -0.048197076 0.07118074 0.01906887 -0.029392019 0.025927838
-0.04267193 0.14459737 0.08499571 0.12589851 0.057405073 -0.01803257 -0.06527934 -0.038199008
-0.11087918 -0.12956294 -0.027763385 0.000985214 0.14908163 -0.21316512 -0.06441634 -0.07248578
-0.07581541 -0.11327493 -0.05973265 0.14498791 -0.03337438 -0.05075343 -0.01963531 0.047066465
0.13420591 -0.011358266 0.11940104 -0.058764335 -0.079618886 0.02139601 -0.053377397 -0.019621307
0.12696126 -0.08653497 -0.011657372 -0.0011973947 -0.02061453 -0.05301167 0.07009714 0.11183058
0.021220146 0.12782477 -0.121426344 0.13893534 0.014512097 0.09222913 0.034747574 -0.031233774
0.057863086 0.13221335 -0.030521274 -0.10595859 0.0039489744 0.028418886 -0.10499115 -0.10545522
0.09298901 -0.13090599 -0.04431926 0.081654 0.06431821 -0.077186845 0.121318296 -0.017463515
0.00020051755 -0.0707246 -0.02592514 0.054787632 0.004239044 0.036289424 -0.110664375 0.054695487
0.09705707 -0.06676356 -0.056292556 -0.126365 0.078861505 0.083914146 -0.08171777 0.050130337
0.010810694 -0.1331606 -0.051783193 0.012792033 0.00059185 -0.035852123 -0.1174859 -0.049056042
0.056722175 -0.0052752276 -0.0541854 0.09222413 -0.02065265 0.10375303 -0.005121127 0.08800154
-0.032396413 -0.03546124 0.057188585 -0.005140391 -0.06031544 -0.07444657 0.111115165 0.01906522
0.009451634 -0.06329489 0.03242743 0.040108353 0.022524066 0.024165127 0.07607077 0.010018262
-0.10903387 0.17950949 -0.07969904 -0.008729293 -0.022753075 0.13018686 0.13104035 -0.13617645
0.073027626 0.080838785 -0.010037189 0.09416934 -0.057635188 -0.050688997 0.091884255 -0.057318617
-0.019846562 0.03466011 -0.1459508 0.059045505 -0.15293069 -0.07086614 0.11285215 0.09328401
-0.04492778 0.057507593 -0.071653485 -0.082627065 -0.06205702 0.13682497 0.0081893345 0.086454265
-0.053049006 0.1519452 -0.09452247 -0.068805516 -0.102932476 -0.034476224 -0.09260588 -0.061581213
0.095954046 -0.113608785 -0.028976105 0.11043675 -0.07942854 -0.029042797 -0.06338546 -0.0905476
-0.011267176 0.117917515 -0.101039454 -0.015113551 0.1154511 -0.045118503 -0.086618885 -0.09397456
00000000: bc4f 5a3d 5088 653d 006c 3c3d 1d71 373d
00000010: aa56 bd3d cad3 833d b0a8 393c e263 aebd
00000020: 7ce1 0d3d 09bc b53d 00cd 75ba 35b3 ebbd
00000030: b390 723d a8cb 623d 5e8f 9abd d172 a03c
00000040: 126a bcbd b808 88bd 8800 f1bd 06f8 eebd
00000050: 3e65 e83d fc49 11bd 8e9b 53bd 62af e03d
00000060: 33de 53bd 386c abbd 436e a63d 1e15 5b3d
00000070: 5893 6f3d 9882 a4bd 6d45 88bd 4282 c7bd
00000080: 40e0 74bc 12d2 a8bd 6c51 d83d bdea 063d
00000090: b05b fabc 6ae5 32bd 3678 0e3d ce89 d83d
000000a0: 8f35 9c3d 8bbd e43d 3f8e b3bd b25e 02be
000000b0: b411 8ebd 6ac6 d53b 8287 b4bd ee80 eebd
000000c0: 0003 73bc b31e ac3d a8bd af3c 6cd9 06bd
000000d0: 5422 c83d cf2b f03c c867 cd3d d2fe 86bd
000000e0: 6d74 cfbd d952 fdbd 9818 b7bd 3711 febb
000000f0: 8ea3 49bd acbc eebd 001f 5e3d 4688 f03d
00000100: 5b51 843d b64d 12bd b573 df3d f0dd 0cbe
00000110: d95a f73d 7e9d 163e ab7d 54bd 07b5 033e
00000120: f4ec ab3d 6804 1bbd f8d9 4e3d 16be c33d
00000130: d113 d13c c2db 913d 2aba eebd 4992 033e
00000140: 833f 9fbd 392e 633d aeef 0abd 4c6a 45bd
00000150: 35c7 913d 5236 9c3c 88c7 f0bc 9e66 d43c
00000160: c3c8 2ebd 5511 143e 3b12 ae3d 8aeb 003e
00000170: 9521 6b3d 0ab9 93bc 2db1 85bd 9076 1cbd
00000180: a014 e3bd 26ac 04be 0a70 e3bc 4c22 813a
00000190: dba8 183e f547 5abe b7ec 83bd 6d73 94bd
000001a0: 1c45 9bbd b0fc e7bd 39aa 74bd b677 143e
000001b0: 93b3 08bd d4e2 4fbd 3bda a0bc c4c8 403d
000001c0: 466d 093e 0518 3abc 8888 f43d dfb2 70bd
000001d0: 3a0f a3bd af46 af3c 42a2 5abd ddbc a0bc
000001e0: 2202 023e 3f39 b1bd 90fe 3ebc e6f1 9cba
000001f0: cedf a8bc c422 59bd 178f 8f3d 6e07 e53d
00000200: dfd5 ad3c 7fe4 023e 60ae f8bd 1145 0e3e
00000210: 26c4 6d3c a0e2 bc3d 7953 0e3d f9dd ffbc
00000220: d801 6d3d f062 073e c007 fabc d100 d9bd
00000230: 6666 813b b9ce e83c 9a05 d7bd e8f8 d7bd
00000240: 0671 be3d 380c 06be 1d88 35bd 363a a73d
00000250: 44b9 833d 2314 9ebd ba75 f83d a50f 8fbc
00000260: 0542 5239 0fd8 90bd f660 d4bc ff68 603d
00000270: aee7 8a3b 38a4 143d 01a4 e2bd 6008 603d
00000280: dbc5 c63d 55bb 88bd 0693 66bd d465 01be
00000290: 2482 a13d 2edb ab3d a55b a7bd 7855 4d3d
000002a0: 561f 313c 415b 08be 9d1a 54bd ad95 513c
000002b0: 6226 1b3a add9 12bd 739c f0bd fdee 48bd
000002c0: 8355 683d d1db acbb 83f1 5dbd 01e0 bc3d
000002d0: bf2f a9bc 787c d43d 20cf a7bb 273a b43d
000002e0: 1ab2 04bd ce3f 11bd 943e 6a3d ba70 a8bb
000002f0: 530d 77bd 7177 98bd 5990 e33d aa2e 9c3c
00000300: 07db 1a3c c0a0 81bd a0d2 043d a848 243d
00000310: 6484 b83c f2f5 c53c feca 9b3d a323 243c
00000320: 264d dfbd 56d1 373e 4039 a3bd 4f05 0fbc
00000330: a864 babc b44f 053e 712f 063e d771 0bbe
00000340: 828f 953d ce8e a53d 0673 24bc dbdb c03d
00000350: e012 6cbd 449f 4fbd d02d bc3d edc6 6abd
00000360: 4295 a2bc c2f7 0d3d 2074 15be b3d9 713d
00000370: dd99 1cbe 4422 91bd 071f e73d b00b bf3d
00000380: 3106 38bd 158d 6b3d 10bf 92bd 6138 a9bd
00000390: 802f 7ebd d81b 0c3e 8f2c 063c ef0e b13d
000003a0: ea49 59bd 8697 1b3e ff94 c1bd e8e9 8cbd
000003b0: 43ce d2bd f136 0dbd 27a8 bdbd 953c 7cbd
000003c0: 8e83 c43d b9ab e8bd 4c5f edbc aa2c e23d
000003d0: 6eab a2bd 29eb edbc 3cd0 81bd 0571 b9bd
000003e0: f699 38bc bd7e f13d c6ed cebd d49e 77bc
000003f0: a071 ec3d 2ece 38bd 3e65 b1bd bc75 c0bd

6.bias f4 [64]
-0.054730758 0.12376365 0.09741409 0.09443412 0.119756766 -0.041585386 -0.10865588 0.0039065797
-0.123037584 0.020122526 -0.063252166 -0.002942676 0.10868542 0.063915476 0.0749731 0.10276908
-0.10407649 -0.12980899 0.073106006 -0.10913901 -0.08724362 -0.121237636 -0.0016961786 -0.116729744
0.03945425 -0.0476434 -0.11532843 -0.14797167 0.05239454 -0.04323695 0.07256037 0.052343313
-0.08991753 -0.051036373 0.033213913 0.097314656 0.08416138 0.13211033 -0.026945226 0.11715618
0.08062098 0.014276374 -0.009392065 -0.021309406 -0.10392548 0.047713377 0.039296765 0.10114359
0.061015856 -0.061942413 -0.09151603 0.05463903 0.035951145 0.07645539 -0.13651326 -0.079606324
-0.03253379 -0.09964057 -0.07195091 -0.0031796775 -0.07622516 -0.014028816 -0.0051243547 0.016190646
00000000: 5c2d 60bd cc77 fd3d 0a81 c73d ad66 c13d
00000010: 0943 f53d 7055 2abd f986 debd c402 803b
00000020: 21fb fbbd ffd7 a43c 5a8a 81bd e9d9 40bb
00000030: 7696 de3d 1ee6 823d 7f8b 993d 9878 d23d
00000040: 0e26 d5bd a6ec 04be 9ab8 953d 4684 dfbd
00000050: c8ac b2bd 704b f8bd 4f52 deba 0110 efbd
00000060: c89a 213d ba25 43bd 5031 ecbd e385 17be
00000070: a89b 563d 3a19 31bd 889a 943d f165 563d
00000080: af26 b8bd 840b 51bd 500b 083d e84c c73d
00000090: cd5c ac3d ee47 073e 3cbc dcbc 94ef ef3d
000000a0: 9d1c a53d 74e7 693c 2de1 19bc 1091 aebc
000000b0: e2d6 d4bd 1a6f 433d a5f5 203d 5f24 cf3d
000000c0: c3eb 793d 54b7 7dbd c26c bbbd 2dcd 5f3d
000000d0: 8241 133d a594 9c3d 22ca 0bbe a408 a3bd
000000e0: 2742 05bd 5b10 ccbd 005b 93bd 2362 50bb
000000f0: f01b 9cbd 1ed9 65bc 34ea a7bb 3fa2 843c

8.weight f4 [32, 64]
0.09999355 0.03274606 -0.00029047724 -0.13607368 0.062801324 0.02949129 0.081240565 -0.024955196
0.02767305 -0.021417633 0.046596915 0.0038226026 -0.11107373 -0.07789383 0.021251772 -0.047388755
-0.07279164 0.009771451 0.052065946 -0.0675283 -0.028915212 0.036921144 -0.12997302 0.038385842
-0.067669764 0.09933525 0.067009196 0.024624318 0.06248956 0.01722418 -0.010398615 0.029306224
0.08728781 -0.10398096 0.11382752 -0.071687594 -0.07232784 -0.12044326 -0.07913728 -0.035607345
0.044990014 -0.03850116 -0.10320295 0.11986497 0.05432254 -0.09838366 0.091519415 0.047520403
-0.038187202 -0.041073415 0.05220139 -0.13442285 -0.053843584 0.08638925 0.074885815 0.085179195
-0.030864095 0.015661178 0.040053114 0.03158423 0.09370001 0.004445284 -0.0017764419 0.04713363
-0.037737586 -0.063124865 0.0053775758 -0.062391378 -0.10950945 -0.12266728 -0.06692968 0.09384178
-0.13990769 0.0665315 0.071624756 0.068060234 0.017852992 0.07229618 -0.098995924 -0.0965966
-0.06449002 0.086991295 0.027030904 -0.094330266 0.06588435 -0.10589643 -0.05268458 -0.14711972
-0.019065186 0.09759666 0.01790233 -0.030678838 -0.05129513 -0.07528464 -0.10185845 0.01723119
0.059314616 0.037641674 -0.11082859 -0.0688321 -0.07518795 0.09332853 0.06646734 0.06639287
-0.12146331 0.061683673 0.03277783 0.001037851 0.117317066 -0.08842243 -0.0064614266 0.043669537
0.07125825 0.101457074 0.09754455 0.028399184 0.043611452 0.108764276 0.03571871 -0.115989804
-0.020745143 0.1006995 -0.037014067 0.09487182 -0.06882991 0.076365635 -0.032090813 -0.05029307
-0.07032514 -0.14095937 0.112769626 0.1568128 0.026377717 0.112363756 0.09147943 -0.039465826
0.058157623 0.08209681 0.03718458 0.09694754 0.05701996 -0.05344709 0.061908964 -0.1094222
0.04324506 0.069900006 -0.087982416 -0.101460725 -0.07735212 -0.05187674 0.10145549 -0.0787303
-0.045166645 -0.09827253 -0.117719084 0.117588855 -0.073072985 0.08287192 0.011677344 -0.10301693
0.053660568 0.005615011 -0.039837006 -0.04022159 0.031321704 -0.07227656 0.05199901 -0.128602
0.102453664 0.07811714 -0.06196514 0.077906236 0.101766154 -0.039869048 -0.03692714 -0.09899992
0.048025753 -0.0076391 -0.008861764 -0.12418836 0.030540954 0.009266445 -0.084120356 -0.05882226
-0.0066466653 0.050580103 0.071048036 0.07665506 0.096309856 -0.07546725 0.104907274 -0.022184297
-0.054660376 0.07616325 -0.024648326 -0.011596026 -0.09621658 -0.05059114 -0.0048959707 -0.08138805
0.08626022 -0.06322803 0.052046522 -0.03274164 -0.11258836 0.010780326 0.062024824 -0.0894133
-0.029421546 -0.11327452 -0.051181465 -0.055017784 0.09850596 0.09466143 -0.06358078 0.0040107397
0.0195734 -0.039952923 0.082709685 -0.096957505 0.116954684 -0.058197122 -0.033226356 -0.017022863
-0.10081846 0.10531975 0.063244365 -0.03706862 -0.0487443 -0.06552735 0.013378911 -0.05225452
0.041669596 0.10525649 -0.05520771 -0.027295351 0.077730596 0.076097056 -0.02243459 -0.16383117
0.04861546 0.1117879 -0.026939591 0.03751824 0.06261859 0.09627184 0.054692805 0.08771047
0.03492602 -0.089039505 -0.04771657 0.02297669 -0.056181192 0.043925084 -0.04042039 -0.10071749
00000000: 6bc9 cc3d bc20 063d 324b 98b9 e656 0bbe
00000010: fb9d 803d b897 f13c 7461 a63d d76e ccbc
00000020: 98b2 e23c 0874 afbc 68dc 3e3d a184 7a3b
00000030: a07a e3bd cd86 9fbd 3218 ae3c b61a 42bd
00000040: c913 95bd 7018 203c 1a43 553d 474c 8abd
00000050: 98df ecbc a03a 173d a617 05be 793a 1d3d
00000060: 7296 8abd 4870 cb3d 1e3c 893d f0b8 c93c
00000070: 0ef5 7f3d b919 8d3c f45e 2abc 9b13 f03c
00000080: f4c3 b23d f8f3 d4bd 671e e93d f2d0 92bd
00000090: 9e20 94bd f5aa f6bd ba12 a2bd 02d9 11bd
000000a0: 7347 383d 64b3 1dbd 115c d3bd c47b f53d
000000b0: 5081 5e3d 5f7d c9bd 886e bb3d c1a4 423d
000000c0: 2f6a 1cbd 993c 28bd 20d1 553d 25a6 09be
000000d0: 178b 5cbd d9ec b03d bc5d 993d 6e72 ae3d
000000e0: b3d6 fcbc df4b 803c bc0e 243d 775e 013d
000000f0: cae5 bf3d bfa9 913b 80d7 e8ba 310f 413d
00000100: ba92 1abd 9c47 81bd 6036 b03b 1a8e 7fbd
00000110: 7e46 e0bd fc38 fbbd 6e12 89bd 1f30 c03d
00000120: f643 0fbe ab41 883d 00b0 923d 2a63 8b3d
00000130: 7040 923c 0510 943d 60be cabd 70d4 c5bd
00000140: 5813 84bd 7e28 b23d ea6f dd3c 3a30 c1bd
00000150: 60ee 863d 3ae0 d8bd c9cb 57bd 8da6 16be
00000160: 982e 9cbc c2e0 c73d e8a7 923c 3052 fbbc
00000170: d81a 52bd d52e 9abd 2a9b d0bd 6d28 8d3c
00000180: e2f3 723d 282e 1a3d 1afa e2bd d8f7 8cbd
00000190: 24fc 99bd 0723 bf3d 0720 883d fcf8 873d
000001a0: c2c1 f8bd 05a8 7c3d 0c42 063d 8008 883a
000001b0: ee43 f03d d216 b5bd 60ba d3bb d4de 323d
000001c0: d8ef 913d bac8 cf3d 70c5 c73d 68a5 e83c
000001d0: eca1 323d cebf de3d c84d 123d 108c edbd
000001e0: b8f1 a9bc 8a3b ce3d 109c 17bd 284c c23d
000001f0: b2f6 8cbd 9665 9c3d a871 03bd 1b00 4ebd
00000200: a106 90bd a757 10be c3f3 e63d 8993 203e
00000210: 1516 d83c f81e e63d 9159 bb3d eba6 21bd
00000220: b036 6e3d 5f22 a83d dc4e 183d 6f8c c63d
00000230: c38d 693d 56eb 5abd 4194 7d3d bf18 e0bd
00000240: bb21 313d bc27 8f3d 2030 b4bd a4ca cfbd
00000250: ca6a 9ebd b47c 54bd e5c7 cf3d 5a3d a1bd
00000260: a900 39bd 1c43 c9bd b416 f1bd 6dd2 f03d
00000270: 4aa7 95bd c1b8 a93d 5552 3f3c 8afa d2bd
00000280: 2fcb 5b3d 20fe b73b 212c 23bd 65bf 24bd
00000290: 304b 003d bc05 94bd eafc 543d 3eb0 03be
000002a0: 3ad3 d13d e1fb 9f3d 29cf 7dbd 4e8d 9f3d
000002b0: c66a d03d ba4d 23bd ea40 17bd 78c0 cabd
000002c0: a7b6 443d 6a51 fabb ef30 11bc 7856 febd
000002d0: 0631 fa3c 4ad2 173c 4b47 acbd 9cef 70bd
000002e0: 45cc d9bb 152d 4f3d a281 913d 54fd 9c3d
000002f0: 1a3e c53d 938e 9abd a0d9 d63d d8bb b5bc
00000300: 8fe3 5fbd 7afb 9b3d 49eb c9bc 42fd 3dbc
00000310: 330d c5bd a838 4fbd 616e a0bb c7ae a6bd
00000320: 33a9 b03d b37d 81bd bc2e 553d 191c 06bd
00000330: ba94 e6bd f79f 303c be0d 7e3d 521e b7bd
00000340: 7405 f1bc 79fc e7bd a8a3 51bd 545a 61bd
00000350: 7ebd c93d dadd c13d a436 82bd 866c 833b
00000360: 6558 a03c ada5 23bd b263 a93d a891 c6bd
00000370: f085 ef3d 1b60 6ebd 5c18 08bd 8873 8bbc
00000380: e979 cebd e2b1 d73d 4386 813d 44d5 17bd
00000390: 1aa8 47bd 3433 86bd 3833 5b3c d608 56bd
000003a0: bdad 2a3d b790 d73d 7b21 62bd 809a dfbc
000003b0: 3831 9f3d c6d8 9b3d bfc8 b7bc 5cc3 27be
000003c0: 0121 473d 0ef1 e43d 6bb0 dcbc baac 193d
000003d0: 2d3e 803d 2c2a c53d 9005 603d 8ca1 b33d
000003e0: 960e 0f3d 585a b6bd 7372 43bd 9d39 bc3c
000003f0: 401e 66bd caea 333d da8f 25bd f944 cebd

8.bias f4 [32]
0.0046227896 -0.11998913 0.12779738 0.097411804 -0.065784246 -0.12921335 -0.10683739 0.008766832
0.011903883 0.01540654 0.089035556 0.048141286 -0.09067699 0.077707045 0.040220447 0.11134844
-0.012787967 0.040402137 -0.011274062 -0.1072117 -0.112234406 -0.010233804 -0.114846155 -0.10585874
-0.06418732 -0.023823682 -0.03591706 -0.045131754 0.024388399 -0.066755086 -0.08809697 -0.026510194
00000000: c57a 973b dcbc f5bd 51dd 023e d77f c73d
00000010: e4b9 86bd 8150 04be 90cd dabd c2a2 0f3c
00000020: 8108 433c b66b 7c3c 4658 b63d cc2f 453d
00000030: dcb4 b9bd df24 9f3d 32be 243d a70a e43d
00000040: 9f84 51bc b67c 253d d8b6 38bc cf91 dbbd
00000050: 27db e5bd afab 27bc 7634 ebbd 78cc d8bd
00000060: a474 83bd e229 c3bc c41d 13bd 13dc 38bd
00000070: 2eca c73c e4b6 88bd 2f6c b4bd e82b d9bc

10.weight f4 [16, 32]
0.03546917 0.15391658 0.055407815 -0.019643614 -0.09050224 0.10897785 0.060104165 0.15086545
-0.022412013 0.052772284 -0.050800078 0.16585809 -0.12966561 0.07700512 0.020802634 -0.056875873
0.069828674 0.07345285 -0.1930134 0.14212956 -0.025671324 0.17294708 0.025232265 -0.01944822
-0.148479 -0.0611424 -0.06239356 -0.10642906 -0.16228327 -0.012725343 0.15055014 -0.013212765
0.122868195 -0.14876874 0.060034156 -0.030137569 -0.0076215197 -0.19052528 -0.0101608345 -0.0028272814
0.05310569 -0.07887424 0.10589701 0.037728813 -0.045338966 0.028524125 0.011419989 0.07406316
0.067779265 -0.08341853 0.024429029 0.18432628 -0.09200248 0.08036363 -0.028275773 0.06607816
-0.09878532 0.07439832 0.13698082 0.03243244 0.21685259 0.08052417 -0.10719972 -0.04709194
0.1428237 -0.11737132 0.12318873 -0.07127902 -0.08587357 0.013124445 -0.027356748 -0.174214
-0.13099214 0.15174878 0.11715699 -0.044692963 -0.124065675 -0.09952091 0.07070443 -0.037908353
-0.16848798 -0.1612217 -0.040111862 0.15986787 0.1530869 -0.13691859 0.16879183 0.10233942
0.0036999364 -0.011204792 -0.06454181 -0.0007971915 -0.010452444 -0.03780894 -0.058350615 -0.11491001
0.058458056 -0.068635106 0.11815342 0.126236 -0.06623997 -0.08126553 -0.11912646 0.13871814
0.04322511 -0.13454428 0.14247179 0.12411426 -0.09835045 -0.15369172 -0.08235206 -0.11804504
0.025361085 -0.14730199 0.13924798 -0.05144421 0.025781436 -0.17674989 -0.119260594 0.072801664
0.111132555 -0.0070363465 -0.08080657 0.07127969 0.15325063 -0.17239879 0.13276392 0.16578929
0.03839009 -0.15001555 0.018108629 -0.19007063 -0.0859793 -0.1741082 -0.122518584 0.081610925
0.012468682 0.02020033 0.10203389 0.1515064 0.016685031 -0.08713619 0.109629005 -0.072841
-0.06959102 0.14152363 -0.11071771 0.074960314 -0.014201802 -0.02940596 -0.025566678 0.004248887
-0.08624238 -0.13388787 0.12778603 -0.1104793 -0.10490458 -0.07761582 -0.1484036 -0.04042205
-0.16529639 -0.09064787 -0.06316639 0.11211849 -0.13795014 0.09710147 -0.08285954 0.0334779
0.09573426 0.12288872 0.07312705 0.17032525 -0.03975118 -0.05337411 -0.088826746 0.0006433968
-0.17877632 0.04682442 -0.05943362 -0.021641925 -0.11572908 0.13021873 0.020432096 -0.049435765
-0.03646248 0.11666524 -0.022957766 0.12525758 0.046881493 0.0037066282 0.10463862 -0.0238577
-0.017123284 0.18993263 -0.17901562 -0.1832462 0.1455049 -0.20112069 0.11590917 0.12779008
-0.16089822 -0.01377839 -0.05170907 0.048227627 0.07970481 0.074636966 0.04940992 0.13795425
-0.056516938 -0.007890224 0.13870709 0.17792284 0.08995306 -0.14140958 -0.13304748 -0.14497209
0.14605369 0.053695086 -0.16393189 0.06430277 0.10533259 -0.11954517 0.20443656 0.013638447
-0.055815533 0.061230645 0.07369218 -0.16231982 -0.091649815 -0.16473329 0.08583294 0.1037475
0.022637935 -0.10538293 0.15230963 -0.015928706 0.06849898 -0.028254993 0.11642411 -0.10713407
-0.11896024 -0.052002825 -0.16771924 0.16672868 -0.0393248 0.0866077 -0.06411514 -0.07287951
-0.16530173 0.034148347 -0.039560527 0.1651421 -0.063263975 0.14302543 -0.13762543 0.1086013
00000000: 1f48 113d 4f9c 1d3e 4ef3 623d a5eb a0bc
00000010: 3d59 b9bd c72f df3d c92f 763d 797c 1a3e
00000020: 6699 b7bc c027 583d be13 50bd b4d6 293e
00000030: 10c7 04be dcb4 9d3d 496a aa3c adf6 68bd
00000040: 5602 8f3d 736e 963d 4ea5 45be 698a 113e
00000050: ab4c d2bc 0a19 313e e5b3 ce3c e051 9fbc
00000060: e10a 18be 7470 7abd 6490 7fbd 7bf7 d9bd
00000070: 962d 26be f57d 50bc d129 1a3e 5a7a 58bc
00000080: 52a2 fb3d d556 18be 60e6 753d 10e3 f6bc
00000090: f1bd f9bb 0f19 43be a179 26bc e949 39bb
000000a0: 5a85 593d d188 a1bd 88e0 d83d 8789 1a3d
000000b0: 5ab5 39bd 6dab e93c e81a 3b3c 6dae 973d
000000c0: dbcf 8a3d 56d7 aabd 631f c83c 07c0 3c3e
000000d0: cc6b bcbd b095 a43d 98a2 e7bc fd53 873d
000000e0: f54f cabd 255e 983d b344 0c3e e1d7 043d
000000f0: 9b0e 5e3e dbe9 a43d 878b dbbd 7ae3 40bd
00000100: 6040 123e 6060 f0bd 5f4a fc3d bcfa 91bd
00000110: 7bde afbd ea07 573c 421b e0bc 2865 32be
00000120: ce22 06be 0864 1b3e 01f0 ef3d f80f 37bd
00000130: 2516 febd 9ed1 cbbd 7ccd 903d ca45 1bbd
00000140: 1d88 2cbe 4d17 25be 564c 24bd 67b4 233e
00000150: d0c2 1c3e 6334 0cbe c4d7 2c3e 5497 d13d
00000160: a27a 723b 4e94 37bc 7f2e 84bd 9efa 50ba
00000170: ba40 2bbc 8cdd 1abd 0e01 6fbd f055 ebbd
00000180: b771 6f3d 9090 8cbd 6cfa f13d 0344 013e
00000190: d2a8 87bd 8b6e a6bd 93f8 f3bd 210c 0e3e
000001a0: d00c 313d fac5 09be 20e4 113e 9e2f fe3d
000001b0: f66b c9bd 5d61 1dbe 32a8 a8bd 99c1 f1bd
000001c0: 0dc2 cf3c 55d6 16be 0697 0e3e 2ab7 52bd
000001d0: 9733 d33c ecfd 34be e63e f4bd 0a19 953d
000001e0: 7799 e33d 2791 e6bb ea7d a5bd 16fb 913d
000001f0: bced 1c3e 4f89 30be 44f3 073e abc4 293e
00000200: ed3e 1d3d ad9d 19be 8c58 943c e0a1 42be
00000210: ea15 b0bd 6c49 32be 06eb fabd a123 a73d
00000220: 7149 4c3c 2a7b a53c 25f7 d03d 7e24 1b3e
00000230: 0caf 883c 7574 b2bd 2c85 e03d aa2d 95bd
00000240: bd85 8ebd 92eb 103e f7bf e2bd cb84 993d
00000250: adae 68bc c5e4 f0bc 3671 d1bc 3f3a 8b3b
00000260: d89f b0bd e719 09be 57da 023e f942 e2bd
00000270: 36d8 d6bd 0bf5 9ebd 1df7 17be 9791 25bd
00000280: 7543 29be 97a5 b9bd 615d 81bd 619e e53d
00000290: cd42 0dbe 23dd c63d 43b2 a9bd 1f20 093d
000002a0: 5310 c43d 15ad fb3d a3c3 953d be69 2e3e
000002b0: 22d2 22bd d09e 5abd ccea b5bd a1a9 283a
000002c0: 2411 37be f7ca 3f3d ab70 73bd 684a b1bc
000002d0: 5e03 edbd 0f58 053e 3661 a73c 287d 4abd
000002e0: ae59 15bd 2fee ee3d ed11 bcbc 8643 003e
000002f0: cf06 403d e7ea 723b c64c d63d 3971 c3bc
00000300: 2146 8cbc b37d 423e df4f 37be e4a4 3bbe
00000310: 3dff 143e 95f2 4dbe c961 ed3d 67db 023e
00000320: 81c2 24be c2be 61bc e4cc 53bd 558a 453d
00000330: 473c a33d 44db 983d 0e62 4a3d e143 0d3e
00000340: 4e7e 67bd 0046 01bc 3b09 0e3e 6831 363e
00000350: 4f39 b83d accd 10be 993d 08be 9073 14be
00000360: 198f 153e 61ef 5b3d c3dd 27be 2cb1 833d
00000370: 9db8 d73d 19d4 f4bd d157 513e cb73 5f3c
00000380: d49e 64bd fccc 7a3d edeb 963d 2b37 26be
00000390: e6b2 bbbd d8af 28be 2ec9 af3d 9279 d43d
000003a0: 3173 b93c 01d3 d7bd 0ef7 1b3e eb7c 82bc
000003b0: 3149 8c3d 0477 e7bc c46f ee3d 1b69 dbbd
000003c0: 6da1 f3bd ea00 55bd 98be 2bbe ecba 2a3e
000003d0: 0b13 21bd 615f b13d cc4e 83bd da41 95bd
000003e0: db44 29be 23df 0b3d 380a 22bd 031b 293e
000003f0: 8b90 81bd 4275 123e aeed 0cbe 5c6a de3d

10.bias f4 [16]
0.13379474 -0.104630426 0.120776504 -0.15731382 -0.17808264 0.11479325 -0.035135802 -0.16788484
0.07104387 0.19731832 -0.16563572 0.17786394 0.11540746 -0.07924791 0.051389147 -0.10285055
00000000: 7d01 093e 7a48 d6bd ac59 f73d e016 21be
00000010: 4c5b 36be b918 eb3d 8fea 0fbd 01ea 2bbe
00000020: 737f 913d d00d 4a3e 699c 29be f721 363e
00000030: bf5a ec3d ba4c a2bd 6d7d 523d 4fa3 d2bd

12.weight f4 [1, 16]
-0.047222324 0.11718515 -0.17149912 0.078867696 0.015833568 -0.08298221 -0.1595754 -0.08926016
-0.07077187 0.114664115 -0.08416769 0.09471059 -0.16185002 0.15892524 -0.22035035 -0.20157579
00000000: 326c 41bd c5fe ef3d 779d 2fbe 6385 a13d
00000010: 66b5 813c 94f2 a9bd bc67 23be 08ce b6bd
00000020: d8f0 90bd 05d5 ea3d 1c60 acbd a0f7 c13d
00000030: 03bc 25be 4cbd 223e 86a3 61be e269 4ebe
