Model/MLP/MLP_model.pkl (torch, 104528 bytes, 13 tensors)

0.weight f4 [20, 18]
000000 27 3e e8 3d 4b 52 3e 3e 45 dc 3b be 22 eb 98 3d
       0.113399796 0.1858608 -0.18345745 0.07466723
000010 4f ae 0a 3e 7b ed 52 bd f2 1e ff bd 6f e0 c0 bd
       0.13543056 -0.05149601 -0.12457074 -0.09417807
000020 ef 43 14 3e 0b 9f e9 3d 76 b3 36 3e 4b 29 19 be
       0.1447904 0.11407288 0.17841896 -0.14957158
000030 e3 61 2d 3e dd 28 17 be a4 a5 fe 3d 65 d7 22 be
       0.16931872 -0.14761682 0.12433937 -0.15902479
000040 9d 62 2f bd 7b 41 f5 bb 17 0a 78 3d ee 1e 30 be
       -0.042818654 -0.0074846125 0.060556497 -0.17199299
000050 09 35 ce 3c 89 a9 54 3e b7 e3 d7 3d 1a 60 2a 3e
       0.025171774 0.20767798 0.1054148 0.16638222
000060 21 c6 9c 3c 70 aa fd bd 10 fd 5f bd d1 78 0d 3c
       0.019137444 -0.12386024 -0.0546847 0.008634762
000070 9b c4 f9 3d ce c8 21 3d 8f 64 42 be 44 2d 71 3d
       0.12195703 0.039498143 -0.18983673 0.05888106
000080 5d f5 31 be e4 f8 bb 3d 62 31 3c bd 01 98 3c 3c
       -0.17378755 0.091783315 -0.045945533 0.01151085
000090 6d 3b 12 3e 86 c4 dc bd 06 af 36 bc 08 4c cd bd
       0.14280482 -0.10779671 -0.011150127 -0.100242674
0000a0 61 8e 85 bc ee d6 8a 3d 20 ec 17 be e0 c6 b5 3c
       -0.016303243 0.06779276 -0.14836168 0.022189558
0000b0 57 01 f7 3d 4b 97 96 3c 42 94 8a 3d 19 27 05 39
       0.120608024 0.018382689 0.06766559 0.00012698433
0000c0 1d a8 ea 3d b7 2c 83 bd ac 5d 08 be ce c5 8e bd
       0.11457846 -0.06405013 -0.13316983 -0.06971322
0000d0 26 d6 9c 3d 7b 28 a6 3b dd 2f 2d be 94 0c 4d 3e
       0.07658033 0.0050707436 -0.1691279 0.2002433
0000e0 b9 20 bf 3d c5 e5 ea 3d 76 ba 56 3b c2 7e 8d be
       0.09332413 0.11469606 0.0032764948 -0.2763577
0000f0 d5 e2 ae 3d 32 42 b3 3d 7d 75 47 3e 2b f3 d9 bd
       0.085393585 0.0875286 0.19478412 -0.10642084
000100 f3 40 c8 bd 64 e1 59 3d 7e b6 55 be e8 db 98 3d
       -0.09778013 0.053193465 -0.20870396 0.07463819
000110 98 a4 27 3d e1 7f f8 3d f4 eb 5b be a4 2c 48 bd
       0.040928453 0.12133766 -0.21476728 -0.048870698
000120 54 4e 30 3e 61 c2 79 3e 89 66 d9 3d e3 47 92 bc
       0.1721738 0.24390556 0.1061526 -0.017856544
000130 85 6f 7c 3e 4e 40 d1 3d 0a d5 46 3e cd 33 f9 bc
       0.24651916 0.10217343 0.19417205 -0.030420208
000140 b7 b1 f7 bd 00 ca 24 3e a9 7a 95 bd 1e 01 18 3e
       -0.12094443 0.16092682 -0.07298786 0.14844176
000150 cb 86 4b 3c 4e 88 9b be d4 d9 96 be 52 77 17 3e
       0.012422274 -0.3037743 -0.29463065 0.14791611
000160 0f 47 42 3e ae d6 ac bd 5a b9 c9 3c dd 66 1b bd
       0.18972419 -0.084393844 0.024624515 -0.037939895
000170 15 0c 9f bd e7 cb 4a bd 25 5e 64 be 1b e8 4a 3d
       -0.07765976 -0.049510863 -0.22301538 0.04953776
000180 be af 14 3e bb 6a 60 3d f2 cf 9b 3d 50 a3 5d 3d
       0.14520165 0.054789286 0.07608022 0.054110825
000190 c3 2d 83 3c 42 9d 36 3b 94 f1 75 3e e7 58 7a be
       0.016013032 0.002786473 0.24017936 -0.24447976
0001a0 9e e0 2f bd 86 31 0b be 2e 33 08 3e f2 3d 0f bd
       -0.04293882 -0.1359311 0.13300774 -0.034971185
0001b0 1c 0c bc bc fa a5 6b bc 71 98 d3 bb 1d dd 9a 3d
       -0.022954993 -0.014382834 -0.0064573814 0.07561705
0001c0 83 57 91 3d 68 5b 4c bc 50 45 2d bc 05 d1 86 bc
       0.0709677 -0.012472965 -0.010575607 -0.01645709
0001d0 d8 2a c4 ba 2a db a3 3b f8 d7 01 bd a9 ca 97 3c
       -0.0014966382 0.0050004916 -0.031700104 0.018529253
0001e0 04 2f e7 3c 30 0e a3 3c 45 cd 9b 3c d5 04 b4 3c
       0.028220661 0.019904226 0.019018779 0.02197496
0001f0 9a cd 90 bc 5f a3 62 ba 3a 4b bf bd 90 2c 0c 3d
       -0.017676163 -0.000864556 -0.0934052 0.034222186
000200 9b f6 70 bd 82 eb d9 3c 35 0b e9 bc 7c 1a ea 3d
       -0.05882893 0.026601557 -0.028447727 0.11430833
000210 4c 9c 40 bd 10 43 42 bb 21 09 ec 3d 48 6b d6 3c
       -0.047024056 -0.0029642023 0.11525179 0.026174203
000220 cc 38 ca bc 29 23 3e bd be 07 bf bd df c8 73 bd
       -0.024685286 -0.04642025 -0.093276486 -0.059517737
000230 6e 86 3f 3d 32 ff 8e 3d 46 40 cf 3d 5e 9d c6 ba
       0.04675906 0.069822684 0.10119681 -0.00151531
000240 69 42 82 3d 8c 17 79 bd 36 0d 0b 3e 51 7f 47 be
       0.06360323 -0.06081347 0.13579258 -0.19482161
000250 6f 2e 8e bc 53 01 3c 3e 85 7c 5a 3e 4d 96 bf 3d
       -0.017356126 0.1835988 0.21336563 0.093548395
000260 03 40 01 3e 9d eb 9d 3c b0 4b 16 3e c9 a6 27 bc
       0.12622075 0.019277388 0.1467731 -0.010232636
000270 65 34 5b 3d e2 a8 42 bd 92 27 67 3e 3f 6b fa 3d
       0.053516764 -0.04752434 0.22573689 0.12227487
000280 86 28 ff bc 17 8f 02 bd 87 68 dd 3b a0 02 59 3b
       -0.031147253 -0.031874742 0.0067568454 0.0033113137
000290 3f 5b b8 3b 64 c0 5d 3b d3 83 84 3b fe 28 d0 3b
       0.0056261118 0.0033836598 0.004044035 0.006352543
0002a0 21 ab f5 bc ab 09 10 bc a8 3a 8a bc 31 1e c2 ba
       -0.029988827 -0.0087913675 -0.016873673 -0.0014810023
0002b0 5d 37 07 bc a1 d1 70 bc eb 7b 08 3c f6 bd 1e bc
       -0.008252946 -0.014698417 0.008330326 -0.009688845
0002c0 eb d6 6b 3d 38 b4 a7 3c 18 e9 c9 3b eb ba f8 39
       0.05757801 0.020471677 0.00616182 0.0004744151
0002d0 32 ee 6e bd fc 72 a3 bc d1 0d 9a 3d e3 f9 44 bd
       -0.05833263 -0.01995229 0.075221665 -0.048089873
0002e0 2f 62 40 be 90 1b 24 3e 38 59 06 be 72 cb 65 bc
       -0.18787454 0.1602614 -0.13119972 -0.014025556
0002f0 bb 58 08 3e 32 d1 22 bc 1e f3 98 3d 4d d2 ea 3d
       0.13315098 -0.009937571 0.07468246 0.11465893
000300 67 88 4b bc b7 e4 00 bc 65 f2 4b bd 2d a6 5b 3d
       -0.012422658 -0.00786703 -0.049791712 0.053625274
000310 d5 c9 3a be 93 fd 5f bc bf a0 e3 94 7a 11 01 00
       -0.18241055 -0.013671297 -2.2984546e-26 9.8105e-41
000320 b8 12 01 80 d9 12 01 00 b0 12 01 00 d7 11 01 00
       -9.855e-41 9.8597e-41 9.854e-41 9.8235e-41
000330 34 12 01 80 6e 14 01 00 95 11 01 80 57 12 01 00
       -9.8366e-41 9.9164e-41 -9.8143e-41 9.8415e-41
000340 60 12 01 80 10 13 01 00 d0 28 ba ae 72 12 01 00
       -9.8427e-41 9.8674e-41 -8.4655505e-11 9.8452e-41
000350 bb 11 01 00 40 12 01 80 b1 11 01 00 59 13 01 80
       9.8196e-41 -9.8382e-41 9.8182e-41 -9.8776e-41
000360 26 c9 3b 3e 62 e4 87 be 1f f1 54 bb 4c 61 08 3e
       0.18338451 -0.2654143 -0.0032492352 0.13318366
000370 15 b5 1a 3e 99 61 ba bd d2 9f 2e be 57 1e 21 be
       0.1510814 -0.091006465 -0.17053154 -0.1573423
000380 87 d0 af bd 26 f9 18 be 26 40 2d 3e 6d 1d ad bd
       -0.08584695 -0.14938793 0.16919002 -0.08452878
000390 95 ae c4 3d 1c 98 70 3e 19 49 21 3e 39 15 d1 3d
       0.096036114 0.23495525 0.15750541 0.10209126
0003a0 bb 73 aa bd f2 87 ab 3d c8 3a ee bd e8 66 eb bd
       -0.08322855 0.08375539 -0.116323054 -0.11494237
0003b0 c1 2e 52 3e b8 35 5f bd 1b 90 c5 bd a0 9c b0 3d
       0.20525648 -0.05449459 -0.096466266 0.08623624
0003c0 dc 9b c0 3c dc b1 a0 bd 02 0f c8 bd 1b 5a a7 bd
       0.02351182 -0.07846424 -0.097684875 -0.08171483
0003d0 50 ce 1b 3e 62 bb ef bd 9f ef 02 be 3a 08 bb bd
       0.1521542 -0.11705662 -0.1278672 -0.091324285
0003e0 08 4f 30 be 1f c2 ee 3d d3 1e 8f 3d a3 c7 b4 3c
       -0.17217648 0.116581194 0.06988301 0.02206785
0003f0 e6 b4 43 3e 3d 89 4a be 72 c5 46 3e 04 47 93 3b
       0.19111976 -0.19778915 0.19411257 0.0044945497

0.bias f4 [20]
000000 87 c6 bf bd 60 d3 01 3e 66 13 17 be ea 42 33 3e
       -0.09364038 0.1267829 -0.14753494 0.17505994
000010 44 cd 58 3e b9 69 b5 bd 6b 54 7e bd 1d 55 83 3c
       0.21172053 -0.088580556 -0.062092226 0.016031796
000020 27 a6 0c 3e 56 52 ec 3b 96 3b ab 3d aa 11 01 00
       0.13735257 0.0072119636 0.083609745 9.8172e-41
000030 aa 9b 3d 3e 2f 26 a4 3d b7 86 85 3d 3a ff 35 be
       0.18516412 0.080150954 0.065198354 -0.17773142
000040 2a 65 9d 3c 1a 52 59 bd 99 fe 0e 3b e4 f0 86 3c
       0.019213278 -0.053056814 0.0021819232 0.016472287

2.weight f4 [20, 20]
000000 6b fd d9 3d 41 2e 26 3c c5 87 3b 3d 01 72 f6 3d
       0.10644039 0.010142864 0.045783777 0.12033463
000010 49 fe 33 bc c3 20 97 3d c7 e5 a1 3c 4a 55 c1 bd
       -0.010985919 0.07379296 0.019762887 -0.09440096
000020 39 11 cd bd 65 18 21 bd 93 1e 11 bd cb 11 01 00
       -0.100130506 -0.039329905 -0.03542955 9.8218e-41
000030 9f 6d 3a 3e 66 77 e4 3d d3 c0 8b bd f6 fe f6 3c
       0.1820588 0.11155586 -0.06823888 0.030150872
000040 79 a0 27 be 6c ca eb 3c 42 a8 89 3d 71 3b 09 bd
       -0.16369809 0.028783046 0.06721546 -0.033503953
000050 10 31 f1 bd cd 12 29 be 8c f4 08 be 1d 0d e9 bd
       -0.11776936 -0.16511078 -0.13374537 -0.11379454
000060 fd ec f7 bd 5b 6d 10 be ea 8d 91 b9 e3 9c bc 3b
       -0.12105749 -0.14104216 -0.0002776229 0.005756007
000070 95 81 3a 3e 9f c6 f6 3c a0 00 05 bd e5 11 01 00
       0.18213494 0.030124007 -0.0324713 9.8255e-41
000080 ce 43 59 bd c9 d7 1b bd 24 70 a3 3d eb c1 4b bd
       -0.05304318 -0.038047586 0.079803735 -0.04974548
000090 10 40 7e bc 49 95 87 bc 45 a8 bb bc 47 e3 fd 3d
       -0.015518203 -0.016550677 -0.022907386 0.12396865
0000a0 fe 7f 0a 3e 9c 41 5f be ff 91 d9 bd 67 5d e6 bc
       0.13525388 -0.21802372 -0.1062355 -0.02812071
0000b0 2b 1d 4d 3e 66 37 61 bb b0 18 54 3d 47 bd 9d 3d
       0.20030658 -0.0034365295 0.051781356 0.077021174
0000c0 6a f2 c4 bd e9 fa 52 3d 63 8c c9 3d 73 11 01 80
       -0.09616549 0.051508818 0.0984123 -9.8095e-41
0000d0 be 36 6a 3e e7 2a 90 be 9b 3f 64 3e 12 ce 27 3d
       0.22872445 -0.28157732 0.22289889 0.04096801
0000e0 93 5d 44 3e e6 ca 01 3c 74 21 47 bd d4 b6 38 3e
       0.1917632 0.00792191 -0.048615888 0.18038493
0000f0 a2 e7 b9 3b 05 bb 80 3c 48 ad ed 3c cc 28 8b bc
       0.0056733647 0.015714178 0.029013291 -0.016987227
000100 16 76 c2 3a 45 28 17 3c 57 db c3 bb be 30 4b bc
       0.0014836218 0.00922591 -0.005977075 -0.012401758
000110 25 2c 7e ba 39 c1 4a bc b7 f3 5b 3c 73 12 01 00
       -0.0009695909 -0.012375169 0.013424805 9.8454e-41
000120 0e f7 94 3b 62 6a e0 3c af c1 51 3b 30 48 62 bb
       0.004546053 0.027394477 0.0032006314 -0.003452789
000130 74 89 95 3b 9f 5e 78 bb 8b 10 a4 3c 0d ed cb 3b
       0.004563505 -0.0037898195 0.02002742 0.006223327
000140 49 d0 fc 31 75 12 01 00 73 12 01 80 a5 11 01 00
       7.3578446e-09 9.8457e-41 -9.8454e-41 9.8165e-41
000150 c2 ef d2 10 a0 97 3a 00 c5 12 01 80 6c 13 01 80
       8.31998e-29 5.380852e-39 -9.8569e-41 -9.8803e-41
000160 14 22 51 2c 2f 13 01 80 f9 87 91 03 e4 12 01 00
       2.9719604e-12 -9.8717e-41 8.553552e-37 9.8612e-41
000170 61 13 01 80 79 13 01 80 82 12 01 80 bf 12 01 00
       -9.8787e-41 -9.8821e-41 -9.8475e-41 9.856e-41
000180 a2 12 01 80 93 12 01 00 94 12 01 00 28 13 01 00
       -9.852e-41 9.8499e-41 9.85e-41 9.8707e-41
000190 89 d2 16 3e 0b 1f b0 bc ca ed 06 bd d6 71 73 3d
       0.1472875 -0.021499177 -0.032941617 0.059434734
0001a0 69 88 81 bd 73 6d 23 3c 7e 7d 54 3b bd ba 85 3c
       -0.06324846 0.009974825 0.0032423432 0.016324395
0001b0 16 fb d6 bd f1 eb cf 3c fa 82 40 3d 04 ed dd 86
       -0.104971096 0.02538106 0.04699991 -8.3479224e-35
0001c0 89 63 41 bd 3a f7 aa bd c9 0e 2a bd 5a 1a e0 3d
       -0.047214065 -0.08347936 -0.041518006 0.10942526
0001d0 23 61 73 3d ad 73 53 bc 15 ed aa bc e0 42 c6 bd
       0.05941881 -0.012905997 -0.020865003 -0.09680724
0001e0 60 1c 97 3d af e7 b9 3c 09 bd 4c be bb 59 1e bd
       0.07378459 0.022693483 -0.19993986 -0.038659792
0001f0 a5 a2 7a bd d1 9a 61 be 0b b5 32 bd 84 4c 1d 3d
       -0.061190266 -0.22031714 -0.043629687 0.03840305
000200 b6 6f 73 3e f0 b0 ae 3c de 6f 82 bd c2 12 01 80
       0.23773083 0.021324605 -0.06368993 -9.8565e-41
000210 fc b3 dd 3d 06 9e 0c bc 52 8c 2a 3e 58 a6 fe bd
       0.10825345 -0.008582598 0.1665509 -0.12434071
000220 7f 5f 00 3e ae 81 af 3d 3a 47 38 bd f5 7c 42 bd
       0.12536429 0.08569656 -0.044989802 -0.04748245
000230 48 22 c5 bd 23 fd ad 3d 33 ee 8f bc 5b d8 6a bd
       -0.09625679 0.084955476 -0.017569637 -0.05733524
000240 33 33 e8 bd 2a 26 82 3c 32 b5 a7 3d b1 af a7 3d
       -0.113378905 0.015887339 0.08188857 0.08187807
000250 35 59 33 3e 87 f9 d4 3c f4 6b b5 bc 15 62 4c 2f
       0.17514499 0.02599789 -0.022146203 1.8588538e-10
000260 44 d1 5b 3e c7 70 13 be d8 6a d2 bc ee 91 a5 3d
       0.21466547 -0.1439849 -0.025685713 0.080844745
000270 d1 2e bc 3d 25 d3 ec 3a 99 bf a7 bc 35 f8 89 bb
       0.09188617 0.0018068297 -0.020477103 -0.004210497
000280 d3 86 a1 bd 4b 49 d4 3d 1f a7 a3 bb 4c c7 46 bd
       -0.07887044 0.10365542 -0.0049942876 -0.048529908
000290 8a 86 71 bd 9c 09 f3 bc 05 69 3e 3c 01 bc 31 3c
       -0.058966197 -0.029667668 0.011621718 0.010848046
0002a0 c3 8a 38 be 66 65 bf bb e2 8c cf bd 75 12 01 00
       -0.18021683 -0.005840945 -0.10134293 9.8457e-41
0002b0 a4 42 25 3e da d7 41 bc 95 0b ee bd a6 d3 68 3d
       0.16138703 -0.011831248 -0.11623303 0.05684247
0002c0 ea 9d 5b 3d ce 71 b4 bc ba 1f 29 bb 6c f2 68 bd
       0.053617395 -0.022026923 -0.0025806264 -0.056871817
0002d0 ba d8 06 be c7 ab 56 b9 dd 3f 07 bd a4 3b 45 bd
       -0.13168612 -0.00020472622 -0.03301989 -0.04815258
0002e0 10 3f 02 bd c4 9d 4c be 2c f0 06 ae 0b ec a2 bb
       -0.031798422 -0.19982058 -3.0681388e-11 -0.004971986
0002f0 21 a2 d9 3d 37 12 c7 3c 84 78 f8 bd e0 e0 5d aa
       0.10626627 0.024300678 -0.121323615 -1.9706762e-13
000300 4d ac 47 3e 79 3f 31 be b5 27 9a 3c 66 76 24 3e
       0.19499321 -0.17309369 0.018817762 0.1606079
000310 e5 d8 74 3e 10 52 85 bc 45 52 4f bd de 5a d6 3c
       0.23910864 -0.016274482 -0.050615568 0.026166376
000320 42 ed 09 3e b9 b8 f9 bd 40 10 af bd 90 03 cb b9
       0.13469413 -0.12193436 -0.08548021 -0.00038721832
000330 60 1b 1c be 98 b2 e1 3c 54 13 01 80 f3 d9 67 3d
       -0.15244818 0.02755098 -9.8769e-41 0.056604337
000340 0b a1 47 3e a9 0f a5 3c d8 c2 be bd 13 13 01 80
       0.19495027 0.020149069 -0.09314507 -9.8678e-41
000350 e0 ef 9c bd ca 6e b3 bc b5 b1 ce 3d 43 e3 fe 3d
       -0.0766294 -0.021903414 0.10092489 0.124456905
000360 63 b5 ae 3d 65 0d 3d 3c 29 e6 54 3d d7 91 ec bd
       0.085306905 0.011538838 0.05197731 -0.11551254
000370 7c d6 fc bd 9a 8a 16 bd 98 11 2e be ac 26 bb bc
       -0.12345597 -0.036753275 -0.16998899 -0.022845589
000380 ca 64 73 be a8 eb 18 be 50 cf 61 b9 fd 6d 5a bb
       -0.23768917 -0.14933646 -0.00021534902 -0.0033329718
000390 c2 4a de 3a 3a eb dd 3c 0b de 8a 3d 10 8f f2 26
       0.0016959535 0.027089704 0.067806326 1.68309e-15
0003a0 33 7d 7b 3d 1e 77 56 be a0 66 20 3e 93 fb 19 3e
       0.061398696 -0.20943877 0.15664148 0.15037374
0003b0 80 86 05 bd 22 4b b3 bc 77 db 10 bd 67 68 90 3d
       -0.032598972 -0.021886412 -0.035365548 0.07051163
0003c0 20 04 01 be f7 ad 4a bd 0f e2 43 bd 6b 0c 19 be
       -0.1259923 -0.049482312 -0.04782301 -0.14946143
0003d0 56 f6 78 be 60 50 62 be c1 12 01 00 19 e8 c7 bc
       -0.2431272 -0.22100973 9.8563e-41 -0.024402665
0003e0 f7 ae 93 3d af 1d e1 3c fe 4c 94 bc be 12 01 80
       0.07211106 0.027479975 -0.018103119 -9.8559e-41
0003f0 44 26 b9 bd fb 63 9b bc e5 88 8e 3d 13 30 0a 3e
       -0.09040502 -0.018968573 0.06959704 0.13494901

2.bias f4 [20]
000000 99 75 ff 3d 8b c5 3e 3e 75 64 19 3e 0f 76 c0 38
       0.12473602 0.18630044 0.14979728 9.1772636e-05
000010 5f 19 d0 b9 cc b4 44 3e f3 91 21 bd 63 d5 4d 3e
       -0.00039691755 0.19209594 -0.03944583 0.20100932
000020 62 bf 00 3e f9 6d c2 bd 65 66 bd bc 0b e2 0d 3e
       0.12573007 -0.09493632 -0.023120115 0.1385576
000030 66 ac 0a 3e cc 24 14 3e 09 de bb 39 6c 75 a3 ba
       0.13542327 0.14467162 0.00035832849 -0.0012470908
000040 76 27 d1 3d 07 b6 57 3e a0 b0 9f 3c 47 83 70 bb
       0.10212605 0.21065532 0.019493401 -0.003669934

4.weight f4 [100, 20]
000000 bf 2b 14 ba a4 c3 02 3e e1 21 16 3e b9 fe e9 3b
       -0.00056522706 0.12769943 0.14661361 0.007140961
000010 45 59 6b 8e 03 9b 2a 3b ac 69 4e bd 9e d0 17 3e
       -2.9008968e-30 0.0026032336 -0.050393745 0.14825675
000020 cf d8 88 3b 0f 17 85 3d 6c 5e 72 bc dd 1d 64 bc
       0.004176236 0.06498539 -0.01479302 -0.013923136
000030 b4 e6 a2 3c 09 54 24 3e 7f 0a e2 ba c4 56 99 3d
       0.019885398 0.16047682 -0.001724556 0.07487252
000040 e5 a2 ad 3b 73 d8 32 bb 8f 31 0c bd 55 8c 80 bc
       0.0052989596 -0.0027289658 -0.03422695 -0.015691916
000050 27 12 01 00 3d 13 01 00 14 13 01 80 31 13 01 80
       9.8347e-41 9.8737e-41 -9.868e-41 -9.872e-41
000060 16 aa 3b 24 e2 12 01 00 b2 12 01 00 75 13 01 00
       4.069323e-17 9.861e-41 9.8542e-41 9.8815e-41
000070 b4 11 01 80 42 12 01 80 f7 11 01 80 0c 39 af ac
       -9.8186e-41 -9.8385e-41 -9.828e-41 -4.9801326e-12
000080 8b 12 01 80 0f 12 01 80 39 12 01 00 ea 97 61 19
       -9.8487e-41 -9.8314e-41 9.8373e-41 1.1662906e-23
000090 d0 11 01 00 a6 12 01 80 c5 42 b1 85 ef 12 01 00
       9.8225e-41 -9.8525e-41 -1.6669527e-35 9.8628e-41
0000a0 60 aa e7 3b dd 12 aa 3b 12 7c 6e bb 28 9d 6e bb
       0.007069871 0.005190237 -0.003638987 -0.003640959
0000b0 bd 12 01 80 ed 29 f1 3b e3 fa df 3b e3 9a ad 3b
       -9.8558e-41 0.0073597343 0.006835328 0.005298005
0000c0 e2 a2 c1 3b 3e 01 3f 3c 1f 10 21 3d 26 24 cc 3b
       0.0059093097 0.011658011 0.039322015 0.006229895
0000d0 cd 67 f7 3b f0 74 ac bb b7 91 4b 3a 7b f4 08 3b
       0.007550216 -0.0052629635 0.00077655487 0.0020897675
0000e0 02 55 80 3b 70 f3 21 3c 12 0b 9f bc 19 55 22 3b
       0.0039163837 0.0098847 -0.019414458 0.002476996
0000f0 3b 27 f1 3d 57 b6 7a 3c f6 28 c4 bd 09 14 4f 3c
       0.11775061 0.015302262 -0.09578125 0.012639054
000100 16 12 01 00 f2 ef f4 bd f2 ad 43 be c5 1b a8 bd
       9.8324e-41 -0.119598284 -0.19109324 -0.082084216
000110 87 1a 4f 3c 20 d7 01 be 9b 09 0b bb 77 6b 8e 3d
       0.012640602 -0.1267972 -0.0021215442 0.06954091
000120 63 4e 59 bd 44 49 2d 3c c4 9e d0 bb 6b 4c c1 bd
       -0.05305327 0.01057655 -0.0063665826 -0.09438404
000130 1d f7 ee bc a9 81 07 3d ee 0a f3 bb 41 77 10 3e
       -0.029170567 0.033082638 -0.0074170744 0.14107992
000140 48 41 e2 3d 5a e6 bc bd 3c 1d 8a ba f0 26 22 3c
       0.11047608 -0.092236236 -0.0010537277 0.009896979
000150 56 13 01 00 d9 4b 6b 3b c9 17 07 be 9f bf 29 be
       9.8772e-41 0.0035903363 -0.13192667 -0.16577004
000160 5c 68 df 3b 6f 72 01 bd 8c 4b b4 bd f3 04 c4 3d
       0.0068178605 -0.031603273 -0.08803472 0.095712565
000170 49 9f 35 be 72 d1 40 3c 72 df 81 bb 41 d6 23 be
       -0.17736544 0.011768686 -0.0039634043 -0.159997
000180 bf 5f 26 bd 8d e9 d2 3a 22 3a 10 3e 8e d0 bc bc
       -0.040618654 0.0016091332 0.14084676 -0.023048665
000190 ff 96 8b 3d a3 20 fe 3d 11 84 2a 3e f7 b4 29 3c
       0.068159096 0.12408569 0.16651942 0.010358087
0001a0 bf 35 b4 ab 28 36 eb 3d 28 fb 44 be 11 e3 c6 bd
       -1.2804687e-12 0.11484939 -0.19236434 -0.09711278
0001b0 62 f0 bd bc 96 ab 45 3c c1 40 81 bd 75 f6 00 bd
       -0.023185913 0.012064835 -0.06311179 -0.03148504
0001c0 3f fa 3b be 51 f4 0d 3d b8 43 8b bb cd c5 1b 3e
       -0.1835718 0.034656826 -0.004250016 0.15212174
0001d0 72 a8 f0 3c c9 cc f3 3c f5 1a 9a 3d f3 fd 15 3e
       0.029377196 0.029760735 0.07524673 0.14647655
0001e0 09 e6 4a bd 6b 56 91 3d 6f 01 04 bd 32 7f 1b bc
       -0.049535785 0.07096561 -0.03222793 -0.009490775
0001f0 84 11 01 80 21 a8 fa 3d f4 56 f7 bd 71 82 14 3e
       -9.8119e-41 0.12239099 -0.12077132 0.14502884
000200 bc 33 3f bc 73 30 df 3d 44 48 93 3d 21 fa 87 bd
       -0.011670049 0.10897913 0.07191518 -0.06639505
000210 ad 5c 65 3e ab fb a3 3d fa 65 7b 3b 87 cc dd bd
       0.22398634 0.08006986 0.0038360343 -0.10830026
000220 47 b7 a1 3b 73 4b 7c 3d 68 ec 70 3c 1a 0d 1e 3e
       0.0049351784 0.06159539 0.014704801 0.15434685
000230 b5 c9 46 3c b8 dc 1a be a7 fc 1b bd 84 70 65 3c
       0.012133052 -0.1512326 -0.038082745 0.014003877
000240 e7 12 01 00 c8 6c b3 3d 00 0f b0 bd 03 9f 44 3e
       9.8616e-41 0.08760983 -0.08596611 0.19201283
000250 0a 20 87 3c 0a 3a c2 bd 05 78 88 bd 8b 9f 2f be
       0.01649477 -0.09483726 -0.06663517 -0.17150705
000260 35 46 a1 3c fb 0f e3 3c 18 f2 d7 bb fa 81 a4 bd
       0.019686798 0.027717581 -0.006590139 -0.080326036
000270 e5 b9 ee bc fc 1f 97 3d 68 4d 16 be 43 6c 19 be
       -0.029141376 0.073791474 -0.14677966 -0.14982705
000280 bf fe 04 00 55 fe 02 80 18 8c 1a 00 9e f7 93 a5
       4.58728e-40 -2.74908e-40 2.437979e-39 -2.5668227e-16
000290 92 12 01 80 f6 f1 00 00 a9 a4 00 00 3f 9c 3f 23
       -9.8497e-41 8.6799e-41 5.9069e-41 1.0387217e-17
0002a0 d1 84 03 80 20 aa 07 80 32 d2 01 00 20 42 0a 80
       -3.23152e-40 -7.03878e-40 1.6724e-40 -9.42076e-40
0002b0 28 b6 0a 80 06 04 1e 00 67 14 01 00 05 75 01 00
       -9.837e-40 2.756508e-39 9.9154e-41 1.33814e-40
0002c0 69 b5 02 80 ee 58 04 80 01 1c 23 00 dd a7 10 80
       -2.48749e-40 -3.99244e-40 3.224288e-39 -1.529586e-39
0002d0 c5 fe f7 bb 79 f1 33 3b 2c b5 ed 3d da 04 b3 3b
       -0.0075682127 0.0027457161 0.116068214 0.005463225
0002e0 4d f4 60 9a b7 c0 c5 3b bc 3f 17 bc c0 00 f4 bc
       -4.651946e-23 0.0060349363 -0.009231504 -0.029785514
0002f0 31 14 f9 3a 65 d2 f3 3c 4b 64 c7 bc 9d 48 28 ba
       0.001900321 0.02976341 -0.024339816 -0.00064195116
000300 8f 68 19 bd 7c 6e a0 3d 14 a2 06 bb bb c1 f5 bc
       -0.03745323 0.07833573 -0.0020543383 -0.029999604
000310 28 b9 65 3d be 21 ac ba 88 fe da 3c e7 53 8b 3d
       0.056084782 -0.0013132615 0.026732698 0.068031125
000320 ec 1e 02 3c 77 eb 72 3b b5 95 c3 bd 3f 94 48 3c
       0.007941943 0.0037066618 -0.09550039 0.012242376
000330 c9 12 01 00 bf 25 91 3c f3 90 68 3c d5 7f b7 3d
       9.8574e-41 0.017718194 0.014194715 0.08959929
000340 8b 55 5e 3d c0 b6 35 be f4 d3 f2 bd 59 c2 4d bd
       0.0542808 -0.17745495 -0.11856833 -0.050234172
000350 75 3a 8f bd d9 54 20 3d 49 d1 c2 bb fc 5e 18 3e
       -0.06993572 0.039143417 -0.005945359 0.14879984
000360 8c bb 98 bd 0f 53 8d bd 72 c8 6c bd 88 c0 2b 3e
       -0.07457647 -0.06900608 -0.057808347 0.16772664
000370 16 2b 0a be 17 f1 b6 3d d5 67 06 be 99 62 3e bc
       -0.13492998 0.08932703 -0.13125546 -0.011620187
000380 1c 13 01 80 05 bd 15 3e bd 5e b1 3d b6 d6 32 3d
       -9.869e-41 0.14622886 0.08660648 0.043661796
000390 d5 71 44 bd f0 25 47 3e 26 99 12 3d 7e cf 59 3e
       -0.04796012 0.19448066 0.035790585 0.21270558
0003a0 75 cf 2c bd 20 7c 13 be cc d9 c8 3b 8b 32 14 3d
       -0.042190034 -0.14402819 0.006129479 0.036181014
0003b0 f7 3f de 3c 70 9f 02 ba 5f e5 29 be 25 80 84 3d
       0.02713011 -0.00049828645 -0.16591404 0.06469754
0003c0 8d 70 0b 3a e1 a7 15 3b 1e 81 c4 ba 39 a4 92 ba
       0.00053192006 0.002283566 -0.0014992093 -0.0011187858
0003d0 bc 12 01 00 7b cc 35 3b 4b 7d 35 3b 28 b2 05 3b
       9.8556e-41 0.0027740288 0.0027693089 0.002040038
0003e0 0f 72 b7 3a 62 83 8f 3b d5 29 cc 3b 36 3c 09 3b
       0.0013995784 0.0043796757 0.0062305727 0.002094043
0003f0 e9 ba 27 3b e1 5a 56 bb 6c 9a 2b 39 db 18 64 3a
       0.0025593585 -0.0032707977 0.00016365357 0.00087012135

4.bias f4 [100]
000000 2f f9 2c 3e 59 22 8a a4 cc d2 9c ba ca 9f 23 3e
       0.16891931 -5.990615e-17 -0.0011964678 0.15978923
000010 3a 49 5d 3e d8 b6 3b 3e c0 99 12 3e 7e 93 b3 3d
       0.21609965 0.18331468 0.14316463 0.08768366
000020 a0 b9 1b a3 79 de b4 bd cd 13 a5 3d 62 2e 39 3e
       -8.4418745e-18 -0.08831496 0.08060417 0.180841
000030 aa 47 83 39 53 32 96 3d a8 41 61 3e 0e 1a 9a 3c
       0.0002503966 0.07333817 0.21997702 0.018811252
000040 61 79 02 ba 9e e9 c2 3c e9 96 7a bc df e8 80 3d
       -0.00049771933 0.023793038 -0.015294769 0.06294417
000050 69 a8 09 be 6f aa 9b 3d c5 ec 48 3e 67 48 63 b6
       -0.1344315 0.07600867 0.1962157 -3.386778e-06
000060 a9 3f fd 3d af 39 df ba 53 08 9c 3d d8 11 01 00
       0.12365658 -0.0017030741 0.07618775 9.8237e-41
000070 85 06 a4 3d d7 03 d4 3d cb a3 8c bc 8e d3 f2 bb
       0.08009056 0.10352295 -0.017167946 -0.007410473
000080 4a 41 3f 3b 32 d8 9b 3d b5 66 8c bd 28 41 8e 98
       0.0029183202 0.07609595 -0.06855527 -3.677193e-24
000090 70 74 40 3e c6 bb a3 b6 8e 25 b4 bd c0 5f 50 3b
       0.18794417 -4.8796383e-06 -0.087962255 0.0031795353
0000a0 af 14 14 3e 66 4b 5c 3e f3 89 12 3e 82 07 4a 3e
       0.14461015 0.21513137 0.14310436 0.19729427
0000b0 bd 13 4d bb 7f 54 22 3c 45 6e 0e 3d 6c 94 be a6
       -0.0031292283 0.009907841 0.03477313 -1.3224128e-15
0000c0 b2 91 cf 3d 81 18 50 3e d6 31 00 3e 1b 96 37 3e
       0.10135211 0.20321847 0.12519011 0.17928354
0000d0 10 cf 0f 3d 83 5c 21 3e da 87 0e 3e 78 13 01 00
       0.03510958 0.15757947 0.13919011 9.882e-41
0000e0 68 18 52 3e 74 f2 ba bd 27 9f 45 3e ef d4 38 bb
       0.20517123 -0.091282755 0.19298993 -0.002820309
0000f0 72 a8 71 3d 51 cf bb bc 63 b3 9f 3d 2b 61 a5 93
       0.058998533 -0.022926005 0.07797887 -4.174767e-27
000100 8e f2 ad ac cb 36 13 3e 71 9c 2d 3e 42 a6 05 bd
       -4.9438847e-12 0.1437637 0.16954209 -0.03262926
000110 c5 de a5 b6 1c 41 33 bc c8 6b f3 ae 4b eb 2f 3e
       -4.943317e-06 -0.010940816 -1.10695064e-10 0.17179601
000120 f8 a9 b3 b0 75 a5 28 3d 16 97 85 a9 72 11 01 80
       -1.3072272e-09 0.041173417 -5.932596e-14 -9.8094e-41
000130 56 1e 30 3a b4 cf 1f 3e 8d a3 a0 3d 12 dc 2c 3e
       0.00067183876 0.15606576 0.07843695 0.16880825
000140 93 0a e9 bc 56 a0 51 3a 82 ed 57 3d 91 61 fb a9
       -0.028447425 0.0007996609 0.05271674 -1.1163564e-13
000150 47 1b 1f 3e eb 75 62 3d a8 ec 50 bc b3 b8 9c 3d
       0.15537749 0.055288237 -0.012751736 0.07652416
000160 d6 0b f5 3d 5f 18 ec a6 4e 4f 63 3e 69 2a c1 3c
       0.11965148 -1.6382395e-15 0.22198221 0.023579793
000170 fe f8 34 16 a7 9e cc 28 38 d5 61 3e 98 12 01 00
       1.4618852e-25 2.2717354e-14 0.22053993 9.8506e-41
000180 2e 13 01 80 e8 7c 8e bd 21 49 7f 3c b1 9f ae 3c
       -9.8716e-41 -0.06957418 0.0155814 0.021316381

6.weight f4 [100, 100]
000000 9c 37 53 bd ed 11 01 80 a3 4c 0e 3c eb 14 ab bd
       -0.051566705 -9.8266e-41 0.008685264 -0.08353599
000010 cc 9b 46 bd 7a 4f 48 bd 6c 17 73 3d 5f c4 71 bd
       -0.048488423 -0.04890392 0.05934851 -0.059025165
000020 c5 7d 05 00 98 eb 6b bc ab d9 80 bd ab 69 3d bd
       5.04295e-40 -0.014399432 -0.06291517 -0.04624335
000030 2d 7b 0f 3b 49 b9 1e 3d d4 6c d2 3d 95 3f 13 bd
       0.0021893487 0.03875092 0.102746636 -0.03594931
000040 9b 56 d8 3a d2 e7 88 bd 2b 18 03 bd 4b 81 9b bc
       0.0016505303 -0.06684841 -0.03200547 -0.01898255
000050 58 e6 5a 3d 82 86 47 bd 94 d6 0b 3d 8b c7 03 b5
       0.05344233 -0.04871226 0.034140185 -4.9091676e-07
000060 e0 08 09 3d 13 c0 2e 3d b1 33 13 3d 86 12 01 00
       0.03345573 0.042663645 0.03593797 9.848e-41
000070 f3 ef b4 bd 68 63 20 3b 50 2e 92 3c 89 39 94 bd
       -0.08834829 0.0024473313 0.01784435 -0.072375365
000080 20 52 86 3c 71 24 13 bc b1 48 5a 3d 57 12 01 80
       0.016396582 -0.008980856 0.05329198 -9.8415e-41
000090 78 a8 45 bd 36 13 01 80 b9 03 84 3d 89 02 93 3b
       -0.048256367 -9.8727e-41 0.064460225 0.004486386
0000a0 fd 1c c9 bb bc 93 df 3c 10 bd 90 3d 4b ef 96 bb
       -0.006137489 0.027292125 0.07067311 -0.0046061627
0000b0 bc 7d 45 bc 75 49 d7 3d d8 a8 11 3c 74 12 01 00
       -0.012053903 0.10512058 0.008890353 9.8455e-41
0000c0 26 ba a7 3d 43 97 1b bc d5 5d f3 bc 8b cc 24 3d
       0.08189802 -0.009496513 -0.029707829 0.04023413
0000d0 9d bf db bb 90 be 82 bd 6e ec 6d 3d 42 12 01 00
       -0.0067061917 -0.06384003 0.058086805 9.8385e-41
0000e0 75 5e 54 3d 1d 9b d1 3c 9e ea a6 3d 62 a6 d1 3b
       0.051847894 0.02558666 0.081502184 0.006398008
0000f0 29 9b 84 3d 25 fc 68 bc 8b c9 a5 bc fc 11 01 00
       0.06474907 -0.014220272 -0.020237705 9.8287e-41
000100 74 4b e1 a7 3f cf bf 3d 89 c5 65 bd 2d 98 fc 3d
       -6.253185e-15 0.09365701 -0.056096587 0.12333713
000110 ba 8e 07 00 90 2b 9e 3d cb 12 01 80 d0 06 76 3d
       6.94049e-40 0.07723153 -9.8577e-41 0.06006509
000120 9f 11 01 00 a8 71 e2 ba 0d 14 01 80 e6 12 01 80
       9.8157e-41 -0.0017276304 -9.9028e-41 -9.8615e-41
000130 9f 7d 76 3b e6 f1 b7 3d 04 83 af bb 23 9e 40 bd
       0.0037611497 0.08981685 -0.0053561945 -0.04702581
000140 bf 65 71 3c 58 1b 18 bc 28 69 aa ba 4f 12 01 80
       0.014733731 -0.009283863 -0.001300131 -9.8403e-41
000150 6b 5b 0d bd fa 8c 6f bd 70 67 83 3d 67 22 c5 3b
       -0.03451101 -0.058484055 0.064162135 0.006016064
000160 bf ab 7d bd ee c1 d6 9d 47 eb 64 3d e1 11 69 3c
       -0.061931368 -5.6845847e-21 0.05588844 0.014225454
000170 e5 9f ce 14 8d fb 6b a7 a0 c6 c8 3c 40 12 01 00
       2.0863752e-26 -3.2749167e-15 0.024508774 9.8382e-41
000180 99 12 01 80 e9 86 83 3d de e4 7b 3d 6a 3f 88 3d
       -9.8507e-41 0.064222164 0.06149756 0.0665272
000190 43 49 ce 3a b4 11 01 80 e0 17 b3 3b ac 1d 1f bc
       0.0015738386 -9.8186e-41 0.0054654926 -0.009711664
0001a0 64 a9 c1 bc e9 47 97 bb b1 6e 96 3b d4 b6 b5 bb
       -0.023640342 -0.0046167267 0.004590832 -0.0055454765
0001b0 e3 ec 00 00 59 a0 46 bc 77 b7 81 bb fe c1 a2 3c
       8.4979e-41 -0.012123191 -0.0039586383 0.019867893
0001c0 1e f9 ba 3a c4 f6 20 3c b7 3c 88 3b 0a c7 b6 3b
       0.0014264917 0.0098244585 0.0041576284 0.0055779265
0001d0 c3 a1 92 3a 1e 7f bc bc 99 e8 4b 3b ec 7a 1d bb
       0.0011187125 -0.023009833 0.003111398 -0.0024029566
0001e0 b2 04 aa b9 06 37 86 bc f2 a8 bf bc 55 78 da b4
       -0.00032428425 -0.01638366 -0.02339599 -4.0693217e-07
0001f0 19 d0 ec 3b bc 55 0c 3d bb 71 06 3d 1f 13 01 00
       0.0072269556 0.03426145 0.032823306 9.8695e-41
000200 d9 9e c0 bc 18 55 08 3d ff 8a 38 3c 9e 32 88 bc
       -0.023513244 0.033284277 0.011263608 -0.016625699
000210 5f 82 2e 3c 35 45 0d 3b fd 7d f1 3c 6a 12 01 00
       0.0106512 0.0021556143 0.029479021 9.8441e-41
000220 cd 06 41 bc 2f 12 01 80 a3 2f 90 3c db b4 cd 3a
       -0.011781407 -9.8359e-41 0.01760084 0.0015694158
000230 ac 55 cc 3b 73 3f 68 bb dd 62 b1 3b cd 6d 01 3b
       0.006235799 -0.003543821 0.0054133967 0.0019749284
000240 8e 65 cc bb 6f 3f 2d 3c c8 cf a1 3b 3b 13 01 00
       -0.006237692 0.010574206 0.0049380995 9.8734e-41
000250 24 81 d4 3a fa 4f 0b ba f8 62 32 3b 6d 05 6c bb
       0.0016212803 -0.00053143466 0.0027219635 -0.0036013976
000260 53 60 39 bc cd 5f d9 3b dc 70 48 3b 8c 12 01 80
       -0.011314469 0.006633735 0.0030584848 -9.8489e-41
000270 1a 48 e2 3b d5 c2 8d 3b b0 8c cf 3b ca f7 93 3b
       0.006905568 0.0043262043 0.00633391 0.0045156227
000280 c9 1c 68 3c 40 a8 6b 3c 72 3f 0b ba 35 12 01 00
       0.014167019 0.014383376 -0.0005311883 9.8367e-41
000290 1d 80 75 a6 e9 9d 4f 3b 61 3c 5b 3b 07 45 84 3c
       -8.5175076e-16 0.0031679815 0.0033452737 0.016146196
0002a0 ce 11 01 80 ab 9f 2a 3d a7 12 01 80 bd f9 f9 3b
       -9.8223e-41 0.041656177 -9.8527e-41 0.007628648
0002b0 cc 11 01 00 a6 3f 5e 3c cf 12 01 80 c6 11 01 00
       9.822e-41 0.01356498 -9.8583e-41 9.8211e-41
0002c0 e5 a9 24 3b 0a 25 29 3b 3e 4c 7c 3c 30 f4 8a bb
       0.002512568 0.002580943 0.015399037 -0.004240535
0002d0 c4 e8 1a 3c db c1 41 bb 64 54 3e bc 21 12 01 80
       0.00945491 -0.002956501 -0.0116168 -9.8339e-41
0002e0 73 08 53 3a 0c 16 c5 bc 29 f5 e8 3b 51 fe 56 bb
       0.000805027 -0.024058364 0.0071093035 -0.0032805393
0002f0 b9 dc 2a 3b e5 b2 97 9d 93 a3 e0 3b 1a c5 b8 bc
       0.0026071502 -4.015434e-21 0.006855437 -0.022554923
000300 4f 9a bb 13 a6 05 9e 28 b2 9f 30 ba 16 13 01 00
       4.7357597e-27 1.7543973e-14 -0.00067376636 9.8682e-41
000310 cb 12 01 80 34 9d 8d 3c e3 ab 2b 3d 73 27 cc 3b
       -9.8577e-41 0.017286874 0.04191197 0.0062302887
000320 e5 91 97 3d bc 11 01 80 33 2a 6f 3b a6 2f 04 bd
       0.07400874 -9.8197e-41 0.0036493659 -0.032272004
000330 1d c3 1e 39 ef 60 09 bc 87 13 83 3d 7f 8c 99 bc
       0.0001514074 -0.008384927 0.06400209 -0.018743752
000340 d4 69 03 80 97 6a 91 bb 73 75 58 bd 1e dc 5d 3d
       -3.1347e-40 -0.0044377553 -0.052846383 0.054165
000350 6d 8c 86 3a 88 4b 5a 3d f1 f0 b5 3d 44 76 69 bc
       0.0010265239 0.05329469 0.088838466 -0.014249388
000360 4a c9 76 3a a1 17 e7 bc 91 dd 97 3d c8 08 d0 bb
       0.00094141497 -0.02820951 0.07415307 -0.006348703
000370 41 7b 53 3d 21 fe 37 3c 5a 3f 9b 3c 1c a4 7a b4
       0.051631216 0.011230023 0.018951107 -2.3342767e-07
000380 16 64 d2 bc ca 37 01 3d ac 68 ac 3c 00 12 01 00
       -0.02568249 0.031547345 0.021046005 9.8293e-41
000390 85 46 c2 3c da 24 c6 3c 2e d6 fc 3b 09 09 a0 bc
       0.023715267 0.024187494 0.007715962 -0.019535558
0003a0 af e8 06 3c 28 26 7c 3d f8 e1 06 3d 2c 12 01 00
       0.008234187 0.061559826 0.032930344 9.8354e-41
0003b0 ca 5d b6 bc 7d 13 01 00 2a a3 e3 3c 8b dc fa 3a
       -0.022261519 9.8827e-41 0.027787764 0.0019139213
0003c0 68 26 5c 3d 39 37 09 3d fe 4a c1 3d 36 b2 aa 3d
       0.053747565 0.03349993 0.09438132 0.08334772
0003d0 8e f8 c0 bb ac ae d1 3b e2 6d 90 3b 6c 13 01 80
       -0.005889005 0.0063989963 0.0044076303 -9.8803e-41
0003e0 2b 32 90 3c 9b b8 d7 bc 0b 2d 5c 3d fe f5 0b 3d
       0.017602047 -0.026333144 0.053753894 0.034170143
0003f0 0e 33 b0 bc 8b 6d 4c 3d 2f e2 73 bc 20 12 01 00
       -0.02150872 0.049909156 -0.014885469 9.8338e-41

6.bias f4 [100]
000000 8a 6b 8c 3d 16 9e 8d 3a b2 10 9c bb 34 13 01 00
       0.06856449 0.001080456 -0.0047627324 9.8724e-41
000010 47 13 01 80 e3 f0 4b 3d 1a 9d cb 3d e4 ac 12 3c
       -9.8751e-41 0.049790274 0.09942074 0.008952353
000020 a8 2b 9e bc 02 12 01 00 e2 5f 97 ba bb b0 cb bc
       -0.019307926 9.8295e-41 -0.0011548961 -0.024864545
000030 69 3b 33 3d 5a e4 e2 bb ed 47 01 80 14 cb 94 b9
       0.04375783 -0.0069241943 -1.17638e-40 -0.00028380065
000040 27 c4 a8 bd 49 c2 b8 3b 16 fa 35 3b 83 25 66 bb
       -0.08240538 0.005638395 0.002776747 -0.0035117574
000050 cc cb ea bc 72 74 dd bc d8 7e 6e 3d 1b d2 8a 3d
       -0.028661631 -0.027033065 0.058226436 0.06778356
000060 0a 7f af bc d0 13 01 80 1b 16 a6 3d bc 13 01 00
       -0.021422882 -9.8943e-41 0.08109685 9.8915e-41
000070 3f c7 a4 3d ae 3e 66 bd a5 13 01 00 c3 e9 93 3d
       0.08045816 -0.05621212 9.8883e-41 0.07222321
000080 40 12 01 00 15 dc ad bb 58 a9 f5 3b 97 13 01 80
       9.8382e-41 -0.005305777 0.007496994 -9.8863e-41
000090 87 12 e4 3c 88 a9 cf 3d 34 3e 5d bc e0 b0 9d bb
       0.027840866 0.101397574 -0.0135036 -0.004812345
0000a0 6a c5 c8 3d cf f5 90 3d c9 15 ec bc 98 21 3f 3d
       0.09803279 0.07078134 -0.028818982 0.046662897
0000b0 f2 13 01 00 41 04 b4 3d 01 12 01 80 1b a7 90 3d
       9.899e-41 0.08789874 -9.8294e-41 0.07063123
0000c0 17 15 01 00 f8 17 81 3d af 13 01 00 c3 91 03 bc
       9.9401e-41 0.063034 9.8897e-41 -0.008030358
0000d0 57 12 01 00 5e 2e cd 3d 45 6a 8f bd 9e 35 32 3d
       9.8415e-41 0.100186095 -0.07002691 0.043508165
0000e0 1b 39 10 3d 7a 11 01 00 77 a4 d8 bb ae a6 64 3d
       0.03521071 9.8105e-41 -0.0066114026 0.05582302
0000f0 f3 11 01 80 b2 11 01 80 40 56 2c 3b a7 12 01 00
       -9.8274e-41 -9.8183e-41 0.0026296526 9.8527e-41
000100 ee 06 b5 3d 79 13 01 00 9c 8f 8b bb 75 1f b0 3d
       0.08839212 9.8821e-41 -0.004259063 0.0859975
000110 86 ba 58 3d 7a 14 01 80 2b 42 01 80 00 d3 15 3c
       0.052912258 -9.9181e-41 -1.15572e-40 0.009144545
000120 2c 2d bf bc bc 20 fa b9 40 44 01 80 a0 13 01 80
       -0.02333697 -0.00047708105 -1.16319e-40 -9.8876e-41
000130 c2 ec 41 3d 1b 13 01 00 2f 13 01 80 4d 13 01 00
       0.04734493 9.8689e-41 -9.8717e-41 9.876e-41
000140 c3 94 b0 3d 4e 14 01 80 35 03 7f 3d 56 60 6d 3d
       0.08622124 -9.912e-41 0.062258918 0.0579532
000150 ca 5d b6 3d 86 12 01 00 e1 2c 10 3d e6 12 01 00
       0.089046076 9.848e-41 0.03519905 9.8615e-41
000160 d4 13 01 00 9e 46 4f bd a4 11 01 00 4a 32 7e 3c
       9.8948e-41 -0.050604455 9.8164e-41 0.0155149195
000170 ad 32 89 3c 85 f7 88 3d 37 13 01 00 fe 6f 87 3c
       0.016747797 0.066878356 9.8728e-41 0.016532894
000180 15 13 01 80 33 45 ab 3d 0b bb be 3d 35 dc da 3d
       -9.8681e-41 0.08362808 0.09313019 0.106865324

8.weight f4 [100, 100]
000000 ea d1 92 bd e7 36 ac bc 77 a8 c0 bd 2a 14 01 80
       -0.07168944 -0.021022273 -0.09407132 -9.9069e-41
000010 c1 11 01 00 2b 49 e2 3c e7 53 a8 3d 74 e4 32 bd
       9.8204e-41 0.02762278 0.08219128 -0.0436749
000020 00 00 f8 bc 1b 15 01 80 77 14 e9 bc 32 f8 fe 3b
       -0.030273438 -9.9407e-41 -0.028452141 0.007781052
000030 b3 78 b1 3d 1e c7 a1 bc 43 14 01 00 3c 17 93 bd
       0.086656 -0.019748267 9.9104e-41 -0.07182166
000040 56 03 c1 bd 66 65 20 bd b8 de 29 3c cb de ae 3c
       -0.094244644 -0.0391592 0.010368042 0.02134647
000050 d7 94 a2 3d 2b 5d ad bd bd 57 a6 3d 37 25 79 bd
       0.07938545 -0.08465036 0.081222035 -0.060826506
000060 54 48 8a 3d 88 13 01 00 a9 f4 42 3d 4e 12 01 00
       0.06752077 9.8842e-41 0.047596607 9.8402e-41
000070 42 10 97 3d a9 8b 2f bb 1f 2a 00 00 c9 4e ff 3c
       0.07376148 -0.0026786125 1.511e-41 0.031165497
000080 9c 14 01 80 fb ce 15 bd e7 9d 55 bd e3 11 01 80
       -9.9229e-41 -0.036574345 -0.05215254 -9.8252e-41
000090 70 53 a5 3b b0 d1 e4 3c 01 7a 80 bd dd ae b3 bd
       0.005045347 0.027932018 -0.062732704 -0.08773587
0000a0 28 ed 53 bd ba 6d 0e 3d 90 f7 a6 bb 3d 43 b6 3c
       -0.05173984 0.034772612 -0.0050954297 0.022248859
0000b0 ab 13 01 00 04 87 69 3d 0f 13 01 00 8d 15 82 3d
       9.8891e-41 0.057013527 9.8672e-41 0.06351767
0000c0 36 14 01 80 95 27 47 3d 1e 13 01 80 53 6e 46 bc
       -9.9086e-41 0.048621733 -9.8693e-41 -0.012111264
0000d0 0a 13 01 80 4a a6 a9 3d 1b 8b 0f bd 4f c5 a5 3b
       -9.8665e-41 0.0828367 -0.03504477 0.0050589214
0000e0 12 66 26 3c ef 11 01 00 3a 96 d6 bc 28 dd fc 3c
       0.010156171 9.8269e-41 -0.02619468 0.030867174
0000f0 55 12 01 80 d5 11 01 00 4a ae 2d bd 61 12 01 00
       -9.8412e-41 9.8232e-41 -0.042402543 9.8429e-41
000100 bd fe 84 3d 4c 12 01 80 98 41 95 3d cb 03 a2 3c
       0.064939 -9.8399e-41 0.07287902 0.0197772
000110 12 b1 a6 3d 69 12 01 80 d4 14 01 80 70 d8 77 bd
       0.08139242 -9.844e-41 -9.9307e-41 -0.060509145
000120 9e b2 69 3d de 35 9f bd 39 14 01 00 2c 12 01 80
       0.05705511 -0.07773946 9.909e-41 -9.8354e-41
000130 87 0f 47 3d 38 13 01 80 d9 11 01 00 34 13 01 80
       0.048598792 -9.873e-41 9.8238e-41 -9.8724e-41
000140 c1 ed 93 bd 8f 14 01 00 6f d5 88 bd 2c bf 4e 3d
       -0.07223082 9.921e-41 -0.06681334 0.050475284
000150 e0 00 63 bd 0a fd 00 00 aa 8a 06 bd fc 13 01 80
       -0.055420756 9.0773e-41 -0.032847084 -9.9005e-41
000160 7b 13 01 80 3f ef 0a bd 15 12 01 80 2c 8f 4c 3a
       -9.8824e-41 -0.03391957 -9.8322e-41 0.00078033167
000170 54 b8 35 3d ec 86 32 3d 82 14 01 80 e3 f5 b0 3d
       0.044365242 0.043585703 -9.9192e-41 0.08640649
000180 40 12 01 00 f8 38 35 3b a4 df 5c bd 59 34 57 bc
       9.8382e-41 0.0027652364 -0.053924218 -0.013135039
000190 fa 13 01 80 f3 13 01 00 c7 12 01 80 81 11 01 80
       -9.9002e-41 9.8992e-41 -9.8572e-41 -9.8115e-41
0001a0 7e 11 01 00 70 14 01 00 ca 14 01 80 7c 11 01 80
       9.811e-41 9.9167e-41 -9.9293e-41 -9.8108e-41
0001b0 74 14 01 00 05 12 01 80 26 12 01 00 ef 5c 01 00
       9.9173e-41 -9.83e-41 9.8346e-41 1.25174e-40
0001c0 7c 13 01 80 19 12 01 80 31 13 01 00 9a 13 01 80
       -9.8825e-41 -9.8328e-41 9.872e-41 -9.8867e-41
0001d0 b3 33 01 00 58 12 01 80 6b 14 01 80 de 14 01 00
       1.10382e-40 -9.8416e-41 -9.916e-41 9.9321e-41
0001e0 c8 11 01 00 02 14 01 80 8b 13 01 80 92 12 01 80
       9.8214e-41 -9.9013e-41 -9.8846e-41 -9.8497e-41
0001f0 b3 14 01 00 eb 12 01 00 6f 35 01 80 de 11 01 80
       9.9261e-41 9.8622e-41 -1.11004e-40 -9.8245e-41
000200 09 12 01 80 68 12 01 00 12 13 01 00 35 12 01 80
       -9.8305e-41 9.8438e-41 9.8677e-41 -9.8367e-41
000210 68 12 01 80 b7 11 01 80 7a 13 01 80 8a 11 01 00
       -9.8438e-41 -9.819e-41 -9.8822e-41 9.8127e-41
000220 72 12 01 80 52 12 01 80 67 12 01 80 a5 11 01 80
       -9.8452e-41 -9.8408e-41 -9.8437e-41 -9.8165e-41
000230 1a 13 01 80 1f 13 01 00 82 12 01 00 6e 14 01 00
       -9.8688e-41 9.8695e-41 9.8475e-41 9.9164e-41
000240 db 11 01 80 5c 13 01 80 2c 13 01 80 55 14 01 80
       -9.8241e-41 -9.878e-41 -9.8713e-41 -9.9129e-41
000250 93 12 01 00 78 14 01 00 95 12 01 80 15 14 01 80
       9.8499e-41 9.9178e-41 -9.8501e-41 -9.904e-41
000260 d9 12 01 00 e4 11 01 80 af 3c 01 00 52 12 01 80
       9.8597e-41 -9.8253e-41 1.13605e-40 -9.8408e-41
000270 60 13 01 80 5f 12 01 80 f5 24 01 00 6f 12 01 80
       -9.8786e-41 -9.8426e-41 1.05093e-40 -9.8448e-41
000280 c3 12 01 00 16 13 01 00 27 13 01 80 f3 11 01 80
       9.8566e-41 9.8682e-41 -9.8706e-41 -9.8274e-41
000290 d6 13 01 00 74 12 01 00 bd 11 01 80 f7 13 01 00
       9.8951e-41 9.8455e-41 -9.8199e-41 9.8998e-41
0002a0 a9 11 01 80 9e 11 01 00 18 12 01 80 93 12 01 80
       -9.8171e-41 9.8155e-41 -9.8326e-41 -9.8499e-41
0002b0 ac 13 01 00 fb 13 01 80 a9 12 01 00 91 12 01 00
       9.8892e-41 -9.9003e-41 9.853e-41 9.8496e-41
0002c0 70 12 01 00 df 12 01 00 c7 11 01 80 a5 11 01 00
       9.845e-41 9.8605e-41 -9.8213e-41 9.8165e-41
0002d0 d6 12 01 80 a7 11 01 00 ef 11 01 80 5a 12 01 80
       -9.8593e-41 9.8168e-41 -9.8269e-41 -9.8419e-41
0002e0 e0 13 01 80 fd 12 01 00 4a 13 01 80 ba 11 01 80
       -9.8965e-41 9.8647e-41 -9.8755e-41 -9.8195e-41
0002f0 36 12 01 00 0f 14 01 80 e6 11 01 80 d4 13 01 00
       9.8368e-41 -9.9031e-41 -9.8256e-41 9.8948e-41
000300 19 12 01 00 42 13 01 00 b3 11 01 80 45 12 01 80
       9.8328e-41 9.8744e-41 -9.8185e-41 -9.839e-41
000310 cc 11 01 00 cd 13 01 80 7a 13 01 80 35 14 01 80
       9.822e-41 -9.8939e-41 -9.8822e-41 -9.9084e-41
000320 b7 23 9b 3b 3c 15 7f 3b 86 1a 03 3d 90 11 01 00
       0.004734482 0.0038922569 0.032007717 9.8136e-41
000330 f2 13 01 80 b7 3e 11 3b 86 63 99 3c e7 ba 57 3c
       -9.899e-41 0.0022162625 0.018724214 0.01316712
000340 90 ad 84 3b 18 12 01 00 54 4b 54 3b 42 e9 68 3c
       0.0040490106 9.8326e-41 0.0032393532 0.014215769
000350 52 c3 b3 3c 24 45 31 3c 79 14 01 00 86 ff 77 3c
       0.021943722 0.010819707 9.918e-41 0.015136605
000360 4e 36 33 3c 1f 50 ff 3c a1 a2 b5 b9 08 13 46 ba
       0.01093824 0.031166134 -0.00034644178 -0.00075559365
000370 e0 8c aa ba 5a 16 93 3c 45 61 9e 3c 9f e8 14 bb
       -0.0013011955 0.017954994 0.019333491 -0.002272166
000380 32 c1 8a ba 7b 14 01 80 c6 2e 5f 3c 01 12 01 80
       -0.0010586141 -9.9183e-41 0.0136219915 -9.8294e-41
000390 48 c5 b4 3b 7f 03 ef ba 3f 13 01 00 5f da 6d ba
       0.005516682 -0.0018235295 9.874e-41 -0.00090733723
0003a0 44 14 01 80 00 ed ce 39 70 22 d8 3b 64 13 01 80
       -9.9105e-41 0.0003946796 0.006595902 -9.8792e-41
0003b0 fb c2 36 3c 51 6a ec 3c 8b d6 e2 3c 9a fd 0d 3c
       0.011154885 0.02885929 0.027690193 0.00866642
0003c0 71 79 0c 3d 2e 82 6a ba 3a 99 df ba 0c bf 92 ba
       0.034295503 -0.000894579 -0.0017059215 -0.0011195852
0003d0 9b 13 01 00 51 82 b1 3c da 12 01 00 c2 7f c1 3c
       9.8869e-41 0.021668585 9.8598e-41 0.02362049
0003e0 c5 12 01 00 7c 7b b5 ba c5 11 01 80 30 ac 2d 3c
       9.8569e-41 -0.0013846005 -9.821e-41 0.010600135
0003f0 68 13 01 00 62 4a 29 3d 34 55 cd 3b ab b6 ca 3c
       9.8797e-41 0.041330703 0.0062662605 0.024745306

8.bias f4 [100]
000000 f5 c3 bf 3d fa 11 01 00 b1 b8 8e 3d 7c 7a 11 3d
       0.09363548 9.8284e-41 0.06968821 0.0355172
000010 98 11 01 80 bf 11 01 00 6a 13 01 00 a4 d3 aa 3d
       -9.8147e-41 9.8202e-41 9.88e-41 0.083411485
000020 a9 ce 96 3d 7a 75 75 3a 21 a7 81 3c c9 12 01 80
       0.07363636 0.00093635137 0.015826764 -9.8574e-41
000030 1b d7 a4 3d f4 8f 39 3d 13 12 01 00 d9 5c 0b 3d
       0.080488406 0.0453033 9.832e-41 0.034024093
000040 79 13 01 00 86 fb b8 3d c0 11 01 00 5b 92 e9 3a
       9.8821e-41 0.09032349 9.8203e-41 0.0017820107
000050 40 12 01 80 9c 23 86 3c 62 12 01 00 cb 04 aa bd
       -9.8382e-41 0.016374402 9.843e-41 -0.083016954
000060 70 13 01 80 8b bc 6b 3d e5 50 7d 3d 23 e7 47 bd
       -9.8808e-41 0.057552855 0.061844725 -0.048804414
000070 75 d8 d7 bc d1 74 80 bd f8 12 01 00 ec 10 7c bd
       -0.026348332 -0.06272281 9.864e-41 -0.061539575
000080 06 22 18 39 12 13 01 00 99 2b b3 3d df 13 01 80
       0.00014508524 9.8677e-41 0.0874855 -9.8964e-41
000090 0b 60 b4 3d 4a 40 da 3c ee f1 87 bd 30 c6 9d 3d
       0.08807381 0.026641984 -0.06637941 0.07703817
0000a0 17 14 01 80 92 50 bd 3d e2 f7 66 3c 7b 99 b2 3b
       -9.9042e-41 0.09243883 0.014097186 0.005450425
0000b0 76 13 01 00 7c 11 01 00 2f cc c0 3d 81 95 b7 bb
       9.8817e-41 9.8108e-41 0.09413945 -0.005602539
0000c0 e1 d7 e9 3d 4e 61 92 3d fb 73 90 39 6e 8a a8 3d
       0.11418129 0.07147466 0.00027552232 0.08229528
0000d0 65 da d2 bb 6d 61 fb 3b 15 13 01 00 e1 12 01 80
       -0.006434726 0.007671526 9.8681e-41 -9.8608e-41
0000e0 4f af 2c 3b 08 12 01 00 b2 e8 71 3b b6 d0 ba 3d
       0.002634961 9.8304e-41 0.003691238 0.0912184
0000f0 ba 12 01 80 26 13 01 00 e5 26 e1 3d 6b 12 01 00
       -9.8553e-41 9.8705e-41 0.10993747 9.8443e-41
000100 2e 69 81 3d 8e c9 a3 3d fe 11 01 00 08 8c 8d bb
       0.063188896 0.07997428 9.829e-41 -0.0043196715
000110 66 12 01 80 cb b4 37 3d e9 4e f6 3c b4 bf 01 bd
       -9.8436e-41 0.044850152 0.030066924 -0.031676963
000120 b1 df 7d 3d 54 77 de 3c a8 83 a8 bb cc ad 13 3d
       0.061980907 0.02715651 -0.005142648 0.036054417
000130 5c 74 7f 3d ee 79 7c 3c 4c 15 01 80 af 93 79 3d
       0.06236683 0.01540993 -9.9475e-41 0.060931858
000140 cc 95 b7 3d e7 53 91 3c 7d 13 01 00 41 17 ea 3d
       0.08964118 0.017740203 9.8827e-41 0.114302166
000150 a4 22 8e 3d 60 71 cd 3d 8d 13 01 00 4b eb 28 3c
       0.06940201 0.1003139 9.8849e-41 0.010310004
000160 10 45 01 80 19 09 96 3d 7a 12 01 00 69 13 01 80
       -1.1661e-40 0.07325954 9.8464e-41 -9.8799e-41
000170 a8 61 06 3b c2 b6 82 3b 62 5d cc 3c d3 12 01 80
       0.0020504985 0.0039890716 0.024946872 -9.8588e-41
000180 c5 11 01 80 cf 12 01 00 9c 11 01 00 7e e6 be 3c
       -9.821e-41 9.8583e-41 9.8153e-41 0.023303267
