Model/LSTM/LSTM_model_fc.pkl (torch, 1852 bytes, 1 tensors)

weight f4 [1, 80]
00000000: 2add cd3d 60c8 2ebd 916d 463d b031 e4bd
00000010: f61a 12bd dc6b 3dbd 0fc4 55bd c4f2 02bd
00000020: 1a6d 9d3a 98c3 43bc fd1b 4b3d 2467 f63c
00000030: c769 a03d 8c7b e73c ee16 cc3d 78d4 ddbc
00000040: 2a7d 093c 9c73 f63c e454 9bbd 7bef c5bd
00000050: 7a28 603d ef52 c03d 875c ad3d abef 133c
00000060: 7cbb 9cbd e232 203d 2461 babd ad1b 3abc
00000070: ff94 df3c f87b a73d b85c 71bd e5d8 a1bd
00000080: 5206 d7bd fdb3 093d f969 5cbd 9665 11bb
00000090: 1774 35bd 159c 8c3c 6fcb 533d b913 ae3d
000000a0: 5dbe 7ebc f52d 49bd 9d9f cebc f1c8 e0bd
000000b0: 2375 b43c ba5c bf3d a7b5 a5bd 6749 d13d
000000c0: f814 e4bd d169 f1bc d8c9 26bd 23d7 c73c
000000d0: 5e6b 4bbd 3b31 bc3c e3ca 23bd 2ad0 c63d
000000e0: f5e7 a9bd b86e 1b3d 0cbb a8bd ae0b cdbd
000000f0: 20e2 dbbd 5e05 cf3d 6bfa 333d 1e98 e93c
00000100: 4025 ddbd 1683 083d c3eb 443c 5f31 ae3c
00000110: 59fd ce3d 504f ee3b c50b 2a3c 067c 683d
00000120: 1dad dabd c307 143b 5d52 943d 818a d23d
00000130: d54d b1bb 010e 0a3d 4d0d 6b3d 6a31 4dbd
0.10051949 -0.04267156 0.048444334 -0.1114229 -0.035670243 -0.04624544 -0.05218893 -0.0319698
0.0012010664 -0.011948489 0.04958724 0.030078478 0.078326754 0.028257154 0.09965311 -0.027078852
0.008391658 0.030084424 -0.07584551 -0.09664818 0.0547261 0.09390818 0.08464914 0.009029309
-0.07652947 0.039111026 -0.09100559 -0.0113591375 0.027292727 0.08177942 -0.058926314 -0.079026975
-0.104992524 0.033618916 -0.053812 -0.0022185794 -0.044300165 0.01716427 0.05170768 0.084998555
-0.015548316 -0.049116094 -0.025222594 -0.109758265 0.022028511 0.09343858 -0.08091288 0.102190785
-0.11136812 -0.029469403 -0.040719837 0.024394577 -0.04966294 0.022972694 -0.03998841 0.09707673
-0.082961954 0.037947387 -0.08238801 -0.10011993 -0.10736489 0.101084456 0.04393999 0.028514918
-0.107981205 0.03332814 0.012019101 0.021263776 0.10106916 0.0072726384 0.010378783 0.056758903
-0.1067755 0.0022587634 0.07242272 0.10280324 -0.0054108896 0.03370476 0.05738573 -0.050095953
