Model/LSTM/LSTM_model.pt (torch, 105257 bytes, 9 tensors)

lstm.weight_ih_l0 f4 [200, 12]
00000000: ee43 77b8 1a74 e03b 61ee 12bb 9ae3 a5bc
00000010: 61ef 94bc 9275 3b3d e412 e7bc f8f8 4f3d
00000020: 70fd 9ebb 7672 08bc 518b 28bd 35e4 903c
00000030: faa8 6abb ca75 84bb a6f4 a6ba b5cc a33b
00000040: 248d c3ba b705 e73b cf70 c03b 0a5c 6c3c
00000050: a132 d3b9 7bc8 5939 794c 13ba 8e6c 67bc
00000060: a838 443c 6ebb 3c3c 02da 373c da2e 393c
00000070: 96d0 e33c 5d05 a1b9 c095 d03b d71d f83c
00000080: 482b ebb8 73d5 ac3b d68a dc3c ae7a 88bc
00000090: dd76 8b3c 8b8c 033c c511 013c b814 f2bc
000000a0: 4dc3 18bd 7703 283d 6996 27bc f97a 2c3d
000000b0: acde aebc 87c9 35bc 398d e5bb 0ceb 35bb
000000c0: 876f a23c a55f b7bb c0d5 6ebc 98cb 2abd
000000d0: a6d3 0abc 15ab 053d 0561 c1bb 9178 203d
000000e0: 034c b6bb f60d 7bbd ffda bd3a e645 10ba
000000f0: eec6 9c3b 182a 03bd 957b f4bc 56a4 cb3b
00000100: ecaa 063d 31b6 2d3b a187 0b3d 8c13 d43c
00000110: f0a6 27bc d469 cfbc 9ca7 aa3c 72ce 803c
00000120: 1ab2 a13c d35e 013d 4c73 0d3d 52ee dbbc
00000130: f2dc 65bc f6ca d6bb 43f4 883c 0460 853c
00000140: 056e 0a3c 2a21 253c e1cc 533c 4442 503c
00000150: 083f 02bc 9688 72bb 5f3e 7b3b 8559 7c3c
00000160: 2b70 10bc e3cc 5fbb 6e06 9b3c a1c0 f8bb
00000170: 1698 65bc a4b0 b53c a2c0 3d3a bea5 5cbc
00000180: 8154 483c b9d6 0fbb 3630 3cbb 72e7 a9bc
00000190: acb0 3b3c a4c6 823c 2b4a f4bc f5d9 e73c
000001a0: 9ee1 043c 1073 03bc 4ad2 87bc 4f4c c93b
000001b0: d853 be3c d155 b53b 3236 0d3c 94f1 e5bc
000001c0: 6d19 dcbb a8f4 b13c 907c 813b 8534 203c
000001d0: 99fd 91ba 990d 7ebc aa09 a8bb 2352 773b
000001e0: 8437 73bc 8e5c ecbc a267 e4bc ed47 013d
000001f0: c92a 813c 11b2 553c ccbd 393c 7fbe 933c
00000200: 1c48 a13b 74d7 c4bc 75d6 c6ba 540c e23b
00000210: b95f 033b 9e87 87bc f9c1 96bc d87a f73b
00000220: 1537 10bc 2e6f 9bb9 24df 3bbc 7cad 9c3c
00000230: 3084 e43b 5ba5 d63b 69ae dcbb b016 efba
00000240: e37e 783c 025c e13c ad45 e23c 0554 26bd
00000250: efbb 55bc 351a 82bc 8112 3d3c ed71 f4bb
00000260: d3ee 8cbc ed81 95bc f395 7fbc 89b8 9cbc
00000270: 79df 0d3c 667f 5b3c ecb6 df3c 27f0 00bc
00000280: 8556 8f3b d9ef 563c fa69 893c 6fc3 22bc
00000290: bfb5 47bc e660 58bc 433d 353b 5568 4fbc
000002a0: 2a38 183c f1ec 473c aa79 2f3c e386 f3bc
000002b0: 5096 2ebc b837 d43c 5d43 013c c0a1 a33c
000002c0: 63d0 cabc fd5e e3bc 1039 5abc 2d69 eabb
000002d0: 0918 2a3c 93a5 723c 6a7f bd3b 8796 b4bc
000002e0: 0d11 403d 5eb9 ba3c 5333 03bb 3b33 6f3d
000002f0: 6588 063d 41a5 eabc ac32 83bc 4a0c a13c
00000300: 09ff 3cbb 5e14 fdbb 12d2 f9bb 6ae2 c0ba
00000310: b036 80bb e5f8 313c 7911 97bb 3939 a33c
00000320: 121b d63b cbfa 09bc 46b0 fabb fb99 223b
00000330: 8053 16bc 3764 963a d597 2fbc ac75 f23c
00000340: 371b e4bc 8fba 3cbb df67 4f3b 68b9 bc3c
00000350: 3f0e 91bc c981 0a3c a604 b8bb 08d3 9cba
00000360: 4547 073c 1da8 553c f70b 84bc 9eb1 a9bc
00000370: 30d4 413d 4954 fcbb 3fff c83b b0c1 103d
00000380: c563 21bd e3f9 a5bc 864a f23b c72f 943c
00000390: dbd5 463c e8d2 163d 1185 263d 1337 d6bc
000003a0: 2d85 11b9 e49a f8bc 908d f53c 33db 2dbc
000003b0: add0 f2bc 2138 0dbb a03f e53c e80b 7bbc
000003c0: 52ad 723c 78c7 ed3c 863c fc3c 4f4f d9bc
000003d0: 73d6 ec3b bf07 0dbc 5905 273c 786c cabc
000003e0: 4b21 85bc 5de7 09bb dd0b c53b b50b d9bc
000003f0: d1e0 113d 6826 9b3b e08f 9bbc 54b2 dcbc
-5.8952653e-05 0.006849778 -0.0022419917 -0.02025013 -0.018180551 0.04576642 -0.02820725 0.050774544
-0.0048519894 -0.008328071 -0.041148487 0.017686943 -0.0035806284 -0.004042362 -0.0012737706 0.004998768
-0.0014919383 0.007050242 0.005872823 0.014426241 -0.00040282778 0.00020769417 -0.00056190003 -0.014125003
0.0119763985 0.011519296 0.011221411 0.011302674 0.027809422 -0.0003071231 0.006365508 0.030287666
-0.00011213735 0.0052744686 0.02692167 -0.01666006 0.017024452 0.0080291135 0.007877772 -0.029550895
-0.03729563 0.04101893 -0.010228732 0.042109463 -0.021346413 -0.011095411 -0.0070053604 -0.0027758507
0.019828571 -0.0055961185 -0.014577329 -0.04169807 -0.0084733125 0.03263386 -0.005901458 0.03917748
-0.0055632605 -0.06129261 0.0014484822 -0.000550358 0.0047844565 -0.032022566 -0.029844085 0.0062146587
0.032877848 0.00265063 0.034064893 0.025888227 -0.010232672 -0.025319017 0.020831876 0.01572344
0.019738246 0.031584572 0.034533784 -0.026847038 -0.014029728 -0.0065549565 0.016718036 0.016281135
0.008449082 0.010078708 0.012927265 0.012711111 -0.007949598 -0.003700768 0.0038336737 0.0154022025
-0.008815805 -0.0034149222 0.018923964 -0.0075913225 -0.014013311 0.022178955 0.00072384824 -0.01346725
0.012227179 -0.0021948053 -0.002871526 -0.020740245 0.011455696 0.01596386 -0.029820522 0.028302172
0.008110432 -0.0080230385 -0.016579766 0.00614313 0.02323334 0.0055339118 0.008618878 -0.028069295
-0.006716898 0.021723107 0.0039516166 0.009778147 -0.00111382 -0.015506172 -0.005128105 0.0037738166
-0.014844779 -0.028852727 -0.027881447 0.031562734 0.015767472 0.013042943 0.011336755 0.018035172
0.004921926 -0.024028517 -0.0015170114 0.0068984423 0.0020046069 -0.01654416 -0.01840304 0.007552486
-0.008802195 -0.0002964674 -0.011466775 0.019125693 0.006973766 0.0065504736 -0.0067346585 -0.0018241014
0.015166971 0.027509693 0.027621115 -0.04060747 -0.013045295 -0.015881637 0.011540056 -0.00745987
-0.017203724 -0.01825043 -0.0155997155 -0.019130962 0.008659237 0.013397073 0.027308904 -0.007869757
0.0043743276 0.013118708 0.016774166 -0.00993429 -0.012189328 -0.013206696 0.0027654923 -0.012659152
0.009290734 0.012202487 0.010710159 -0.029727405 -0.0106559545 0.025905475 0.007889596 0.01997459
-0.02475757 -0.027755255 -0.013319269 -0.007153651 0.010381707 0.014809984 0.005783011 -0.022044433
0.04689126 0.022793468 -0.0020019605 0.058398467 0.03284492 -0.028643252 -0.016015373 0.01965918
-0.0028838536 -0.007723375 -0.0076239193 -0.0014715914 -0.0039127693 0.010862564 -0.004610237 0.019924747
0.0065339888 -0.00842161 -0.007650408 0.0024811018 -0.009175181 0.0011473958 -0.010717352 0.029597126
-0.027845008 -0.002879772 0.0031647605 0.023037627 -0.017706988 0.008453795 -0.0056157885 -0.0011964748
0.008256738 0.01304057 -0.016118987 -0.020714577 0.0473215 -0.0077004773 0.0061339433 0.035340965
-0.03940179 -0.020260757 0.007394138 0.018089188 0.012135948 0.03682223 0.040654246 -0.026149308
-0.0001387789 -0.030347295 0.029974729 -0.010611343 -0.02964052 -0.0021548348 0.02798444 -0.015322663
0.014811831 0.029025778 0.030790579 -0.026527075 0.007227713 -0.008607804 0.010194146 -0.024709925
-0.016251227 -0.0021042444 0.006013377 -0.02649484 0.035614792 0.004734803 -0.018989503 -0.026940502

lstm.weight_hh_l0 f4 [200, 50]
00000000: 92da 49bc fa25 a3bb f692 c13b 664c 3e3c
00000010: 61d4 6a3c e9c4 c6bb a22e 1b3c 50c1 7b3c
00000020: ebcc 263b 7b78 523b fd97 48bc 4361 203c
00000030: 55f7 07bc dba0 733c 5379 5fbb dd2d 843b
00000040: 3fe7 0d3c 24ea 573b 02c5 eeba b4fe 0abc
00000050: cdc0 0bbc 20dd 683c 028a ee3b 35d6 8dbb
00000060: e112 693c eb85 d0bb a708 eabb 08d5 da3a
00000070: ff5c 9dbb 9ce2 8b3b 622e adbb 0cfd 743c
00000080: 3834 973c e9df 2cbc 9482 2e3c 25b9 593b
00000090: 18cd dbbb 7982 e1bb 8ede 0fbc 2635 0f3b
000000a0: f794 1dbc 3173 a83b 3c81 b4bc 9494 40bc
000000b0: 2bd1 60ba 11ba 8b3b 7b36 70bc 401b 8a3b
000000c0: 7f04 603c ff67 91bc d824 183b d35f 0e3c
000000d0: 7adc 4c3b f78b 1abb cdbc aabb d75b 6cbb
000000e0: 0e47 e03a 254d 0cbc fb00 aebb 6ab3 deba
000000f0: 82d2 0639 41f4 f7bb 83b7 19bb 8e01 76ba
00000100: e3c5 063c e80f 99bb 0dd0 f9bb 5051 1dbc
00000110: 8a6d b7bb aaf8 01bb 8c58 b03a 55a7 0dbb
00000120: 1d75 3cbb c7fa acbb cc75 1ebb 0707 bdba
00000130: 4643 1a3c 92b2 e9b9 3242 de3b a724 e2bb
00000140: 089d 77bb db11 16bb 62de 263a 2e7b af3b
00000150: 5fea 06bc 8db6 1fbb 1250 813b 163a 493b
00000160: d3d9 683b ec78 fdbb 2afb f1ba bcad 3c3b
00000170: c2f8 84bb 5daa c23b 21ab 3cba 5a6c cf3b
00000180: 36af 21ba 1daa 4e3b 9e02 a3bb 1015 99bb
00000190: cc17 473c b176 a8b8 3a59 84bc b818 0bbc
000001a0: eeca 2dbc 4ad6 6ebc fd65 92bc e9e1 53bc
000001b0: 04b1 a03b d673 44bc 8055 b63c 2075 babb
000001c0: 2702 493c e513 14bc f8ad fa3b 548e 61bc
000001d0: 40d5 e3bb d39d 13bb f3ce 17bc 1355 853b
000001e0: a873 1c3c 377f 44bc 3734 01bc a250 2a3c
000001f0: 0b0b 46bc 0d10 5e3c e792 a7ba 65fc 8fbc
00000200: fd92 213c 7d3f ebbb 481e 473c cf44 3bbc
00000210: ff4f 83bc e2c0 013c d81b 5dbc f893 8cbc
00000220: e2b5 2c3c dfeb 963c 776b 5a3c 1a3d dbbb
00000230: e506 423c 6e9d 7a3c e739 8b3c 9eb0 623a
00000240: 6a73 493b 61c7 9cbc 672e 563c ab0d 5ebc
00000250: 3920 30bb 97af 2e3c 776d 42bc 40d8 88bb
00000260: 7282 bb3b 9398 ea3b 5db5 7e3b ff36 01bc
00000270: 8cb0 e63b 94fa 293c a9c7 52bb ba1b 283b
00000280: 1559 11bc 0eb7 1d3c 046b 4cbc 7ce6 073c
00000290: df8d a33b 1d0b d63b 9f59 b63b 1e2b b2ba
000002a0: 6b16 fa3a 0820 a1bb 7bd6 f4bb 33c2 463c
000002b0: 6d99 013c 5c0d e2bb 5927 343c c04a 19bc
000002c0: ca68 393b 31c0 963a 7b8b e2bb a484 6eba
000002d0: 4106 1dbc 1164 883c e990 493c 398b cabb
000002e0: b7c8 cc3b a1eb 5a3b 5605 04bc 738a 3ebb
000002f0: f7f3 033b 6d7b b13b 9fd2 06bc 83de ea3b
00000300: 8997 11bc cbd8 de39 7b81 bfba 4bac 9f3b
00000310: 4f8b 5bbc 14c1 eb3b a980 1f3c 3bd2 a5bc
00000320: 50a4 a1bc 41a9 a6bb 947f da3b a658 0f3c
00000330: 53cb 3a3c b9d0 b5ba 104b 6b3c cb84 5a3c
00000340: fb1b 343b 5fbe 433c 5eca 8c3b f9c5 823c
00000350: 54cd 40bc aaa6 e739 66e2 9cbb d774 a53c
00000360: 510d 283c 1e45 793b f946 4d3c fa2d eab9
00000370: 79b4 7bbc 9f88 973c 4122 b53c de50 543b
00000380: 3bc5 8d3c 26de f4bb 54d9 823b 3a2d 053c
00000390: fa2e a3bc 6600 d73b e039 1bbc eea2 803b
000003a0: 1f29 903c 6a24 58bc d8a8 f13b 06e0 733c
000003b0: 6168 7cbc 86e6 463b e079 5fbc c42d 4b3c
000003c0: 4587 86bc 5a52 da3b ceb2 8bbc 28a4 4dba
000003d0: f24b a038 c3c0 08ba 6574 81b9 bf58 923b
000003e0: 7162 793c bc34 77bb 7304 d4bb 1d78 0bbc
000003f0: 95be 2dbc 5ec6 a83a 25e7 29ba df18 003c
-0.012320178 -0.0049788924 0.0059074117 0.0116148945 0.014332862 -0.006065954 0.009471567 0.0153659135
0.002545173 0.003211527 -0.012243268 0.009788814 -0.008298715 0.014869894 -0.0034099414 0.0040337876
0.00866109 0.0032945955 -0.0018216672 -0.0084835775 -0.008529854 0.014212877 0.0072796354 -0.004328514
0.0142256925 -0.0063636205 -0.0071421447 0.0016695568 -0.0048023458 0.0042689573 -0.0052850703 0.014952909
0.018457517 -0.010551431 0.010651249 0.0033221927 -0.0067077987 -0.0068820086 -0.0087810885 0.0021851747
-0.0096180355 0.005140685 -0.02203428 -0.011754174 -0.00085760903 0.004264124 -0.014661427 0.0042146742
0.013672947 -0.017749785 0.002321532 0.008689838 0.0031259344 -0.002358196 -0.005210495 -0.0036065483
0.001711102 -0.008563315 -0.0053101755 -0.0016990725 0.00012857656 -0.007566959 -0.0023455329 -0.0009384387
0.008225891 -0.0046710856 -0.0076236785 -0.009601906 -0.005597775 -0.0019832053 0.0013454123 -0.002161463
-0.0028756328 -0.0052789184 -0.00241791 -0.001442165 0.009415453 -0.00044574268 0.0067827934 -0.006901342
-0.0037782807 -0.0022898826 0.0006365535 0.0053552603 -0.008234589 -0.0024370283 0.0039463127 0.0030704788
0.0035530224 -0.0077353623 -0.0018461694 0.0028790077 -0.0040579746 0.005940719 -0.0007197131 0.006330055
-0.0006167771 0.00315345 -0.004974677 -0.0046717003 0.01215167 -8.032972e-05 -0.016155828 -0.00848978
-0.010607464 -0.014577458 -0.017870897 -0.012932279 0.0049039144 -0.011990508 0.022257566 -0.005690232
0.01226858 -0.009037946 0.007650133 -0.013766844 -0.0069529116 -0.002252449 -0.009265649 0.0040689795
0.009549059 -0.011993221 -0.007885984 0.010395201 -0.012087594 0.0135536315 -0.0012784869 -0.017576406
0.009861705 -0.0071791993 0.012153216 -0.0114299795 -0.016029356 0.007919522 -0.013495408 -0.0171604
0.010541411 0.018423019 0.013331286 -0.0066906335 0.011842464 0.015296323 0.016995383 0.0008647534
0.0030738958 -0.01913804 0.013072587 -0.013553063 -0.0026874675 0.010661981 -0.011866919 -0.0041761696
0.0057223374 0.0071593015 0.0038865425 -0.007886647 0.007040089 0.010374684 -0.0032162464 0.0025651292
-0.0088713365 0.009626163 -0.012476686 0.008294698 0.0049912776 0.0065320865 0.005564883 -0.0013593172
0.0019080167 -0.0049171485 -0.007471857 0.012131262 0.007910115 -0.006898565 0.010995709 -0.009356201
0.002829122 0.0011501369 -0.0069136 -0.00090987445 -0.009584011 0.016649278 0.012302616 -0.0061811474
0.006249513 0.0033404606 -0.008057913 -0.0029074221 0.0020134428 0.005416325 -0.008228927 0.0071676387
-0.008886226 0.00042504663 -0.0014610732 0.004872834 -0.013399913 0.0071946476 0.009735265 -0.020241847
-0.01973167 -0.0050860946 0.0066680405 0.008749163 0.011401015 -0.0013871408 0.014361158 0.013337324
0.0027482498 0.0119472435 0.004296585 0.015963541 -0.011767704 0.00044183928 -0.004787731 0.020197315
0.010257081 0.0038035582 0.012529128 -0.00044666213 -0.015362852 0.018497763 0.02211106 0.0032396833
0.01730596 -0.007472771 0.0039931927 0.008128459 -0.019919861 0.006561327 -0.009474248 0.0039256727
0.017597733 -0.013192276 0.007374864 0.014884954 -0.015405745 0.0030349805 -0.013639897 0.012401048
-0.016421923 0.006662649 -0.017053034 -0.00078445906 7.6435404e-05 -0.0005216712 -0.00024691518 0.0044661458
0.015221224 -0.003772064 -0.006470257 -0.008512524 -0.01060452 0.0012876501 -0.00064812816 0.00781843

lstm.bias_ih_l0 f4 [200]
00000000: c47e 12bd 223b 88bb 2a26 36bc 3848 ca3b
00000010: d94e c53c 4319 693c 7b5e a0bc ba83 0dbc
00000020: 3885 ec3b b475 b3bb a7c5 7e3c 409a 4c3c
00000030: 7342 993c fb12 a7bc aacb 05bb 3931 33bc
00000040: cfad 2c3c 0d2f a03c 1343 0bbc 6b3c b9bc
00000050: cc50 80bc 308f 3f3c 70e3 baba 7afa 853b
00000060: 3acf 2a3c e2d9 42bc 42c6 c33c 0a01 fc3b
00000070: dca4 08bb d19a 903b 7833 7fbc e3cf ddbc
00000080: 665b 3f3a 735f 8b3c e770 abba 0fed 4e38
00000090: 1552 c5bc 7fe2 e1bb 3008 1f3d f41b 3bbc
000000a0: aab2 733c c723 2c3d 6c57 443d 7141 ea3c
000000b0: 7f68 19bc 1b2a eeba d47e 3dbc c725 6fbc
000000c0: 25bc 413c 1480 e5bc b25b 163c 19ce afbb
000000d0: ae10 c3bc 1948 16bc 9b9c 1c3d 8a79 3a3c
000000e0: a6b2 d4bc 6285 ceba 9d5f cc3a b52b c6bb
000000f0: 65fe 863c b48a 6d39 641c ccba 4c97 f3bc
00000100: 6ac5 01bc bef3 38bc 3cad 053c 8681 34bd
00000110: a41e d8bc f54a 46bd 7a73 31bc 8b94 e0bc
00000120: dd89 2abd 7596 9d3b 891e 813c bf81 21bd
00000130: 71ce b8bb e9c1 e33a 4809 e83a a84b 023c
00000140: c7ae a5bc 81b4 42bd 85e1 f23b d913 623c
00000150: 5f34 9c3a 0b15 a43c 30a2 923c 8d3d bcbc
00000160: b07d 393d 7c88 1fbc 38d8 46bd 5460 16bc
00000170: 23c0 5d3d 889f 4ebb 111e 973c 84a8 15bc
00000180: a101 9fbc b513 a5bc 7408 803c efc0 40bd
00000190: b6b4 33bd e8c8 483d 5401 643b 7670 11be
000001a0: cbcf 553d 13db 803d eb9a 913d 5cb6 95bc
000001b0: 54e8 cc3d 4fbc 1fbc cb7e a0bb 08df fdbc
000001c0: fe31 8bbd 6f3f 8abd 17b3 863d bb1d fa3d
000001d0: 501a e6bc 03f2 2c3c 72d7 1e3d c75b 97bd
000001e0: 67b1 0d3d 3999 d3bb 93d9 2f3d 79b8 5b3d
000001f0: 77f8 bcbb e462 55bd 7342 22bd 62c1 ed3d
00000200: 6834 9abd db98 723d 9e97 3f3d 03c8 f13c
00000210: 8214 9dbd 1f18 013d 7564 c4bc 37a7 113e
00000220: 5132 f43d 7022 d7bc 8949 4cbd c8a5 7d3d
00000230: dba0 a3bd 9ea1 f7bd 0c86 7bbd 4c12 a13d
00000240: 45d3 0cbd 5bfe e93d c5a9 86bc 22e0 403d
00000250: 8078 9b3d 012a 1ebd ef3b 0e3d 3917 5abc
00000260: 2ac1 243c 0472 763c fcb9 c33c c072 5c3c
00000270: cd2b 3cbc 64fb 8fbc b160 70ba 7b8e 28bc
00000280: 4150 3e3c 530e b33b b38b a03c fe42 15bd
00000290: 0ffa 86bb 920e 04bd 20f9 7b3b 12a6 2dbc
000002a0: 568c 17bd 135f 34bd 8666 3fbc 94a4 27bd
000002b0: f366 393c 476f d9ba 5cca 9f3b d2f7 843c
000002c0: 0543 d93c 7cb7 91bc 0a99 a63c 5dc4 9839
000002d0: 06be 63bc 4b8f 15bd 30c7 783d e9f1 213c
000002e0: c212 b6bb 52fd 133d fa31 2abd 4261 bb3b
000002f0: e14a 743d a1b4 6abc 0105 4bbd 161c 1b3c
00000300: dc8a a0bb 6772 663d 1e4d 493c 7e02 c5bc
00000310: aa51 05bb 886f 85bc 8363 bb3c a35c 4bbd
-0.035765424 -0.00415744 -0.011117497 0.00617316 0.024085449 0.014227214 -0.019576302 -0.008637363
0.0072180294 -0.005476678 0.015550054 0.012487948 0.018708443 -0.020394793 -0.0020415583 -0.010937029
0.010539486 0.019553686 -0.008499878 -0.022611817 -0.015663527 0.011691853 -0.0014258455 0.004088697
0.010425383 -0.011892768 0.023898248 0.0076905536 -0.0020850217 0.004412987 -0.015576236 -0.027076667
0.0007299691 0.017013287 -0.0013079912 4.9335005e-05 -0.024086991 -0.0068934555 0.038826168 -0.011420239
0.01487414 0.042026307 0.047934934 0.028595658 -0.009363293 -0.0018170507 -0.011565883 -0.014596409
0.011824642 -0.028015174 0.009177135 -0.005365145 -0.023811664 -0.009172463 0.038235288 0.011381516
-0.025964092 -0.0015756304 0.001559246 -0.0060476908 0.016478727 0.00022653752 -0.0015572426 -0.02973523
-0.007920602 -0.011288581 0.008158978 -0.044068836 -0.026381798 -0.04841133 -0.010830754 -0.02741458
-0.041635383 0.0048091956 0.01576163 -0.039430376 -0.005639844 0.0017376515 0.0017702961 0.007952608
-0.020224942 -0.047535423 0.007412138 0.013798677 0.0011917463 0.020029565 0.017899603 -0.022978568
0.04528588 -0.00973713 -0.048546046 -0.00917824 0.054138314 -0.0031528194 0.018446954 -0.009134416
-0.019409956 -0.020150999 0.01562903 -0.047058996 -0.04387351 0.049019724 0.003479083 -0.14203057
0.05220012 0.06291785 0.071096264 -0.018275432 0.100052506 -0.009749486 -0.0048979274 -0.030990139
-0.06796645 -0.0675038 0.065771274 0.12212702 -0.028088719 0.010555747 0.038779683 -0.07390552
0.034593012 -0.0064574745 0.042932104 0.053642724 -0.005766924 -0.052096263 -0.039614152 0.116091505
-0.07529527 0.059227806 0.046775453 0.029514318 -0.07669927 0.031517144 -0.023973683 0.14223944
0.119236596 -0.026261538 -0.049874816 0.06192568 -0.07989665 -0.12091373 -0.061407134 0.07864818
-0.03438117 0.114254676 -0.016438374 0.04708875 0.07591343 -0.038614277 0.034725126 -0.013311201
0.0100558195 0.015041832 0.023892395 0.013455093 -0.011485052 -0.017575927 -0.00091696816 -0.010287876
0.011615814 0.005464354 0.019597864 -0.03644084 -0.004119165 -0.032240458 0.003844805 -0.010598676
-0.03699907 -0.044035982 -0.011682158 -0.04092844 0.011316049 -0.0016588949 0.004876418 0.016231451
0.026521215 -0.017787687 0.020336647 0.00029138 -0.013900286 -0.036513608 0.060736835 0.009884336
-0.0055564353 0.036130257 -0.041551568 0.005718381 0.059641723 -0.014325292 -0.04956532 0.009467145
-0.004899366 0.056261446 0.012286453 -0.02404904 -0.0020342865 -0.016288534 0.0228746 -0.049648892

lstm.bias_hh_l0 f4 [200]
00000000: f67d 703b 1ed9 94bb 5efd d53c 3776 353c
00000010: e3f8 903c 8588 743c 5709 eebc f667 e3bb
00000020: 9b04 63b9 09a8 9cbb eecc 7e3c ba7d 4b3c
00000030: 45a3 b4bb b283 04bd debe acba 9249 1abc
00000040: a50f 383c 467b 713b 2a35 173b e09d 55bd
00000050: 96dd 8dbc 9de6 45bc 8554 b73a c8dc 833b
00000060: 2c3a 3f3c 9213 b93b 4ae7 033c 2a60 c5ba
00000070: 5ceb 3abd 7013 923b 6ac5 91bc 7303 18bd
00000080: 92d7 e93c 6e7c 8c3c a8e2 9bba 179b e43b
00000090: 3276 b03b f644 4abc 8d78 fb3c 8030 3dbc
000000a0: bdcb 25bd 1d14 003d 72ca 393d 2fc3 493d
000000b0: 52ce 153c bae1 b93b 9532 bfbb 4a28 6fbc
000000c0: 7800 e73c cf29 f5bc 3881 a9bc 1695 97bb
000000d0: a975 5abc bdaa abbb bc4e 333d 8807 233c
000000e0: 6a3e 16bd 5e00 cb39 7c96 8a3b f870 c8bb
000000f0: 50f5 863c 880b c039 2e8e c4bc e9ca afbc
00000100: b343 fdbb e305 bd3c 157d 003c 4503 ffbc
00000110: 2100 86bb 7dba 34bd efeb a7bc 45c2 d23c
00000120: 888f e0bc 18e7 a03b 078d 743c 55c1 09bd
00000130: ef36 99bb 9193 8d3b b29e 15bd 53ad 013c
00000140: 8b62 87bc 5b33 e2bc 1b00 053d 3b47 623c
00000150: 1994 9e3a b8e2 2f3c ff37 69bc cb23 52bc
00000160: 5b38 133d 83f1 27bc 7b49 11bc 4208 65bb
00000170: ac13 603d 70b6 c63b 64e6 183b 613f 31bd
00000180: cbe8 2dbc 961c a5bc 08df 013d 075f f0bc
00000190: 62f9 bb3d 4bc0 d1bc f49b ce3d 462a 823d
000001a0: 8c64 003c bc20 e93d 86ec f4bb 2585 183c
000001b0: f689 a1bd 3b9e 29bc 3f59 4a3b 5f3d 41bd
000001c0: 39ca d9bc 3643 bd3c 7bfc a9bc 4e46 c83d
000001d0: 0c42 93bc c6e2 e9bd c8dc cc3d 417a 343d
000001e0: 3350 e2bc 8ed4 8ebd a2a4 06be 85e8 93bc
000001f0: f7f3 dbbb 1b64 88bd 2c66 ac3d 1b16 903d
00000200: ee47 59bd 1cd2 d63c 6c90 c9bd 88d5 7e3c
00000210: 7c0c 903c ed7a 9abb ae9f 30bd 3b3b 7e3d
00000220: e47c 4ebd d75a ccbd 766c 7abd 8978 8fbd
00000230: 2628 cf3d 8453 dbbd eb02 d23d 000a b5bd
00000240: 5b2e 86bd 4fae 2f3c 0227 80bd d488 5e3d
00000250: 8f52 c6bd 6e8e 7a3d f1ba 31bc b689 373b
00000260: 8e72 59bb 830e ca3c b757 093d fdc8 4c3c
00000270: 32e8 9ebc 16ce 11bc bd0a 203c 82a2 a9bb
00000280: 21dd 3d3c e19c af3b 16ef adbb a4a4 d2bc
00000290: 0871 d6bb 69cc 9dbb fb54 713b 0707 25bd
000002a0: d73e 65bc 6131 75bc be02 91bc 4c29 653d
000002b0: cc80 303d 7e27 8bba 5aeb e73b d58e 023c
000002c0: 6abf 483b 29b4 d9bc 67e2 eabc 13ae 9a39
000002d0: 087b 78bc 469c 12bd 1f46 5c3d 5797 0c3c
000002e0: 02c3 a7bb 2b27 51bc 825e 3a3d 67bc 81bc
000002f0: 4d2f 083d eb83 91bc 7789 16bc 39fa b23c
00000300: 9086 c23c faa7 50ba b9d2 953c db61 853c
00000310: 5e4d 54bc 4d28 85bc 38d9 ca3c 899b 3fbd
0.0036696172 -0.004542484 0.026121791 0.011075548 0.017696803 0.014925127 -0.029057188 -0.0069398833
-0.00021650123 -0.0047807735 0.015551789 0.012420112 -0.0055126273 -0.032352157 -0.0013179441 -0.009416955
0.011234199 0.0036847158 0.002307246 -0.052152514 -0.017317574 -0.012078908 0.0013986981 0.004024122
0.011671584 0.005648085 0.008050749 -0.0015058566 -0.045634612 0.0044578835 -0.01779433 -0.037112664
0.028545175 0.017149176 -0.001189311 0.006976496 0.0053851837 -0.012345543 0.030697132 -0.011547208
-0.040477503 0.03126918 0.045359083 0.049258407 0.009143429 0.0056726607 -0.0058348873 -0.014597008
0.028198466 -0.029927162 -0.0206915 -0.0046259267 -0.013333716 -0.0052388594 0.04377626 0.009950526
-0.036680616 0.0003871945 0.004229365 -0.0061169825 0.016474396 0.00036629685 -0.023993578 -0.02145906
-0.0077290176 0.023074096 0.007842322 -0.031129489 -0.004089371 -0.04412316 -0.020498244 0.0257274
-0.027412191 0.004910361 0.014926202 -0.03363164 -0.004675738 0.00432057 -0.036528297 0.007914859
-0.016526481 -0.027612379 0.032470804 0.013810928 0.001209858 0.010735206 -0.014234542 -0.0128259165
0.035942417 -0.010250452 -0.008867617 -0.003494755 0.05470626 0.0060642287 0.0023330683 -0.043273333
-0.010614584 -0.020155232 0.03170684 -0.029342188 0.09178425 -0.025604388 0.100883394 0.06355719
0.007836472 0.11383197 -0.007474485 0.009309088 -0.07887642 -0.0103526665 0.0030875949 -0.04717767
-0.026585685 0.023103338 -0.020750275 0.097790346 -0.01797583 -0.11420207 0.10003048 0.044061903
-0.027626133 -0.06974135 -0.1314874 -0.01805521 -0.0067124325 -0.066597186 0.08417925 0.07035466
-0.053047113 0.026223235 -0.098419994 0.0155538395 0.017584078 -0.004714361 -0.043121032 0.062068205
-0.050412074 -0.09978264 -0.061138593 -0.07005412 0.101150796 -0.10709289 0.10254463 -0.08839798
-0.0655181 0.010722711 -0.0625744 0.05432971 -0.096837156 0.061170988 -0.010847793 0.0028005666
-0.0033179852 0.024665123 0.033530917 0.012499091 -0.019397829 -0.008899232 0.009768185 -0.005176843
0.011588366 0.0053592776 -0.0053080423 -0.025713272 -0.006544236 -0.0048156274 0.0036824334 -0.040289905
-0.013992033 -0.014965386 -0.017701503 0.055947587 0.04309158 -0.0010616628 0.0070776166 0.007968624
0.003063167 -0.026575165 -0.02867241 0.00029502864 -0.015166052 -0.035793565 0.05377781 0.008581004
-0.0051196823 -0.012765686 0.045500286 -0.015836908 0.033248235 -0.017763099 -0.009188048 0.021847831
0.023745805 -0.0007959601 0.018288957 0.016282013 -0.012957899 -0.016254568 0.024761781 -0.04677919

lstm.weight_ih_l0_reverse f4 [200, 12]
00000000: 1db1 753b 8608 dbbb 7207 48bc bcb6 eabb
00000010: 53d0 c73c ed6c aa3b 4d36 a7bc 3ba4 2f3d
00000020: bb7c eb3b bb87 25bc 8160 f13b a65a c33b
00000030: a6c7 3c3c 4217 353b f12f 54bb bd49 91bc
00000040: 4f15 e33b 54a8 b83c 193b 983c 5e42 f53b
00000050: 163e 7dba a2ad bcbc 68e3 ac3a 4165 a8bc
00000060: a579 f23a 6813 003c 9299 8f3c 205f a93c
00000070: caab e23b 3181 6dbb e11f cfbb 60b9 ba3c
00000080: f847 81bc 27d8 28bb 47f6 293c 6b4a a8bb
00000090: 5f37 013d b7fe 1ebd 55c5 f3bc 5f03 67bc
000000a0: d54e cbbc 4799 ce3c 0553 0bbd ac5d 823d
000000b0: 5860 9fbc c3fd 1cbd 99ec 9fbc 68be a3bc
000000c0: cd65 d33c 9eb5 debc 6b2a 31bd 9296 deba
000000d0: 6a34 09bd 352f b43d 6b3b e1bb 79a8 723d
000000e0: 080f 19bd 29cf 5cbd 8dd2 98bd ec5f 8e3b
000000f0: 0953 87bc b6e1 85bc 464c 83bc dc78 873c
00000100: e9a8 293c 8b92 ad3c 0516 00ba 6a0f c93c
00000110: 3d2d 18bd 2911 6ebc 39b3 41bc 1b7f 7abc
00000120: 4d9f 563c 9ebd c93c e9eb dd3c cdce 90bc
00000130: 2f30 b0ba 6062 22bc bf84 863a 2a67 733c
00000140: 85c9 b2bb 6c8e 58bb 04ab 1b3c 2f49 79bc
00000150: 22fd ad3c bcb9 dabc b023 e9bc 95ad a9bc
00000160: 2d9c 3b3c 29cc b33c af34 183d 2a25 0f3d
00000170: 7c45 afbb 6c3c e5bc d209 e6ba ff0b 78bc
00000180: 9242 9e3c 6d9a 613b 69ef c1bb 3fb0 68bd
00000190: da5f 79bc f91f 4f3d 769e dcbb c696 183d
000001a0: 4a66 11bc 0384 25bd e435 28bd 76ba 1c3c
000001b0: fbdd f8bb 0ebb f23a 2608 7ebc ee24 a439
000001c0: a95f 63bb c14a 473c 6a91 51bd 4e77 f13c
000001d0: 7d1c 0a3d 8182 76bc 9d81 7e3c e969 843c
000001e0: e86d a63c c357 f8ba 8a0d 073b ad2a 96bc
000001f0: df27 e0bb 709f 00bd 3e1a 91bc c521 15bd
00000200: aab2 aaba d7d2 233c 54ff df3c 4a08 033d
00000210: 2d2a 5cbc 9e54 70bc b3b9 5bbd ccd5 c03b
00000220: adb2 143d acd4 a63c 1ad6 c3bb a922 18bc
00000230: 6a87 b03b ca5d 0b3c 978a 78bc d9cc a0bb
00000240: 22e9 403a 3a4e 013c c462 d83b 2167 47b8
00000250: 3900 873c c62c b43b b4d7 a4bc dffa ac3a
00000260: f843 8b3b 410e 2cbc 9429 6cbb e085 913c
00000270: 35fa d2bc 8766 8a3b e85c 87bb 5b72 f1bc
00000280: 7fde babc b19a 153d 46bf 203c 8efb aabc
00000290: 7c55 073d 2848 c5bc 43d3 60bc 3beb f23c
000002a0: 18dd 91bb 6dd2 ebbb a942 62bb 56da 6a3c
000002b0: fe3f ccbc ac1b 583c 7961 a0b9 b929 5e3c
000002c0: b037 a5bc 55c9 babb 1c98 59bb d75a 2f3b
000002d0: 5d16 353b 992b 793b c91e e53b 9ef0 c7ba
000002e0: 50c0 9bbb 2e78 9e3a f4db 8e3c 50ba 4b3b
000002f0: 10a8 b1bb b7aa d3bb 0727 ea3b 5f23 a8ba
00000300: 0090 103b 7922 00bc e690 d4bc 555d 013c
00000310: 4089 8d3b d288 06bb e6ab cdbb 654a 913c
00000320: e964 09bc 872a a83c ad31 01bd 1463 053d
00000330: 9347 fc3b c7f0 943b 0ff5 3b3b 947d 92bc
00000340: c757 18bc 51ca 2f3c 193a b7bc dc04 f03c
00000350: 188e fe39 41c3 61bc 8978 bebb 69ab 5e3c
00000360: 943d a23b a794 e73c e1f6 023d bee7 5dbc
00000370: 4f8d cf3b cccc 80bc 78a9 6d3d a60f dcbc
00000380: b1c6 fcbb 9bb5 5d3b fc86 b1ba 5e8a a8bc
00000390: 628c 063d 2645 f0bb 3d13 65bc 5c08 58bd
000003a0: 3be9 8fbc 8d64 973d 1b66 58bb 2c0d e93c
000003b0: d058 5fbc 6ee6 2ebd 9771 84bd 556f f13b
000003c0: fe63 97bb 1f03 c7bb 6402 be3a c7db 243d
000003d0: df13 19b8 4511 92bc 0b94 94bc 2c47 3d3c
000003e0: bc5a d6bc 0346 863b 8221 9d3c f21c 863a
000003f0: d6f0 d53a 8bda 25bb 25a8 eabb e4fe bdbc
0.00374896 -0.0066843657 -0.012208806 -0.007162897 0.024391329 0.0052009732 -0.020411635 0.04288123
0.0071865 -0.010103161 0.0073662405 0.005961734 0.011522209 0.002763227 -0.0032377208 -0.017735356
0.0069300304 0.022541203 0.018582867 0.007484718 -0.00096604356 -0.023032013 0.0013190331 -0.020556094
0.0018499388 0.007817127 0.017529283 0.020675242 0.0069174515 -0.0036240334 -0.006320939 0.022793472
-0.015781388 -0.0025763602 0.0103736585 -0.0051358244 0.031546947 -0.038817134 -0.029757181 -0.014099925
-0.024817863 0.025219573 -0.03401472 0.06365523 -0.01945512 -0.038327944 -0.019521998 -0.019988254
0.025805378 -0.027186211 -0.043253344 -0.0016982129 -0.03349725 0.087980665 -0.0068735383 0.0592427
-0.03736785 -0.0539085 -0.074620344 0.004344931 -0.016519086 -0.016342979 -0.016027581 0.016537122
0.010355213 0.021188041 -0.00048860937 0.024543483 -0.037152518 -0.0145304585 -0.011822515 -0.015289093
0.013099504 0.02462655 0.02709003 -0.017676735 -0.0013442094 -0.00991115 0.001026295 0.014856139
-0.005456152 -0.0033043874 0.0095012225 -0.015215202 0.021238867 -0.026699893 -0.0284594 -0.020712653
0.011450809 0.021947937 0.037159618 0.03494755 -0.0053488594 -0.027982913 -0.0017550534 -0.015139579
0.019318853 0.003442432 -0.0059184325 -0.056808706 -0.015220607 0.0505676 -0.006732757 0.037253164
-0.008874485 -0.0404091 -0.04106702 0.00956594 -0.0075948215 0.0018518881 -0.015504872 0.00031308032
-0.003469447 0.012163819 -0.05116407 0.029475834 0.033718575 -0.015045763 0.015533832 0.016163783
0.02031608 -0.0018947053 0.0020607435 -0.018330896 -0.0068406905 -0.03140205 -0.017712709 -0.03640916
-0.0013023217 0.009998999 0.02734343 0.031990327 -0.01343779 -0.014668612 -0.053643893 0.0058848616
0.03630321 0.020365082 -0.0059764506 -0.009285607 0.0053872364 0.008506248 -0.015169761 -0.0049072322
0.0007358958 0.007892186 0.0066035707 -4.7541344e-05 0.016479598 0.0054985015 -0.020122387 0.0013197324
0.004250046 -0.010501445 -0.0036035525 0.017764032 -0.025754074 0.004223648 -0.0041309483 -0.029473474
-0.022811173 0.03652448 0.009811228 -0.020871904 0.03304051 -0.024082258 -0.013722244 0.029653182
-0.0044514053 -0.0071967156 -0.0034524596 0.014334282 -0.024932858 0.013190191 -0.000305902 0.013559752
-0.020168155 -0.00570027 -0.0033202237 0.0026757026 0.0027631738 0.003802037 0.0069921953 -0.0015254205
-0.00475315 0.001209026 0.017438866 0.0031086393 -0.005421646 -0.00645956 0.0071457657 -0.0012827924
0.0022058487 -0.007820719 -0.025948 0.007895787 0.00431934 -0.0020528329 -0.0062765954 0.01773567
-0.008385875 0.020528091 -0.031541515 0.03256519 0.007698962 0.0045453045 0.0028680002 -0.017882146
-0.0092982715 0.010729388 -0.02236657 0.029299192 0.00048552523 -0.013779462 -0.0058127088 0.013590672
0.0049511883 0.028269125 0.031973723 -0.013544021 0.006333984 -0.015722655 0.058022946 -0.02686293
-0.0077141155 0.003383017 -0.0013544257 -0.020573791 0.032848723 -0.007332462 -0.013981638 -0.052742347
-0.017567268 0.073922254 -0.0033019844 0.028448664 -0.013632014 -0.042700224 -0.06466978 0.007368008
-0.0046200743 -0.00607337 0.0014496562 0.04024866 -3.649655e-05 -0.0178305 -0.018136999 0.011552613
-0.026166312 0.0040977015 0.019181017 0.0010232015 0.0016322385 -0.0025307264 -0.0071611577 -0.02319283

lstm.weight_hh_l0_reverse f4 [200, 50]
00000000: c280 e23b 2e69 ce3b 8a8e 1bbc 7c06 38bc
00000010: 28de 8ebc 2cf9 47bc e86c 1c3c 1d63 d13b
00000020: 6034 aabc b472 18bc 8e40 d6bb 1997 7cba
00000030: dc4c 64b9 7151 123c 6d51 37bb ecf6 24bc
00000040: 67fe ed3a 58c3 3cbc 9d4b 3a3c 439d a9bc
00000050: e446 ccbb 55db 773c 1ef3 b93b aaf6 3abc
00000060: dcd4 d2bb 0dbc cabc 86df 25bc e0a4 663b
00000070: c4f4 2e3a 9507 303b 755f 92bb 5230 5c3c
00000080: 6515 893b f716 8f3b e525 1fba 0385 e43b
00000090: e0ba 90bb c5d2 a43b 6155 b5bb 2473 0e3c
000000a0: 5a5c a83b 51f8 763b 84c4 0abc fc2c 78bb
000000b0: a9e8 c73b bbbd 33bc 7e14 87ba 76e0 153c
000000c0: 0cc6 ea3b 59f2 82bb cb44 f8bb f9cf 3e39
000000d0: 4453 363c d1ce 693c ba7f 343c 2247 b53c
000000e0: 280d 43bc 8124 0b3c 0138 303c 98dc 4e3b
000000f0: 40a9 f73b 72bc f1bb c0d3 1c3a 05bc 02bc
00000100: 3e7c 6b3c 2566 9d3a 1026 e4bb 52b6 3c3c
00000110: 959f 95bb 45b9 2d3c 52cf 893c 9d30 77bc
00000120: 575d b8bb 3d14 373c e344 b63c db4f 34bc
00000130: 6632 353c d468 49bc cd20 78bc 7687 6fbb
00000140: 63db c83b 07c1 2bbc 5ba6 83bc 4adf 70bc
00000150: 3964 273c 2bcd c83c 091f fa3b d49d 01bc
00000160: e294 333c 72eb 0dbd d8e0 b1bb 16bc 0c3a
00000170: 2bc4 433c 8433 573c 159e 733a 5857 7e3c
00000180: d1a4 0cbc 30c2 2a3b 7fda 68bc 1a55 943c
00000190: 4b24 1abc 96c7 22bc 4b36 433c 40f8 cbb9
000001a0: 1708 4ebb 3fa9 463c bb03 33bc d823 823c
000001b0: 6989 c63b a260 493c b051 793c 9c24 883b
000001c0: 808a 2e3c 6ab3 31bc f825 3a3b 388b 173b
000001d0: 43aa 15bc 8089 573c adc9 32bc 331b 413b
000001e0: 121d 693c 3976 5bbb c754 54bc 5968 013c
000001f0: cea8 323c 11c8 82bc a823 3f3c aa1d 87bc
00000200: 9903 56bc a32d aebb 8443 4a3c 53fe d8bb
00000210: 6ef5 adbb 8cd4 04bc 5da7 1c3c 9a07 453c
00000220: 63ee b13b ae40 61bc 1f13 b23a 6fc8 9fbc
00000230: 56a7 55bc 6208 73b8 02f5 8f3b df85 303c
00000240: d6cc 5abb d51c 663c fe61 25bc 9f8d faba
00000250: c8de 4abc 07b9 063c 2fee 7b3c fd32 1c3c
00000260: 21e3 4dbb cc14 51bc 05bc 01bc 876a 8a3c
00000270: d427 d0b9 b845 dd3b 93d6 65bc afee 8fbc
00000280: 3381 73bc 7184 063c f3c0 86bc ccff 683c
00000290: 5654 ecbb d633 42bc 71f9 1b3c 47b2 5cbc
000002a0: efad 0e3c 53bc 87bc a67e ae3b a9e4 783c
000002b0: 9c46 8a3c 3c5d 7cbc c329 833c 2cbb 9dbc
000002c0: 52b0 51bc c837 b53b 5ba6 54bc 756a 88bb
000002d0: 3c2e 51bc 9a4b 633c f4e0 d43a 9457 6e3b
000002e0: ef0c c9bb 476b e53b 4d68 10bc 47df f43b
000002f0: 8931 8fbb c41e 19bc 0663 6f3c daa5 48bb
00000300: b315 19bc 6ae4 9d3b 34a9 753c f86b 2cbc
00000310: b108 923b f54a 1f3c 4214 5dbb c373 c23b
00000320: e5fc 5b3c 9e29 a13b f094 153b 807e a2bb
00000330: c06e 4bba 58bd 2dbb ee19 8bba 3f93 d6bb
00000340: 13f5 033a 6e8b 8bbb b1f0 59bc a2e1 fb3b
00000350: 4725 1ebc 5888 523c e03d 01bb f82b 003b
00000360: 4744 fe3b b346 7ebb 011d acb9 d04c 50bb
00000370: 67cd 9a3b 16fd bd3b 7c6a 703c 2723 fcbb
00000380: be12 003c 0d47 f43b 716e 1dbc d2b5 843c
00000390: 2fe7 4aba aba1 eabb 3524 09bc 53b1 dbb9
000003a0: 9477 9e3b e73d ef3b c5b9 9abb 049d aa3a
000003b0: c968 feba d0c3 8f3b 9484 243b 7706 97b9
000003c0: 0890 1b3c 6015 aebb 4cd7 1fbc ca79 09bb
000003d0: a61a a6bb fa40 11bc 23a5 8a3b 0f27 123c
000003e0: f71a 54bb e592 513b 60ae 4fbb 90dc 3e3c
000003f0: 2f36 a7bb 9e26 033c 4d46 373c a3ee 253c
0.006912322 0.0062991595 -0.009494433 -0.011232015 -0.017439917 -0.012205403 0.00954745 0.006389989
-0.020776927 -0.009304691 -0.0065384572 -0.00096355524 -0.00021772407 0.00893055 -0.0027972118 -0.010068636
0.0018157483 -0.011521183 0.011370567 -0.020704871 -0.0062340368 0.015127976 0.005674734 -0.011411348
-0.006434066 -0.024747873 -0.010124093 0.0035193488 0.0006674046 0.0026859988 -0.004466946 0.013439255
0.0041834586 0.0043667513 -0.00060710154 0.006973864 -0.0044168085 0.0050300085 -0.0055338596 0.008694444
0.0051379623 0.003768463 -0.008469705 -0.003786861 0.0061007333 -0.010970528 -0.001030579 0.009147754
0.0071647223 -0.0039961752 -0.00757656 0.00018197288 0.0111282505 0.0142705 0.0110167805 0.022128645
-0.011904992 0.00849259 0.01075554 0.003156459 0.007558018 -0.0073772008 0.0005982481 -0.007979398
0.014372883 0.0012008591 -0.006962545 0.011518078 -0.004566143 0.010603254 0.01682249 -0.015087274
-0.0056263614 0.011174259 0.022249645 -0.011005367 0.011059379 -0.012293059 -0.015144539 -0.0036549247
0.0061296686 -0.010483033 -0.016070535 -0.014701674 0.010216766 0.024511894 0.007633094 -0.007911164
0.010960789 -0.034648366 -0.005428415 0.0005368603 0.011948626 0.013134841 0.00092932704 0.015523754
-0.008584217 0.0026055686 -0.01421225 0.018106986 -0.009408067 -0.00993528 0.0119148 -0.00038904138
-0.0031437927 0.012125312 -0.010926182 0.015886232 0.006058861 0.012291105 0.01521723 0.004154755
0.010653138 -0.010845998 0.0028403979 0.0023123752 -0.009134832 0.013155341 -0.010912341 0.0029465675
0.014228122 -0.0033487214 -0.012959666 0.007898414 0.010904504 -0.01596454 0.011666216 -0.016493637
-0.013062381 -0.005315499 0.012345199 -0.0066221147 -0.0053087985 -0.008107316 0.009561387 0.012025738
0.0054300292 -0.013748331 0.0013586021 -0.019504754 -0.013040384 -5.7943522e-05 0.004393221 0.010774105
-0.0033386252 0.01404496 -0.010094164 -0.0019115693 -0.012382217 0.008222825 0.015376612 0.009533641
-0.0031415897 -0.012761306 -0.0079183625 0.0168965 -0.00039702526 0.006752696 -0.014028209 -0.017569868
-0.014862346 0.008210287 -0.016449427 0.014221143 -0.007212202 -0.011853179 0.009519921 -0.013470239
0.008708461 -0.016569292 0.0053251563 0.015191236 0.016879372 -0.015403088 0.016011124 -0.01925429
-0.012798386 0.0055303313 -0.012979115 -0.0041630813 -0.012767371 0.013873005 0.0016241358 0.0036368119
-0.006135575 0.007001314 -0.00881393 0.007472906 -0.0043699187 -0.009345714 0.014611011 -0.0030616433
-0.009343552 0.004818489 0.014993954 -0.010523789 0.0044566025 0.009722461 -0.0033733998 0.00593421
0.013426994 0.0049182912 0.002282437 -0.0049589276 -0.00077603385 -0.0026510563 -0.0010612586 -0.006548315
0.00050337723 -0.0042585647 -0.013302014 0.0076868096 -0.009652442 0.01284989 -0.0019720718 0.0019557457
0.007759604 -0.0038799464 -0.00032828006 -0.0031784065 0.004724193 0.0057979925 0.014673825 -0.00769462
0.0078169685 0.007454759 -0.009608851 0.01619998 -0.00077401375 -0.0071603856 -0.008370449 -0.00041903052
0.004836032 0.0073010805 -0.0047218525 0.0013016765 -0.001940989 0.0043873563 0.0025103437 -0.0002880578
0.009494789 -0.0053126067 -0.009755921 -0.0020977133 -0.0050690947 -0.008865589 0.0042311116 0.008920445
-0.0032364705 0.0031978425 -0.003168963 0.011649266 -0.0051028947 0.0080048125 0.011186195 0.010127696

lstm.bias_ih_l0_reverse f4 [200]
00000000: c06f 713b 0d2c 963c 5b2c b9bc 75f1 5d3d
00000010: be5d 293c b05f a63a fd79 b5bc 951f ab3c
00000020: 5324 a73c 113d 213c 91f5 8f3c 8570 993b
00000030: 3208 9bbc 9072 f0bc 0855 8ab9 15df 2bbc
00000040: e687 1a3d 827f c8ba 0a2f cfbc 71b4 d53c
00000050: 3c2e 74bc b3bc 633c 287b 6d3b 7816 a23b
00000060: 339b 243c 28b2 0b3d 31d1 8abc 03ba f93c
00000070: 544f 073b 3b84 a0bc bf5c c1bb a338 073a
00000080: 7d93 52bb 28ae a03a a8cc bcbc 4437 013d
00000090: 15e3 2c3c 3bb8 4cbc d2d0 b23b 7b64 2d3d
000000a0: 12f1 d13c e7f9 5cbc 6258 133d c1b7 73bc
000000b0: 70a8 f7ba 98c0 1abd 1bc1 21bc b6ff 27bc
000000c0: 9a69 94bc 03f3 153a 50bf 3f3c 0a01 f4bb
000000d0: 1dcd 12bd 85fe 2f3c eee2 9e3c d0e1 033b
000000e0: 350c 06bd 25a0 723b 3739 253c b391 f23c
000000f0: 1f1f 003d b642 a0bc 48df 8f3b f92d d13c
00000100: 38f4 7dbc d129 25bc 2507 d8bc 7d0e 78bb
00000110: 3fee ee3b 6611 193c 1a44 24bd f22c 603c
00000120: c551 b23a 0ccd 783b 462c f73b 9391 d13c
00000130: 7ccc 643b 5341 01bd 5f35 c9bb dcd1 3abd
00000140: 6187 b5bc 1357 a3bc f0b6 8bbc a463 5039
00000150: 9a2c f5bc c8f6 bd3c 4857 b23b 564a 3fbd
00000160: 4834 e0bb c1ac 243d c0be 043b 72a2 fbbc
00000170: 448c 2c3c 9086 9cbc 461d 9a3c 7fd1 d83c
00000180: c05d 0dbc 951c 1ebd 47b4 1fbd 9ffc d3ba
00000190: 6ce7 9f3d 4f01 603c c4ad 96bd bdc0 efbb
000001a0: 6729 c33c fc17 943d ef96 6dbd 28e9 9abc
000001b0: c459 863d dc89 d5bc 50c3 96bc 69e1 e7bc
000001c0: 7106 793d d480 b1bd 9d19 aa3d 3077 433d
000001d0: 30c7 4abe 91f6 d0bb ad97 dc3d c5a2 5c3d
000001e0: f986 17bd 68a8 043d 506a 0f3e 9ca3 873b
000001f0: 562c d53c 2bd7 c43d 92b2 73bd c377 d23d
00000200: 632b dfbc b2b3 91bd b783 193a f95d 7f3c
00000210: 177c 0dbd c587 6d3d dd62 f23c 840f 933d
00000220: 1b53 a83d 81ae 183d 0616 8bbd f35f cc3c
00000230: af6a e43b 29bc 38bb 7704 ab3c 02d9 00bd
00000240: a53e 103d 44e2 1bbc 9f2a 053d 2eaa 1b3d
00000250: 30ce aa3d 4c52 5cbc ee87 4339 3304 203b
00000260: e537 09bd 0b5e b03d 1b6d 2c3d e7c9 bf3b
00000270: 8a86 bfbc b58b 953c 7ade a23c c382 123d
00000280: 5174 04bc 5e93 9dbc 1504 103c f527 533d
00000290: 7577 d6bb 9a29 83bc 97e9 633d 4c2d c3bb
000002a0: 3103 983b ae77 15bb 80af 64bc d403 183c
000002b0: 45f7 403d dfb3 c93a 20de 063c b25c 113d
000002c0: 8c5b ca3c c9d2 0d3c 7b9f e63a e161 8cb7
000002d0: 9fd8 8ebc 5a71 a8bc b88e 2ebb 3571 093b
000002e0: 5918 b8bc 4d04 9c3c 11cd d8bc 1cfa c83c
000002f0: 978a 833a 798f 383d 1e5c c53b 5802 99bc
00000300: fe2c d4bb f39c 7cbc a4c8 dcbc c6c1 c9bc
00000310: c5ed 42bc 6c67 0bbc 9022 8abc de96 9fba
0.003684029 0.018331552 -0.022604158 0.05418535 0.010337291 0.0012693312 -0.022152895 0.020889083
0.020403063 0.0098412195 0.01757315 0.004682603 -0.018924806 -0.029351503 -0.00026384764 -0.010490199
0.03772726 -0.0015296789 -0.025290985 0.026087018 -0.014903601 0.01389997 0.0036236737 0.004946526
0.010046768 0.03410545 -0.016945453 0.030484205 0.0020646648 -0.019594302 -0.005900949 0.0005158281
-0.0032131367 0.0012258934 -0.023046806 0.031546846 0.010552187 -0.012495096 0.005457022 0.042332154
0.025627647 -0.013487316 0.03597296 -0.014875353 -0.0018894803 -0.037781328 -0.0098727 -0.010253837
-0.018116761 0.00057201105 0.011703327 -0.007446413 -0.035840143 0.0107418345 0.019395318 0.0020123608
-0.032726485 0.0037021723 0.010084442 0.02961049 0.03127968 -0.01956306 0.004390631 0.025534617
-0.015500121 -0.010080771 -0.026370594 -0.0037850433 0.0072915847 0.009342527 -0.04010401 0.013682591
0.0013604691 0.0037964014 0.0075431196 0.02558211 0.0034911921 -0.03155644 -0.0061403955 -0.045610294
-0.02215928 -0.019938981 -0.017055005 0.00019873545 -0.029928494 0.023188964 0.0054425336 -0.04670175
-0.00684217 0.040203813 0.0020255297 -0.030717108 0.010531489 -0.019107133 0.018812787 0.026467083
-0.008628309 -0.038601477 -0.038990285 -0.0016173309 0.07807812 0.013672187 -0.07357362 -0.0073166774
0.023823453 0.07231137 -0.05800527 -0.018910006 0.0656009 -0.026066713 -0.01840368 -0.028305726
0.06079716 -0.0866715 0.083056666 0.047721088 -0.19802547 -0.0063770493 0.10771117 0.053866167
-0.036993954 0.032387167 0.14005399 0.004139377 0.026022118 0.096113525 -0.05949647 0.10276749
-0.027242368 -0.07114352 0.0005856114 0.01558637 -0.03454217 0.057990808 0.029588157 0.07180694
0.08218976 0.037275795 -0.0679131 0.024948096 0.0069707255 -0.0028188324 0.020876152 -0.031456955
0.035215992 -0.009514395 0.03251135 0.038004093 0.083401084 -0.0134473555 0.00018647287 0.0024416565
-0.03350057 0.08611687 0.04209624 0.005852926 -0.023379583 0.018255094 0.019881476 0.035769235
-0.008084373 -0.01923531 0.008790036 0.051551778 -0.006545002 -0.016011048 0.05564269 -0.0059563275
0.0046390523 -0.002280693 -0.013957858 0.009278256 0.047110815 0.0015388689 0.00823167 0.03548879
0.024701856 0.008656212 0.0017595136 -1.6734879e-05 -0.017437277 -0.020561863 -0.002663536 0.0020972018
-0.022472547 0.01904502 -0.02646497 0.024533324 0.001003581 0.0450587 0.006022944 -0.018677875
-0.00647509 -0.015418279 -0.026951142 -0.024628531 -0.011897509 -0.008508544 -0.016862184 -0.0012175699

lstm.bias_hh_l0_reverse f4 [200]
00000000: c66d b93b 60b2 2aba 8f8c 4ebc 676b 883d
00000010: 378b 1e3d ed3d a33b c063 b4bc dd22 ab3c
00000020: c110 b33c ca4f 4abb 6ba8 92bb 84bb 653c
00000030: afa8 bdbc 2fc7 333d 263f 1e3a fbe0 3bbc
00000040: 5418 d9bc 9012 daba c5a4 3abc f454 3b3c
00000050: 0b4b 5ebc 1bed 633c 3b93 4c3d 3f49 ad3b
00000060: c8a7 243c 3d92 0c3d 2bea 2dba 0a1d 8ebb
00000070: 3f51 073b c43a 65b9 72eb 42bc d4c6 25ba
00000080: 804e 10bb e1c2 a03a f1b8 16bd c881 fb3c
00000090: 3fcf 1a3c 893d a5bc 06cc f73b 919b 323d
000000a0: c0ce 0cbd bb01 dbba b295 d5bb 228f 73bc
000000b0: f9d2 b4bc 6808 7abc 794e 23bc af49 10bc
000000c0: 3d0e e7bb 817a 133a f2f1 773c b8bc 92bc
000000d0: d45d 32bd 6adc a8bb b329 0fbc 0fa7 98ba
000000e0: 832b 0ebd e81e 783b 25bb 423c 82f2 64bc
000000f0: 1e33 01bc 0806 8bbc 2c31 843b 4a1f cf3c
00000100: 39e7 18bc f68f 25bc 848b a7bc db94 a0bb
00000110: 8bc8 f8bc 0649 863b bdc8 16bd 0cc8 5d3c
00000120: c349 08bd b4f5 783b c8dc f63b 0cc1 d03c
00000130: 1ec6 b8bb 598b 08bc a87d c9bb 01dc 09bd
00000140: 692c babc d286 1dbb a325 96bc ba02 2b39
00000150: 294a 97bb 8f1c b13c 3013 a23b 00ff 61bd
00000160: a809 3bbc c5fc 253d c7ad 503c 7248 e0bc
00000170: 3869 323c 4e0b 9dbc 7391 8739 aa8f 5c3d
00000180: 1935 0fbc b2b2 39bd 11df 10bd 0a2d d4ba
00000190: 8665 653d 61f0 fcbb ee7a 153d cb43 073d
000001a0: 7ac0 d33d 6001 083b d906 aa3c 1eef f5bd
000001b0: 6f8c 743d dc8a 283c 8407 c5bc 50a2 67bc
000001c0: 9433 f0bd 3696 97bd eec7 043d 61d8 32bd
000001d0: a354 063d 27ee 9ebd 695a 1f3b a8dc b53d
000001e0: 66c2 6dbd 2d51 a6bc 5140 b43d 5494 1dbd
000001f0: 3534 d73b 7136 963d c51d 023e 1b33 303d
00000200: 2ede 1c3d d0e5 11bd e8c0 9cbd 8680 81bc
00000210: b617 09bd e20d 1b3d 80b2 9bba 2989 983d
00000220: bacc 803d d98e 6c3c 0285 d43d fd26 f2bc
00000230: a29b 1ebd 2018 dfbd dc59 a13d a1d7 b0bc
00000240: 2a88 d63c 26a4 8e3c 2131 ed3c 6285 a43d
00000250: ed4b 203d 42d7 623c 9973 143c c38c ac3b
00000260: 06ee 0fbd 50c6 403d c563 3fbc 16b0 763b
00000270: 9473 eebc 85a8 7f3c 3198 593c 9e72 283c
00000280: 68ec 063d 6f6e 57bc fd77 cabc 19de d3bb
00000290: c3e8 4ebc 067f 37bc 1ff3 c83a 1411 e4bb
000002a0: 6501 08bd 33a9 b93c a4a0 68bc 2850 0f3c
000002b0: ca3b 393c b9d6 203b 8825 083c aa25 113d
000002c0: 3b0c 203c 0077 183c fcf0 e63a e695 d13c
000002d0: b501 64bc 4e7d 60bb 13d0 d7ba 867e 8b3a
000002e0: 4ca7 0dbc 3645 be3c 28ab 0abd 7d8c d1bc
000002f0: 7801 8b3b ae86 303d 1d60 02bd 1ca6 b6bc
00000300: f500 9b3c 907a 7dbc e93b 4e3c b2d7 d73c
00000310: f1b6 3ebc 662c b9bc 3fb5 a6bc b51c 91ba
0.005658838 -0.00065115653 -0.012606754 0.0666111 0.038706984 0.0049817474 -0.02202022 0.020890648
0.021858575 -0.0030870312 -0.0044756434 0.014021758 -0.023151724 0.04389113 0.00060366315 -0.011467214
-0.026500858 -0.0016637612 -0.011391823 0.011433829 -0.013567696 0.013911511 0.049945097 0.0052882726
0.010049768 0.03431915 -0.000663432 -0.004336958 0.0020647792 -0.00021861034 -0.011896955 -0.0006323878
-0.0022019446 0.001226511 -0.036797468 0.030701533 0.009448825 -0.020170944 0.0075621633 0.04360539
-0.03437686 -0.001670889 -0.006518089 -0.0148656685 -0.022073256 -0.015260793 -0.00996744 -0.00880663
-0.007051258 0.00056258595 0.015133368 -0.017912254 -0.043546513 -0.0051532285 -0.008737969 -0.0011646467
-0.034709465 0.0037860218 0.011885439 -0.013973834 -0.007885722 -0.01697065 0.004034182 0.025283474
-0.0093324715 -0.010105124 -0.020452268 -0.0049005575 -0.030369064 0.0040980605 -0.036812533 0.013536464
-0.03327347 0.0037988247 0.0075336434 0.025482677 -0.005638852 -0.008334004 -0.0061490126 -0.033657078
-0.022726255 -0.0024036658 -0.018328493 0.00016308847 -0.004616995 0.021620063 0.004946135 -0.055174828
-0.011415876 0.040524263 0.012736744 -0.027378295 0.010889344 -0.01917043 0.00025857575 0.053847946
-0.008740687 -0.045336433 -0.035368983 -0.0016187739 0.056005023 -0.007719085 0.036494188 0.033023637
0.10339446 0.0020752773 0.020755218 -0.120084986 0.05970424 0.010287013 -0.024051435 -0.014137819
-0.11728588 -0.07401697 0.03241723 -0.043663386 0.03279556 -0.07760268 0.0024315363 0.088799775
-0.05804672 -0.02030238 0.0880133 -0.038471535 0.006567503 0.073346026 0.12706669 0.043017488
0.038297825 -0.035619557 -0.076539814 -0.015808355 -0.033469878 0.037855037 -0.0011878759 0.07448036
0.062890485 0.014438354 0.10376932 -0.029559607 -0.03872264 -0.10893273 0.078784674 -0.021587195
0.026187975 0.017412256 0.02895409 0.08033253 0.03913491 0.013845267 0.009060764 0.0052658035
-0.035139106 0.047064126 -0.011681502 0.0037641576 -0.029107846 0.015604143 0.013280914 0.010281233
0.0329403 -0.013148888 -0.024715418 -0.006465685 -0.012628737 -0.011199718 0.0015331245 -0.0069600437
-0.033204455 0.022663688 -0.014198456 0.008747138 0.011305759 0.0024542047 0.008309729 0.03543631
0.009768541 0.009305716 0.0017619426 0.025584172 -0.013916423 -0.0034254375 -0.0016465209 0.0010642565
-0.008645844 0.023226362 -0.033854634 -0.025579685 0.0042421184 0.04309719 -0.031829942 -0.022296004
0.018921355 -0.015471116 0.012587526 0.026347969 -0.011640296 -0.022604179 -0.020350097 -0.0011071177

linear.weight f4 [1, 100]
00000000: 14d9 c5bd 67de 6fbd 6837 efbd 0403 b33d
00000010: 5395 8a3d 4f72 5bbd 7229 89bd c863 bcbb
00000020: 6eab 3a3d f2ca 023d 7016 6abc 52e5 593d
00000030: 4a57 833d f479 c7bc 4598 65bd ebb4 6d3d
00000040: f79a 0c3d 17ce e43d 9aec b33d dcde 823d
00000050: 4216 413d 025e da3d 1cac 073e c3f0 8a3b
00000060: e943 5c3d 9a9a a13d 4a88 bcbd fc0a 8fbd
00000070: d844 03be 0ffd 26bb af7e ac3c b6c7 25bd
00000080: f5aa 073e d33c 4bbd 01ab b43c 4278 e5bc
00000090: 4188 d7bd 5714 a13d a305 84bd 0e37 dc3c
000000a0: 596d d53d 54e3 073e bae4 e9bd 5a76 febd
000000b0: 61d7 903d c376 9bbd acdd cf3c f8ea 16bd
000000c0: e0aa 833d d6a2 8d3d 8c89 ab3d 49e1 47bd
000000d0: 6c1d 713d b602 11be fdb5 c5bd 6018 263a
000000e0: 34d8 0cbd 0e04 6d3d c1a2 bcbd d1a6 01be
000000f0: 416a 8bbd d5b7 db3d c303 8ebd 7ad6 e93d
00000100: 597d 7fbd a94a 953c 3fb5 053e c72f 2abb
00000110: b5ca 69bd 13d1 d2bd fb33 7a3d af32 1a3a
00000120: 751f aebd 658a 54bd 1825 59bc 1f68 5abd
00000130: e52c 5bbd 5ff7 ecbd e344 50bc ba2e b43d
00000140: c051 653d 9469 e63d 9217 7f3d 528e b2bc
00000150: 4639 88bd 1f0c 9abd 2e45 93bd aa41 a4bd
00000160: 4618 80bd 5c52 7c3d bb00 8c3d c680 883d
00000170: f771 9abd 3b8e bd3c f672 da3d 53bd 07be
00000180: 8b11 0d3d 7857 aabd 514a 4ebd 71e9 4abc
-0.09660545 -0.05856171 -0.1168049 0.087408096 0.067667626 -0.05357581 -0.06697358 -0.0057491995
0.045573644 0.031931825 -0.014287576 0.053197213 0.064131334 -0.024350144 -0.05605342 0.058033865
0.034327473 0.11172121 0.087853625 0.06390163 0.047140367 0.10662462 0.13249248 0.004240127
0.0537757 0.07890816 -0.092056826 -0.06984517 -0.1281923 -0.0025480425 0.021056501 -0.040473662
0.13248809 -0.049618553 0.022054197 -0.028011445 -0.10524035 0.07865208 -0.064463876 0.02688172
0.10421247 0.13270313 -0.11420579 -0.124249175 0.0707233 -0.075910114 0.025374256 -0.036845177
0.06429076 0.06915824 0.08375844 -0.048798833 0.05886595 -0.1416119 -0.09653852 0.00063360296
-0.034385875 0.057865195 -0.0921073 -0.12661292 -0.06807376 0.107284226 -0.06934311 0.11417861
-0.0623754 0.018224077 0.13057421 -0.002596842 -0.057078082 -0.10293784 0.06108473 0.0005882186
-0.08502094 -0.051889796 -0.013253473 -0.053321954 -0.05350961 -0.1157062 -0.012711736 0.08797975
0.055986166 0.11250606 0.062278338 -0.02179638 -0.06651549 -0.07521843 -0.07190929 -0.08020337
-0.0625463 0.06160198 0.06836077 0.066651866 -0.07541268 0.02313911 0.10666458 -0.13255815
0.03444056 -0.083174646 -0.050363842 -0.012384758
