Model/LSTM/LSTM_model.pt (torch, 191273 bytes, 5 tensors)

lstm.weight_ih_l0 f4 [400, 16]
0	0xbf3fd379	-0.74932057
1	0xbf58162e	-0.84408844
2	0xbf46e695	-0.7769559
3	0xbf28a54b	-0.6587722
4	0xbf266a72	-0.6500617
5	0xbf561c07	-0.83636516
6	0xbf19bfd6	-0.60058343
7	0xbf572dab	-0.8405406
8	0xbf020e90	-0.5080347
9	0xbe71c9ee	-0.23612186
10	0xbf159ced	-0.58442575
11	0x3b87b845	0.0041418397
12	0xbea4a46a	-0.32156688
13	0xbf979c39	-1.184455
14	0xbf63622b	-0.8882167
15	0xbedeb55c	-0.4349774
16	0xbe8ca732	-0.2747131
17	0xbee40ed8	-0.44542575
18	0xbeba0733	-0.36333618
19	0xbe9a6cdb	-0.30161175
20	0xbeb80e68	-0.3594849
21	0xbe85b840	-0.26117134
22	0xbe9f9752	-0.31170136
23	0xbe9e1319	-0.30873945
24	0xbea2d49d	-0.31802836
25	0xbe44ef9f	-0.19232033
26	0xbebd08a5	-0.36920658
27	0x3f236d68	0.63838816
28	0xbf2236d8	-0.63364935
29	0xbf017bac	-0.50579333
30	0xbf0bbf06	-0.54588354
31	0xbda1b925	-0.07896642
32	0xbf38f706	-0.7225193
33	0xbf1e215f	-0.6176967
34	0xbf33a05c	-0.70166564
35	0xbf2e4a3c	-0.6808202
36	0xbf364354	-0.71196485
37	0xbf53ff0f	-0.82811064
38	0xbf46d4bb	-0.7766835
39	0xbf6ead7d	-0.9323347
40	0xbead8bbb	-0.33895668
41	0xbd7e9a5a	-0.06215892
42	0xbf2b6048	-0.6694379
43	0x3e95fe5c	0.29295623
44	0xbebb18b7	-0.36542293
45	0xbf722e5a	-0.94601977
46	0xbf664b94	-0.89959073
47	0x3cc70d78	0.024298415
48	0xbf1dc486	-0.61627996
49	0x3df65756	0.12028377
50	0x3e66fe72	0.22558
51	0xbee46b2e	-0.44613022
52	0xbe867637	-0.26262066
53	0xbef40784	-0.47661984
54	0x3eb99f4f	0.36254355
55	0x3e9e0534	0.30863345
56	0x3d82a6d8	0.06379479
57	0x3ee58db0	0.4483466
58	0xbee2fc22	-0.44332987
59	0x3f5c013c	0.85939384
60	0xbeab0ce2	-0.33408266
61	0xbe2dc645	-0.16970165
62	0xbf239a51	-0.63907343
63	0xbe18017f	-0.1484432
64	0xbf3dfb0a	-0.7421118
65	0xbec998a0	-0.39374256
66	0xbed693af	-0.4190955
67	0xbefaad37	-0.48960277
68	0xbf0544a4	-0.5205786
69	0xbf42fd9a	-0.76168215
70	0xbf08275e	-0.5318507
71	0xbf20fece	-0.628888
72	0xbf1c0d6b	-0.60957974
73	0xbe6b6b52	-0.22990158
74	0xbea2d98a	-0.31806594
75	0x3efee9ca	0.49787742
76	0x3e9d3f33	0.3071228
77	0xbf57348b	-0.8406455
78	0xbf4f3e19	-0.8095413
79	0xbe9b671d	-0.30352107
80	0xbf56aa1c	-0.83853316
81	0xbf74957a	-0.95540583
82	0xbf91712c	-1.1362662
83	0xbf0575bd	-0.5213278
84	0xbf303411	-0.6882945
85	0xbf65058c	-0.8946159
86	0xbf847a91	-1.0349904
87	0xbf555992	-0.833398
88	0xbeb1e36c	-0.34743822
89	0xbf25d029	-0.6477075
90	0xbf2ee481	-0.6831742
91	0xbe0b8074	-0.1362322
92	0xbea08fc4	-0.31359684
93	0xbf878f49	-1.0590602
94	0xbf5d2ac5	-0.86393386
95	0xbf1a5f69	-0.60301834
96	0xbf342746	-0.70372427
97	0xbf244e4a	-0.6418196
98	0xbf18c1bc	-0.59670615
99	0xbf1fcc25	-0.62420875
100	0xbf3cd651	-0.7376452
101	0xbf4f840f	-0.8106088
102	0xbeeecadf	-0.46639153
103	0xbf2a0127	-0.6640801
104	0xbefcc18d	-0.49366418
105	0xbe9c9c02	-0.30587775
106	0xbf30a5c0	-0.69002914
107	0x3daf7cab	0.085687004
108	0xbef2052f	-0.4726958
109	0xbf85ccac	-1.0453086
110	0xbf5ea830	-0.86975384
111	0xbe7eadb4	-0.2487095
112	0xbecb6bc5	-0.3973066
113	0xbf6e86be	-0.9317435
114	0xbf354933	-0.7081482
115	0xbf010016	-0.50390756
116	0xbf07411e	-0.52833736
117	0xbf0dfc8c	-0.5546348
118	0xbee631a5	-0.4495975
119	0xbf11d69f	-0.5696811
120	0xbeaa755f	-0.33292672
121	0xbf1c179c	-0.60973525
122	0xbeae7529	-0.3407376
123	0x3f5a1574	0.85188985
124	0x3f3db55b	0.7410485
125	0xbf246038	-0.6420932
126	0xbf21713b	-0.630634
127	0xbe030b1c	-0.12797207
128	0xbf24fe58	-0.644506
129	0xbec3844a	-0.38186866
130	0xbf2524f0	-0.6450949
131	0xbf1057ea	-0.56384146
132	0xbf597609	-0.8494573
133	0xbf413dbd	-0.7548483
134	0xbf1cc135	-0.6123231
135	0xbf0c21fb	-0.5473935
136	0xbeef9539	-0.46793535
137	0xbebf7ed5	-0.37401453
138	0xbf210965	-0.6290496
139	0x3e57754e	0.21040842
140	0x3e7a2918	0.24429739
141	0xbf90db73	-1.131697
142	0xbf47f6cf	-0.78110975
143	0xbee3f7c9	-0.44524983
144	0xbf43e8c2	-0.76527035
145	0xbf8a8c4e	-1.0824068
146	0xbf51a696	-0.81894815
147	0xbf3a0c40	-0.7267494
148	0xbf2d2b0b	-0.67643803
149	0xbf3fcf0c	-0.74925303
150	0xbf0fea2d	-0.562167
151	0xbf490848	-0.7852826
152	0xbf18d7f7	-0.59704536
153	0xbe7bd4a1	-0.2459283
154	0xbf2a87e5	-0.6661361
155	0x3e489fa3	0.19592147
156	0xbeaef804	-0.34173596
157	0xbf8cf912	-1.101351
158	0xbf759941	-0.9593697
159	0xbebdfe86	-0.37108248
160	0xbf541191	-0.82839304
161	0x3db4365a	0.08799429
162	0x3db67bd3	0.08910336
163	0xbf93ced7	-1.1547498
164	0xbf5cf3bb	-0.86309403
165	0xbf1c89b6	-0.6114763
166	0xbe80718d	-0.25086632
167	0xbad396b1	-0.0016142932
168	0x3e6829c5	0.22672184
169	0xbe6c426d	-0.23072214
170	0xbea73110	-0.3265462
171	0x3f535c56	0.8256277
172	0x3efafec5	0.490225
173	0xbf838431	-1.0274717
174	0xbf06107b	-0.523689
175	0xbf43896b	-0.7638156
176	0xbf0bba68	-0.5458131
177	0xbfbab269	-1.4585696
178	0xbfc7e6e4	-1.5617337
179	0xbf2c8e8b	-0.67405003
180	0xbf478800	-0.77941895
181	0xbf2e2802	-0.680298
182	0xbf9c48fe	-1.2209775
183	0xbf9f7b68	-1.2459536
184	0xbee43b03	-0.44576272
185	0xbf0093f9	-0.5022579
186	0xbf047e66	-0.5175537
187	0x3e71bf74	0.2360819
188	0x3eefc82a	0.468324
189	0xbf5e0f63	-0.8674223
190	0xbf2a68c0	-0.66566086
191	0xbead6e67	-0.33873293
192	0xbe516601	-0.20449068
193	0xbf0d0e2a	-0.5509974
194	0xbeaff48e	-0.34366268
195	0xbe551fc7	-0.20812903
196	0xbec5f5a5	-0.38663974
197	0xbed36303	-0.41286477
198	0xbf01e85e	-0.5074519
199	0xbf1e0170	-0.61720943
200	0x3bb4d84e	0.0055189496
201	0xbdf8ac69	-0.1214226
202	0xbedaec86	-0.42758578
203	0x3fbbb9a5	1.4666029
204	0x3f85c0fc	1.0449519
205	0xbea7284e	-0.32647938
206	0xbe6a0539	-0.22853555
207	0x3f65d7a1	0.8978215
208	0xbd2559a6	-0.0403687
209	0xbf844b0a	-1.03354
210	0xbf6a880d	-0.91613847
211	0xbe03cdc2	-0.12871459
212	0xbe5c98ee	-0.21542713
213	0xbcdb51ef	-0.026772467
214	0xbf025faa	-0.5092722
215	0xbf29204c	-0.66064906
216	0x3e9804ef	0.29691264
217	0xbee6b565	-0.45060268
218	0xbeeedd77	-0.4665334
219	0x3f70d3e3	0.94073313
220	0x3f36762b	0.7127406
221	0xbe6acec9	-0.22930445
222	0x3e2c6e5f	0.16838978
223	0xbedac72d	-0.42730084
224	0xbf5e04b0	-0.867259
225	0xbf8ce953	-1.1008705
226	0xbf7d8f9d	-0.9904726
227	0xbf513f4a	-0.81737196
228	0xbf3fe5bb	-0.74959916
229	0xbf46d6d1	-0.77671534
230	0xbf797e9e	-0.9745883
231	0xbf6bda45	-0.9212993
232	0xbed85cc2	-0.4225827
233	0xbe17d088	-0.14825642
234	0xbf2cbb1e	-0.6747302
235	0x3d0732fc	0.033007607
236	0xbe7d0ff4	-0.24713117
237	0xbf99507f	-1.197769
238	0xbf8004d1	-1.000147
239	0xbeb24f7d	-0.3482627
240	0x3d6a1ba1	0.057155255
241	0xbfd3b447	-1.6539391
242	0xbfb721df	-1.4307212
243	0xbd909a33	-0.07060661
244	0xbd88ad8c	-0.066737264
245	0xbd4ad4bc	-0.049519286
246	0xbf9db789	-1.2321635
247	0xbfab9133	-1.3403686
248	0x3eb15633	0.34636077
249	0xbeb7c9b1	-0.35896066
250	0xbeaee389	-0.3415797
251	0x3f5bcf34	0.8586304
252	0x3f62360c	0.8836372
253	0xbe858b7f	-0.2608299
254	0x3f01b01c	0.50659347
255	0xbf658520	-0.8965626

lstm.weight_hh_l0 f4 [400, 100]
0	0x3d3b4882	0.045723446
1	0xbdb5d108	-0.0887776
2	0xbe085764	-0.13314587
3	0x3dad65f3	0.08466711
4	0x3d29fd76	0.041501485
5	0xbdf6acc7	-0.120446734
6	0xbe0b520e	-0.1360552
7	0x3e230848	0.15921128
8	0xbbbb040d	-0.00570727
9	0x3d3863c5	0.045017023
10	0xbeaf766a	-0.3427003
11	0xbd854571	-0.065073855
12	0x3e19fa87	0.15036975
13	0xbd327d4d	-0.043576527
14	0xbdb95ae4	-0.09050539
15	0xbe242e99	-0.160334
16	0x3e0249a3	0.12723403
17	0x3e45ac28	0.19303954
18	0x3c5bc872	0.013414489
19	0x3e2ac957	0.16678368
20	0x3de49ab6	0.11162321
21	0x3dcdf631	0.10056723
22	0xbccb8ccf	-0.024847416
23	0x3e2a1855	0.16610844
24	0xbde4747e	-0.111550316
25	0x3e4ef724	0.20211464
26	0x3e23dcb3	0.16002159
27	0x3c95842f	0.018251507
28	0xbd5894d1	-0.052876297
29	0xbd69cd3c	-0.057080492
30	0xbde6043c	-0.112312764
31	0xbd9cd2e1	-0.076574095
32	0x3d29824f	0.041384038
33	0xbd0fd6c3	-0.035116922
34	0xbe364fbe	-0.17803857
35	0x3d99fa91	0.07518495
36	0x3cb60afe	0.022222038
37	0x3cb463d9	0.022020267
38	0x3d227106	0.03965857
39	0xbda72c1d	-0.08162711
40	0xbecb09c7	-0.39655897
41	0xbe4d9b41	-0.20078756
42	0xbc811b77	-0.015760167
43	0x3e1ff56d	0.15620966
44	0x3ca955b4	0.02067075
45	0x3d233fcd	0.039855767
46	0xbd92d185	-0.07168869
47	0x3e308764	0.17239147
48	0xbbc0a0b1	-0.005878531
49	0x3d92e052	0.07171692
50	0xbc5628fd	-0.013071296
51	0xbd424e58	-0.047437996
52	0x3e7822b7	0.24231993
53	0x3d43874d	0.047736455
54	0x3e4d8e36	0.2007378
55	0x3dd57a25	0.10423688
56	0xbce295aa	-0.027659256
57	0xbdcb33c0	-0.0992198
58	0xbdb4356c	-0.08799252
59	0xbe012bfc	-0.12614435
60	0x3de53ce4	0.111932546
61	0x3c3d4b21	0.011553557
62	0xbdc515cc	-0.09623298
63	0xbd1de8a1	-0.03855193
64	0x3d18e166	0.03732433
65	0xbcce7884	-0.02520395
66	0xbcfc04a1	-0.030763926
67	0xbdda2db0	-0.106532454
68	0xbc846820	-0.016162932
69	0xbe33c48e	-0.17555448
70	0xbeb28377	-0.34865925
71	0xbd334949	-0.043771062
72	0xbe06fb22	-0.13181737
73	0xbe3276fa	-0.17428198
74	0x3d2df3e0	0.042468905
75	0xbdbcb61c	-0.09214422
76	0xbe4672b8	-0.19379699
77	0x3e459d7e	0.1929836
78	0xbdec70d0	-0.11544955
79	0xbde9948e	-0.11405288
80	0x3e1b7367	0.15180741
81	0x3dbee801	0.09321595
82	0x3db946a4	0.09046677
83	0x3e0acc7c	0.13554567
84	0x3e89edbb	0.26939186
85	0xbca8178b	-0.020519039
86	0xbe59f87f	-0.212862
87	0xbd87daf8	-0.06633562
88	0xbcae45b2	-0.021273468
89	0xbd2a5860	-0.041588187
90	0xbd9db634	-0.07700768
91	0xbe2619fd	-0.16220851
92	0xbe68fd8a	-0.22752967
93	0xbe0fbe1a	-0.14037362
94	0x3dc97d83	0.098383926
95	0xb89dd2bf	-7.525598e-05
96	0xbe129878	-0.14315975
97	0x3e265ffe	0.16247556
98	0x3c948f57	0.018134756
99	0x3dfe0bce	0.12404595
100	0xbbcfcd68	-0.006341625
101	0xbdf07c9e	-0.11742519
102	0xbdfe4354	-0.124151856
103	0xbdb4fa34	-0.08836785
104	0x3e1decbe	0.15422341
105	0xbda5c1b8	-0.080935895
106	0xbdf9c715	-0.12196175
107	0x3d7a2a8c	0.061075732
108	0x3c2706af	0.010194465
109	0x3e12aaab	0.14322917
110	0xbd857a37	-0.06517451
111	0x3d9864f0	0.07441127
112	0xbd8e9304	-0.06961635
113	0xbdd72848	-0.1050573
114	0x3cd895cb	0.026438614
115	0x3e5de699	0.21669997
116	0xbe7370e0	-0.23773527
117	0x3ccb7cae	0.024839725
118	0x3db645cb	0.08900031
119	0xbdccaa6a	-0.099934414
120	0x3e9076a4	0.28215516
121	0xbdab0af7	-0.08351701
122	0x3e3f309c	0.18670887
123	0x3e21ed76	0.1581324
124	0xbe98514c	-0.29749525
125	0x3d44e60e	0.04807096
126	0x3c7cd582	0.015431764
127	0x3e2b951c	0.167561
128	0xbd54541e	-0.051838033
129	0xbe50306c	-0.20330971
130	0xbe11d805	-0.14242561
131	0xbd12d0da	-0.035843708
132	0xbe543c88	-0.20726216
133	0x3c89ad06	0.016806137
134	0xbea72263	-0.32643422
135	0x3df24e48	0.11831337
136	0x3dc658b4	0.096848875
137	0xbe07d599	-0.13265075
138	0xbf26d82d	-0.6517361
139	0x3c66169e	0.014043478
140	0xbccae78f	-0.024768619
141	0xbdecaada	-0.11556025
142	0x3de95dce	0.11394845
143	0x3dabefec	0.08395371
144	0x3dbdb5a5	0.092631616
145	0x3cb32933	0.021870231
146	0xbd7cceb8	-0.06172058
147	0x3d2450f9	0.040116284
148	0x3e06ada5	0.13152178
149	0x3a1e76d6	0.00060449296
150	0x3caa473e	0.020785924
151	0x3b5a75a1	0.0033334272
152	0x3dd0db8e	0.10198127
153	0x3e249fc6	0.16076574
154	0x3e2847d3	0.16433649
155	0x3e8615c0	0.2618847
156	0x3d504873	0.050850343
157	0x3e208b89	0.15678228
158	0xbe279c0d	-0.16368122
159	0xbd484409	-0.04889301
160	0x3e424aea	0.1897389
161	0xbd7df31e	-0.061999433
162	0xbe15cf46	-0.1462985
163	0x3e13ae22	0.14421895
164	0xbd72fcc7	-0.0593231
165	0xbc970d79	-0.018439041
166	0xbd869ec6	-0.065732524
167	0xbdd85131	-0.10562361
168	0xbe272c72	-0.16325548
169	0x3e15f6ea	0.14644971
170	0xbd32a27e	-0.043611996
171	0xbda715c0	-0.08158445
172	0xbd25314b	-0.040330213
173	0x3e7dffc3	0.24804597
174	0x3d3c2d0f	0.04594141
175	0xbde3893a	-0.11110158
176	0xbe096f16	-0.13421282
177	0xbdb3b218	-0.08774203
178	0xbd8f5740	-0.069990635
179	0x3d089781	0.03334761
180	0x3eb7a98d	0.35871544
181	0xbc122106	-0.008919006
182	0xbd1e50a3	-0.03865112
183	0xbd4da30b	-0.050204318
184	0x3ee23eb9	0.4418848
185	0xbe006cdc	-0.12541527
186	0xbe254248	-0.16138566
187	0xbdfd90bf	-0.12381124
188	0x3dcec404	0.10095981
189	0x3d44c6ee	0.048041277
190	0x3d175ba0	0.036952615
191	0xbe656e15	-0.22405274
192	0x3e334fce	0.17510912
193	0xbe083b04	-0.13303763
194	0x3e1e21de	0.15442607
195	0x3d4ed5fe	0.050497048
196	0xbd505ed9	-0.050871704
197	0x3e195da1	0.14977123
198	0x3d906d15	0.07052056
199	0x3e06055d	0.13087983
200	0x3dbace86	0.091214225
201	0xbe58c804	-0.2117005
202	0xbd3969bf	-0.045266863
203	0xbd3a0ccf	-0.04542237
204	0x3ce30bf6	0.027715664
205	0xbcb0751f	-0.021540223
206	0xbe2e56bb	-0.17025273
207	0x3d80d55f	0.06290697
208	0xbd7f65ef	-0.06235307
209	0x3d9e09bf	0.07716703
210	0xbda0ef4e	-0.07858144
211	0x3cf78459	0.030214475
212	0xbdef22d9	-0.116765685
213	0xbd516459	-0.05112109
214	0xbcbc7f5a	-0.023009945
215	0xbd8f6ef7	-0.07003587
216	0xbe319cf6	-0.17345032
217	0x3d7e5cc5	0.06210019
218	0xbd3db18d	-0.046311904
219	0x3d2a3698	0.04155597
220	0x3e78da36	0.24301991
221	0x3c1904bf	0.00933951
222	0x3cc34ae1	0.023839416
223	0x3de11c6a	0.10991748
224	0xbcc3f0a7	-0.023918463
225	0x3e0ff5ed	0.14058657
226	0x3dcbfcbb	0.09960314
227	0x3e178973	0.14798526
228	0xbd540519	-0.051762674
229	0xbddeff61	-0.108885534
230	0xbd011f4d	-0.03152399
231	0xbe20afa7	-0.15692006
232	0x3d0575c9	0.03258303
233	0x3de47877	0.11155789
234	0xbe6b2e4e	-0.22966883
235	0xbd604c29	-0.054760132
236	0xbd8e39bf	-0.06944608
237	0x3c71cfb7	0.014758996
238	0xbe5a2037	-0.21301351
239	0xbd888c3e	-0.06667374
240	0xbc8248af	-0.015903799
241	0xbd505918	-0.050866216
242	0xbdc77760	-0.09739566
243	0x3e038d9e	0.12846991
244	0xbc518007	-0.012786872
245	0xbdba5b50	-0.09099448
246	0x3cfecb21	0.031102719
247	0x3b9a4d8e	0.0047089523
248	0x3e1b5f51	0.15173079
249	0x3da6b1c7	0.08139377
250	0x3d2d886b	0.042366426
251	0xbdcbce49	-0.09951455
252	0x3dd18cc0	0.10231924
253	0x3e040208	0.128914
254	0x3c4537b9	0.012037211
255	0x3d88f5e6	0.066875264

lstm.bias_ih_l0 f4 [400]
0	0xbf7a4b1f	-0.97770876
1	0xbef62688	-0.48076272
2	0xbf6afe97	-0.91794723
3	0xbee27a01	-0.44233707
4	0xbf6b32b7	-0.9187426
5	0xbf844a9c	-1.0335269
6	0xbf69284b	-0.9107711
7	0xbf22920f	-0.6350412
8	0xbf5989a2	-0.84975636
9	0xbf5d0fc6	-0.86352193
10	0xbefc947d	-0.49332038
11	0xbf4b8edd	-0.7951487
12	0xbeee9e77	-0.46605274
13	0xbdd00dd2	-0.10158886
14	0xbf4e9e10	-0.80709934
15	0x3c534dda	0.012896979
16	0xbf00d9dd	-0.50332433
17	0xbf62e8e8	-0.88636637
18	0xbf70e135	-0.9409364
19	0xbf6efc06	-0.9335331
20	0xbed72c8c	-0.42026174
21	0xbf76a902	-0.96351635
22	0xbf109c70	-0.56488705
23	0xbf5864f8	-0.84529066
24	0xbe624df7	-0.22100054
25	0xbf66f871	-0.9022284
26	0xbf6c456f	-0.9229345
27	0xbf802b27	-1.0013169
28	0xbf1445a7	-0.5791878
29	0xbe41765a	-0.18892804
30	0xbf54140a	-0.8284308
31	0xbf5d793c	-0.86513114
32	0xbec02f5d	-0.37536135
33	0xbf7c3bb0	-0.98528576
34	0xbd21be46	-0.0394881
35	0xbf63168e	-0.8870629
36	0xbf750572	-0.95711434
37	0xbee2b5dd	-0.44279376
38	0xbc4314a8	-0.01190678
39	0xbf6cb72f	-0.92467016
40	0xbf47eb77	-0.78093666
41	0xbf606c9b	-0.8766572
42	0xbf4c8577	-0.7989115
43	0xbe516265	-0.20447691
44	0xbe8fb260	-0.28065777
45	0xbf84c8fb	-1.0373834
46	0xbf3bd2c2	-0.73368466
47	0xbf7b25ba	-0.9810444
48	0xbf6b5ebb	-0.9194142
49	0xbf67302f	-0.903079
50	0xbf5d58a0	-0.86463356
51	0xbf62d641	-0.88608176
52	0xbe81600e	-0.25268596
53	0xbec6d178	-0.38831687
54	0xbeeab394	-0.45840132
55	0xbf2dcfab	-0.67895
56	0xbf5c267f	-0.8599624
57	0xbd8fc0dc	-0.07019207
58	0xbe789588	-0.24275792
59	0xbf38c743	-0.7217905
60	0xbeed616d	-0.46363392
61	0xbf5f3e44	-0.87204385
62	0xbf66d211	-0.90164286
63	0xbf021591	-0.5081416
64	0xbf71ab2c	-0.9440181
65	0xbf6f668b	-0.93515843
66	0xbf5cfd4d	-0.86324006
67	0xbf854f9b	-1.0414919
68	0xbf599f9d	-0.85009176
69	0xbe584e69	-0.21123661
70	0xbe752f7a	-0.23943892
71	0xbf2989b7	-0.6622576
72	0xbf7f2ad8	-0.9967475
73	0xbe6dd506	-0.23225793
74	0xbf625564	-0.88411546
75	0xbf6b5a77	-0.91934913
76	0xbec9a19e	-0.39381117
77	0xbf0c3773	-0.5477211
78	0xbf7837c4	-0.9696009
79	0xbe8cb29e	-0.27480024
80	0xbe1f383c	-0.15548795
81	0xbf4fdbc2	-0.811947
82	0xbf36d764	-0.7142241
83	0xbe44c420	-0.19215441
84	0xbe50c0a5	-0.20385988
85	0xbe8f2b75	-0.27962843
86	0xbf0af16c	-0.5427463
87	0xbf74646b	-0.95465726
88	0xbf6fa8c3	-0.93616885
89	0xbf7eff14	-0.9960797
90	0xbf431490	-0.7620325
91	0xbe988c21	-0.2979441
92	0xbdd30a1b	-0.10304662
93	0xbecbaa1a	-0.39778215
94	0xbe99cdd9	-0.30039862
95	0xbf60a909	-0.8775793
96	0xbe9eaf63	-0.30993184
97	0xbeef3c71	-0.467258
98	0xbf1b9a2b	-0.60782117
99	0xbe9d0e3b	-0.3067492
100	0xbec3e0f4	-0.38257563
101	0xbf590048	-0.84766054
102	0xbf0cce44	-0.55002236
103	0xbe3ba8e4	-0.18326145
104	0xbedace62	-0.42735583
105	0xbefe94a0	-0.49722767
106	0xbed3d314	-0.41371977
107	0xbf111050	-0.56665516
108	0xbf1d8f0e	-0.6154641
109	0xbeae86d3	-0.34087238
110	0xbf002168	-0.50050974
111	0xbf07977c	-0.5296552
112	0xbefe9af7	-0.49727604
113	0xbe855fee	-0.2604975
114	0xbf144d13	-0.57930106
115	0xbe82968f	-0.25505492
116	0xbe381a28	-0.17978728
117	0xbeebff68	-0.46093297
118	0xbf16d7ad	-0.58922845
119	0xbf0ee265	-0.558142
120	0xbf688fd5	-0.9084447
121	0xbf234879	-0.6378246
122	0xbf412e6e	-0.7546147
123	0xbf214bba	-0.63006175
124	0xbe9995e6	-0.29997176
125	0xbf203eb9	-0.6259571
126	0xbf052dcf	-0.52023023
127	0xbeea30d2	-0.45740372
128	0xbf2cf7f3	-0.6756584
129	0xbe64bcc1	-0.22337629
130	0xbf2e1d76	-0.68013704
131	0xbee4b645	-0.4467031
132	0xbe95a418	-0.29226756
133	0xbed6e701	-0.41973117
134	0xbe4bb9b6	-0.19895062
135	0xbf084a7c	-0.53238654
136	0xbf1d177a	-0.6136395
137	0xbf127b18	-0.57219076
138	0xbe8a22b0	-0.2697959
139	0xbed415d6	-0.4142291
140	0xbf078069	-0.52930313
141	0xbf16f892	-0.5897304
142	0xbf132ff2	-0.57495034
143	0xbef7fe8c	-0.4843639
144	0xbee0431a	-0.43801194
145	0xbf02293d	-0.50844175
146	0xbf7a1f5d	-0.97704107
147	0xbf08423d	-0.5322607
148	0xbee984d9	-0.45609167
149	0xbf08ea03	-0.53482074
150	0xbefa0166	-0.48829192
151	0xbf29bcf8	-0.6630397
152	0xbebfb02d	-0.374391
153	0xbf023c70	-0.5087347
154	0xbf1aa33d	-0.6040533
155	0xbed82ca5	-0.4222156
156	0xbf023b47	-0.508717
157	0xbe475022	-0.19464162
158	0xbee747be	-0.45171922
159	0xbf132577	-0.5747904
160	0xbf1fecb8	-0.6247058
161	0xbf0de191	-0.5542231
162	0xbefc9f6b	-0.49340376
163	0xbeb6dc6c	-0.35715044
164	0xbefcdc5b	-0.49386868
165	0xbf14ed78	-0.5817485
166	0xbeed89e5	-0.46394268
167	0xbedc89df	-0.43073937
168	0xbec8a115	-0.39185396
169	0xbea28a54	-0.3174616
170	0xbe28b00c	-0.16473407
171	0xbef24f4a	-0.47326118
172	0xbed27938	-0.41108108
173	0xbe8c5392	-0.2740751
174	0xbee1986d	-0.44061604
175	0xbed828f6	-0.4221875
176	0xbf04c6eb	-0.51866025
177	0xbf111026	-0.56665266
178	0xbf0b19f1	-0.5433646
179	0xbf0a2460	-0.53961754
180	0xbe2b67dc	-0.16738838
181	0xbf1c741a	-0.61114657
182	0xbf282e78	-0.65695906
183	0xbe63d680	-0.22249794
184	0xbead0780	-0.33794785
185	0xbf222c93	-0.63349265
186	0xbf0e6e40	-0.5563698
187	0xbed09d42	-0.40744978
188	0xbecaea7e	-0.39632028
189	0xbf23575a	-0.6380516
190	0xbf25da49	-0.647862
191	0xbec2cacc	-0.38045347
192	0xbe9d65c7	-0.30741712
193	0xbf08c9d7	-0.53432983
194	0xbf40db92	-0.7533504
195	0xbf130a02	-0.57437146
196	0xbe960722	-0.29302317
197	0xbf358d5e	-0.70918834
198	0xbf17d3f6	-0.593078
199	0xbe7f4257	-0.2492765
200	0x3be84628	0.0070884414
201	0xbcf8746f	-0.030328957
202	0xbd1b291f	-0.037881013
203	0x3df0144d	0.11722622
204	0x3dd846ec	0.10560402
205	0xbb8597d2	-0.0040769363
206	0x3d1f2741	0.038855795
207	0x3d00cb9c	0.031444177
208	0x3c0f302c	0.008739512
209	0xbdb793ed	-0.089637615
210	0xbdb89e80	-0.090146065
211	0x3d75f6a7	0.06004968
212	0x3d3675eb	0.04454605
213	0x3dd99746	0.10624556
214	0xbd3da282	-0.046297558
215	0x3db4e574	0.08832827
216	0x3d6984e7	0.05701151
217	0xbd56e930	-0.05246848
218	0xbcea90a0	-0.028633416
219	0x3d00953e	0.03139233
220	0x3d2eb875	0.04265638
221	0x3c6ab696	0.014325758
222	0xbc5c62d1	-0.013451294
223	0xbc038fbd	-0.008029875
224	0xbd3ef58e	-0.046620898
225	0xbdb79137	-0.089632444
226	0x3c735775	0.014852394
227	0x3da4a5a8	0.08039409
228	0x3c5de194	0.013542552
229	0x3da4e980	0.08052349
230	0xbd22d0b7	-0.039749827
231	0x3dc050e7	0.09390431
232	0xbce6827f	-0.028138397
233	0xbdaeeca1	-0.08541227
234	0xbdc7e394	-0.09760204
235	0x3d856518	0.06513423
236	0xbd4b3e28	-0.049619824
237	0xbdc0f9b5	-0.09422628
238	0x3c56204c	0.013069224
239	0x3ce19cd7	0.027540607
240	0xbd2a6b81	-0.04160643
241	0x3b121574	0.002229062
242	0x3b33f4db	0.0027459178
243	0x3d030f6d	0.031997133
244	0xbcc0d53b	-0.023539176
245	0x3d60abcf	0.05485135
246	0xbdfb36c6	-0.122663066
247	0x3d396ca9	0.045269642
248	0xbd13b8ef	-0.03606504
249	0xbd3ebf37	-0.046569075
250	0x3c03bf06	0.008041149
251	0x3d2aa6b4	0.041662887
252	0xbd6e8618	-0.05823335
253	0xbdacf030	-0.0844425
254	0x3dc3b68f	0.09556305
255	0x3d983fc3	0.074340366

lstm.bias_hh_l0 f4 [400]
0	0xbf61afb4	-0.88158727
1	0xbedc0868	-0.42975163
2	0xbf636889	-0.88831383
3	0xbf054323	-0.5205557
4	0xbf535bb3	-0.82561797
5	0xbf8108cc	-1.008081
6	0xbf58cce6	-0.8468765
7	0xbf28e386	-0.65972173
8	0xbf6bd4a4	-0.9212134
9	0xbf848de0	-1.0355797
10	0xbf136e5d	-0.57590276
11	0xbf54de62	-0.8315183
12	0xbee0fadb	-0.43941388
13	0xbe3d7743	-0.18502526
14	0xbf776c69	-0.96649796
15	0xbdcbc2fa	-0.09949298
16	0xbedf3235	-0.43592992
17	0xbf579914	-0.84217954
18	0xbf7b87a0	-0.9825382
19	0xbf7746ac	-0.9659221
20	0xbe82a452	-0.2551599
21	0xbf68832b	-0.90825146
22	0xbef03b27	-0.4692013
23	0xbf6432bc	-0.89139915
24	0xbe1d0049	-0.1533214
25	0xbf8299ac	-1.0203147
26	0xbf7b3f5a	-0.9814354
27	0xbf81fc2a	-1.0155079
28	0xbf25c9ac	-0.6476085
29	0xbe897d36	-0.2685334
30	0xbf4253a7	-0.75908893
31	0xbf658158	-0.8965049
32	0xbee8c9fa	-0.45466596
33	0xbf718190	-0.9433832
34	0x3d5db28f	0.054125365
35	0xbf7ab037	-0.9792513
36	0xbf7f06fe	-0.99620044
37	0xbedab2a8	-0.4271443
38	0xbcd8467b	-0.026400795
39	0xbf6d7531	-0.92756945
40	0xbf4cfdac	-0.8007457
41	0xbf805a01	-1.0027467
42	0xbf732ecb	-0.94993275
43	0xbeba0ecf	-0.36339423
44	0xbebae553	-0.36503085
45	0xbf604172	-0.8759986
46	0xbf3c1e4e	-0.7348374
47	0xbf7bf4f9	-0.98420674
48	0xbf6ac3bc	-0.91704917
49	0xbf6beec5	-0.9216121
50	0xbf58b59a	-0.846521
51	0xbf4fb85f	-0.811407
52	0xbec9f055	-0.3944117
53	0xbf0621f6	-0.5239557
54	0xbeed6e2b	-0.46373114
55	0xbef64a41	-0.48103526
56	0xbf83c8cd	-1.0295655
57	0xbd029f66	-0.031890295
58	0xbe87f259	-0.26552084
59	0xbf3c92ee	-0.73661697
60	0xbf0e92f0	-0.5569296
61	0xbf800f7c	-1.0004725
62	0xbf7a99a0	-0.97890663
63	0xbef22454	-0.4729334
64	0xbf62c02f	-0.885745
65	0xbf7a3570	-0.9773779
66	0xbf805d6d	-1.0028511
67	0xbf6961ef	-0.9116506
68	0xbf6f7f53	-0.93553656
69	0xbe8175f9	-0.25285318
70	0xbed18b95	-0.40926805
71	0xbf37397b	-0.71572083
72	0xbf765e68	-0.962378
73	0xbe973be8	-0.29537892
74	0xbf84634d	-1.0342804
75	0xbf80ab00	-1.0052185
76	0xbed77313	-0.42079982
77	0xbf149b90	-0.5804987
78	0xbf6b6753	-0.91954535
79	0xbe979d9d	-0.29612437
80	0xbdd3dfb1	-0.103454
81	0xbf47a520	-0.77986336
82	0xbf4da3db	-0.8032815
83	0xbe51383c	-0.20431608
84	0xbddbbba7	-0.10729151
85	0xbeb19ed6	-0.34691495
86	0xbee9b7a8	-0.4564793
87	0xbf828fdb	-1.0200151
88	0xbf6e7690	-0.9314966
89	0xbf7715ad	-0.9651745
90	0xbf54abe7	-0.830748
91	0xbed36d3d	-0.4129428
92	0xbe4dc680	-0.20095253
93	0xbee329f4	-0.44367945
94	0xbed7cc73	-0.4214817
95	0xbf809571	-1.0045606
96	0xbe950363	-0.29104146
97	0xbf079913	-0.5296795
98	0xbf2b2be9	-0.66863877
99	0xbe99609e	-0.29956526
100	0xbf0273d4	-0.5095799
101	0xbf42b0d4	-0.7605107
102	0xbeeacc4a	-0.45858985
103	0xbe94e2cb	-0.2907928
104	0xbf09f5ce	-0.53890693
105	0xbf038bbd	-0.513851
106	0xbf0d434a	-0.551808
107	0xbef6301e	-0.48083586
108	0xbf015ca9	-0.50532013
109	0xbee48849	-0.44635227
110	0xbedaaf95	-0.42712083
111	0xbf0dcad1	-0.553876
112	0xbec8a69c	-0.39189613
113	0xbe86952b	-0.2628568
114	0xbf05360a	-0.5203558
115	0xbe8feeb3	-0.281118
116	0xbe8050b9	-0.25061586
117	0xbf032eae	-0.512431
118	0xbf0ef042	-0.55835354
119	0xbf0dd2fa	-0.5540005
120	0xbf41f8ff	-0.7577056
121	0xbeed76e9	-0.46379784
122	0xbf6b2502	-0.91853344
123	0xbf1afa51	-0.605382
124	0xbecfe639	-0.40605333
125	0xbf0107c1	-0.50402457
126	0xbee3e35b	-0.44509396
127	0xbf0f0c29	-0.5587793
128	0xbf1b2019	-0.6059585
129	0xbea62079	-0.3244665
130	0xbf04fac3	-0.5194513
131	0xbf0ea21d	-0.55716115
132	0xbee4d3fe	-0.44692987
133	0xbef06e78	-0.4695928
134	0xbe426c38	-0.18986595
135	0xbf16ccf2	-0.5890647
136	0xbf047aac	-0.5174968
137	0xbf0342cb	-0.51273793
138	0xbe999bb6	-0.3000161
139	0xbf10d321	-0.5657216
140	0xbf1c05d7	-0.6094641
141	0xbf17d145	-0.59303695
142	0xbf0b5fe4	-0.5444319
143	0xbee419a9	-0.44550827
144	0xbeefec8d	-0.4686016
145	0xbf15ec50	-0.5856371
146	0xbf573a6a	-0.8407351
147	0xbec62600	-0.38700867
148	0xbee499bf	-0.4464855
149	0xbf2654e3	-0.64973277
150	0xbf28e225	-0.6597007
151	0xbf15bda5	-0.584925
152	0xbe899293	-0.2686964
153	0xbf17a1c5	-0.59231216
154	0xbf0871e8	-0.5329881
155	0xbeff9747	-0.49920103
156	0xbf13c17f	-0.57717127
157	0xbd9887a5	-0.07447747
158	0xbf076983	-0.52895373
159	0xbf00d288	-0.50321245
160	0xbf19e70a	-0.6011816
161	0xbef780e3	-0.4834052
162	0xbee56cae	-0.4480948
163	0xbeb6f819	-0.35736158
164	0xbed9d1c3	-0.42542848
165	0xbf273679	-0.65317494
166	0xbec65ab5	-0.3874108
167	0xbed51932	-0.41620785
168	0xbefd6085	-0.494877
169	0xbe951a1e	-0.29121488
170	0xbe87129b	-0.26381382
171	0xbf16fa38	-0.58975554
172	0xbf10ab9c	-0.56511855
173	0xbeb0df2a	-0.3454526
174	0xbede2735	-0.43389288
175	0xbecc7031	-0.39929345
176	0xbef9a5a0	-0.48759174
177	0xbf1d3fba	-0.61425364
178	0xbed80499	-0.42191008
179	0xbee8c2f8	-0.4546125
180	0xbe0e340a	-0.13887039
181	0xbf37b607	-0.71762127
182	0xbf27e53a	-0.65584147
183	0xbe97ae9f	-0.29625413
184	0xbeb78376	-0.35842484
185	0xbf215667	-0.63022465
186	0xbf05e915	-0.5230878
187	0xbed7d791	-0.42156652
188	0xbee9590b	-0.45575747
189	0xbf00b76a	-0.5027987
190	0xbf25c1a8	-0.6474862
191	0xbedf0659	-0.4355953
192	0xbe805280	-0.25062943
193	0xbec4616a	-0.3835557
194	0xbf26ad8e	-0.65108573
195	0xbee7abb5	-0.4524819
196	0xbea72f9a	-0.32653505
197	0xbf121d1b	-0.5707566
198	0xbf2e61ba	-0.6811787
199	0xbe9d93ad	-0.3077673
200	0x3d390480	0.045170307
201	0xbd364f7c	-0.044509396
202	0x3d300d5c	0.04298149
203	0x3dca4721	0.09876848
204	0xbd6253ab	-0.055255573
205	0xbd807840	-0.06272936
206	0xbd8d6d22	-0.06905581
207	0x3ca2c479	0.019869076
208	0xbdb10e52	-0.086453095
209	0x3d64ddce	0.055875592
210	0xbce643dd	-0.028108532
211	0x3d96a394	0.07355419
212	0xbce99591	-0.028513702
213	0x3d80a641	0.062817104
214	0xbdc7d989	-0.097582884
215	0x3d5ec7fd	0.054389942
216	0x3d1eafc8	0.038741857
217	0x3d823dc0	0.06359434
218	0xbceb1e81	-0.028701069
219	0xbc9265a9	-0.017870741
220	0xbba919b2	-0.005160534
221	0xbc7b736d	-0.015347344
222	0x3e1e4fa7	0.15460072
223	0x3e08b9f7	0.1335219
224	0xbe0cec42	-0.13762
225	0xbc5c46ac	-0.013444584
226	0x3d32a46e	0.043613844
227	0xbd629f85	-0.05532791
228	0xbdbfbfbb	-0.093627416
229	0x3d7a33ac	0.061084434
230	0x3d140d80	0.036145687
231	0x3ced6579	0.02897905
232	0x3d6c4eb7	0.057692256
233	0x3da31a4f	0.07964002
234	0xbe014bfc	-0.12626642
235	0xbd254f59	-0.040358875
236	0x3dbe71b0	0.09299028
237	0xbcd72cf9	-0.026266562
238	0x3d281bef	0.041042265
239	0x3d87fe4b	0.066402994
240	0x3d253c63	0.040340792
241	0xbd9a9830	-0.07548559
242	0x3d8d88ae	0.06910835
243	0x3db72535	0.089426436
244	0xbd6fad80	-0.058515072
245	0xbcd18ff6	-0.025581341
246	0xbd978a01	-0.07399369
247	0x3d08249f	0.03323805
248	0xbc9c6d61	-0.019095125
249	0xbd3ba9ea	-0.04581634
250	0xbd2017b6	-0.039085113
251	0xbcb51133	-0.022102928
252	0x3cfdf069	0.030998426
253	0x3d64d624	0.055868283
254	0x3d42a34e	0.04751902
255	0x3e030b13	0.12797193

linear.weight f4 [1, 100]
0	0xba5337ae	-0.0008057308
1	0xbdddd3ce	-0.10831414
2	0x3d29ad3a	0.041424967
3	0xbe04abe4	-0.12956196
4	0xbd1b4abe	-0.037913077
5	0xbc8af0a4	-0.01696045
6	0xbce50d44	-0.027960427
7	0xbda0e7e3	-0.07856729
8	0xbd02ea46	-0.0319617
9	0xbb9c4e00	-0.0047700405
10	0x3dd9b7ef	0.10630786
11	0xbca76427	-0.020433499
12	0xbe184839	-0.14871301
13	0xbe64962f	-0.22322915
14	0x3d4823ff	0.048862454
15	0xbea07108	-0.31336236
16	0xbe10f3c4	-0.14155489
17	0xbd2664d0	-0.040623486
18	0x3d82087a	0.06349273
19	0xbd83a509	-0.06427962
20	0x3db836e7	0.08994847
21	0x3c89281e	0.016742762
22	0x3dbcf0a9	0.0922559
23	0xbdb1a154	-0.08673349
24	0x3e7bbae0	0.24583006
25	0x3bac008f	0.00524909
26	0xbc5bc4d2	-0.013413625
27	0xbca310d0	-0.019905478
28	0x3da62a7a	0.081135705
29	0xbe2b0afd	-0.1670341
30	0x3d778a0d	0.06043439
31	0x3c62b21b	0.013836409
32	0xbdb199e6	-0.08671932
33	0x3c241dd7	0.01001688
34	0x3e9ea4da	0.30985147
35	0xbd5215de	-0.051290385
36	0xbcb44ee5	-0.022010276
37	0x3e0b28b1	0.13589741
38	0xbe8b52cb	-0.27211604
39	0x3b8aaf5b	0.00423233
40	0x3da0be16	0.07848756
41	0x3d091215	0.03346451
42	0xbd41c909	-0.047310863
43	0xbe64a157	-0.22327171
44	0x3da68748	0.081312716
45	0xbcd63182	-0.026146654
46	0x3de9e2aa	0.11420186
47	0xbd1a91ad	-0.037736584
48	0x3cb95c6d	0.02262708
49	0xbd77c145	-0.06048705
50	0x3b1ccbeb	0.0023925256
51	0x3d830193	0.06396785
52	0x3da8e2f7	0.08246415
53	0xbdddb065	-0.1082466
54	0xbe1a965d	-0.15096422
55	0xbe0fc62e	-0.14040443
56	0x3c254db4	0.010089327
57	0x3e80bc4e	0.25143665
58	0x3e26c38f	0.16285537
59	0x3d3c2157	0.045930233
60	0xbd85e348	-0.06537491
61	0x3c953a2f	0.01821622
62	0x3c119b58	0.0088871345
63	0x3db5cd24	0.08877018
64	0x3bc86d6b	0.0061165593
65	0xbd8eddcc	-0.06975898
66	0xbca5e8ef	-0.020252673
67	0xbc8a0b63	-0.016851133
68	0xbd5c4648	-0.053777963
69	0x3e653541	0.22383596
70	0x3e4c700c	0.19964617
71	0xbd9c02c0	-0.07617712
72	0x3d367688	0.044546634
73	0x3e668b55	0.22514088
74	0xbcf5c735	-0.030002216
75	0xbc3170a2	-0.010830076
76	0x3e2766fe	0.16347882
77	0xbda9d375	-0.08292285
78	0x3c806fdb	0.015678337
79	0x3e0e4ec0	0.13897228
80	0x3e2c2db1	0.16814305
81	0x3d9c42fb	0.07629963
82	0xbd931f7b	-0.07183739
83	0xbe334dad	-0.175101
84	0x3e0a9953	0.13535051
85	0x3d7f40ee	0.06231778
86	0x3e14dbb2	0.14536932
87	0x3d272578	0.040807217
88	0x3c0de5d8	0.008660756
89	0x3d83e182	0.064394966
90	0x3c358164	0.011078212
91	0x3e38b846	0.18039045
92	0x3e8dd8af	0.2770438
93	0x3e0113d1	0.12605216
94	0xbe0a165a	-0.13485089
95	0xbd44931a	-0.04799185
96	0x3e1ea8c8	0.15494072
97	0xbdbde7f8	-0.0927276
98	0xbce50ee0	-0.027961195
99	0xbe26564a	-0.16243854
