Model/LSTM/LSTM_model_fc.pkl (torch, 3900 bytes, 1 tensors)

weight f4 [1, 600]
-0.017439976 0.039003458 -0.0035323377 0.010311129 0.0024958136 0.031342007 0.0001204508 0.015669715
0.024322424 0.019857693 -0.027764246 0.013166144 0.00860886 -0.00022123041 -0.008003131 0.00083610375
0.011025243 -0.0009777686 -0.039471973 0.0076324833 -0.0019310527 0.025791086 -0.03963452 0.038225584
0.038216542 0.039950762 0.011729845 0.023093192 0.018662516 -0.0394367 -0.038692564 0.013845316
0.0074193412 0.023543455 0.025340732 -0.035109587 -0.0041780514 -0.019794378 0.03838829 -0.020486895
0.035885017 0.0036964088 0.022805847 0.0056343675 -0.023520192 -0.01745389 0.029034304 0.036244933
0.013534251 0.023879223 0.036006335 -0.008673538 -0.020428022 -0.009557905 -0.026201582 -0.03096357
0.038287267 -0.025521904 -0.020465579 0.035694975 0.026439456 0.029701542 0.025559977 -0.0016412553
0.0045907376 -0.02160407 0.007394107 0.02758707 0.021080457 0.026948232 -0.037212223 -0.040221702
-0.010635718 -0.027235819 0.03541491 0.008472689 0.0052240654 0.036522757 -0.04032069 -0.008952594
-0.036290053 -0.0046118395 -0.037823975 -0.035363946 0.02247992 -0.023812214 0.035689805 -0.014101951
-0.0267807 0.035920724 -0.0013584465 0.023935666 0.025918642 0.0015479899 -0.020350283 0.029086007
0.0011624111 -0.034661036 0.029525358 0.01309581 0.0349218 -0.017026639 0.011723299 -0.036067955
0.032963052 0.021450706 0.035266273 0.026353575 -0.035536464 0.010035353 0.033142745 0.017946236
-0.018132728 -0.009556722 -0.015484936 -0.03355634 0.023126967 -0.010774195 0.026825698 0.008196674
-0.03382383 -0.01637521 0.023946242 -0.0032203093 -0.004591658 0.011358574 0.03201674 0.01193446
-0.007089374 0.0030403095 -0.003459454 -0.026639255 0.011172203 -0.03908966 0.034040403 0.007008645
0.00552693 -0.015676066 -0.00594753 -0.038963996 0.017541867 -0.001908111 0.025967617 -0.03358117
-0.028321099 -0.0406695 -0.02854868 0.034757107 0.026647327 -0.040625166 0.022596283 0.026297268
0.027996771 0.039696444 0.024877626 -0.014526201 0.013033122 0.013242862 0.026081298 -0.038649164
-0.008011039 0.0009639519 0.0008819189 -0.023876322 -0.019759528 -0.037836477 0.0091257375 0.014032056
0.030319652 0.004978283 0.033281397 0.03064742 -0.0038558224 -0.017808795 0.038906503 -0.0013123492
-0.02728652 -0.030557005 -0.021177772 -0.0050658346 0.019910084 -0.015875187 -0.022418445 -0.025403444
0.011797365 -0.027049424 0.0025541459 -0.01750264 -0.0040557757 -0.021905879 -0.023551319 -0.0059896996
-0.008014309 -0.028179774 -0.029513547 0.02017275 -0.034490723 0.010032943 0.03929855 -0.028609991
0.03965649 -0.037782513 -0.004353637 0.013036548 -0.011559778 0.032275125 -0.022624407 -0.012605636
0.02631754 0.038716737 0.01350472 -0.009968299 -0.012307487 0.006420169 0.022254111 -0.020871136
-0.004893568 0.029586986 0.029038196 -0.0019685896 0.011714169 0.021361582 -0.0017361024 0.009642727
0.036396347 -0.011409227 0.025697807 -0.035383247 0.008433215 0.014370355 -0.025014842 0.008106641
-0.019437099 0.011941147 0.016597776 0.0003981398 -0.00375734 -0.0002402446 0.014546296 -0.016459307
0.016622566 0.031841833 -0.010739554 -0.02408875 -0.033774097 0.0306823 0.0050358316 -0.02829452
0.015208093 -0.039470617 0.0349172 0.03227484 0.004398289 0.014896952 0.026884653 -0.010278824
00000000: 48de 8ebc 17c2 1f3d cb7e 67bb 02f0 283c
00000010: ce90 233b 7a60 003d 889a fc38 c65d 803c
00000020: d23f c73c 9aac a23c d871 e3bc cfb6 573c
00000030: 2d0c 0d3c 16fa 67b9 901f 03bc f92d 5b3a
00000040: 39a3 343c 7828 80ba 5dad 21bd e919 fa3b
00000050: 601b fdba d447 d33c ce57 22bd 6e92 1c3d
00000060: f388 1c3d 69a3 233d 892e 403c ef2d bd3c
00000070: 22e2 983c 6188 21bd 187c 1ebd 77d7 623c
00000080: f21d f33b 34de c03c 5e97 cf3c 12cf 0fbd
00000090: 09e8 88bb d227 a2bc 0a3d 1d3d 22d4 a7bc
000000a0: 2bfc 123d 733f 723b 54d3 ba3c 80a0 b83b
000000b0: 6bad c0bc 76fb 8ebc 59d9 ed3c 9175 143d
000000c0: c3be 5d3c 5c9e c33c 617b 133d 751b 0ebc
000000d0: ab58 a7bc c298 1cbc b3a4 d6bc 50a7 fdbc
000000e0: 1cd3 1c3d 5013 d1bc 6ea7 a7bc e534 123d
000000f0: 8f97 d83c a650 f33c 2863 d13c 641f d7ba
00000100: e66d 963b 05fb b0bc 444a f23b 47fe e13c
00000110: ecb0 ac3c 8ac2 dc3c d86b 18bd 83bf 24bd
00000120: 6f41 2ebc a71d dfbc 3a0f 113d 09d1 0a3c
00000130: a32e ab3b e398 153d 4f27 25bd e7ad 12bc
00000140: e1a4 14bd ea1e 97bb 50ed 1abd c9d9 10bd
00000150: cf27 b83c d511 c3bc 792f 123d df0b 67bc
00000160: 3363 dbbc 9c21 133d e70d b2ba bb14 c43c
00000170: 5553 d43c ece5 ca3a a3b5 a6bc c745 ee3c
00000180: 0b5c 983a bbf8 0dbd 2adf f13c cf8f 563c
00000190: 290a 0f3d 737b 8bbc 1413 403c febb 13bd
000001a0: 4404 073d 64b9 af3c 5e73 103d 74e3 d73c
000001b0: af8e 11bd 526b 243c b0c0 073d fc03 933c
000001c0: 168b 94bc cc93 1cbc 87b4 7dbc 5f72 09bd
000001d0: c474 bd3c 4086 30bc 91c1 db3c 584b 063c
000001e0: db8a 0abd 4e25 86bc e92a c43c d30b 53bb
000001f0: 9e75 96bb 5019 3a3c fc23 033d c188 433c
00000200: fb4d e8bb ee3f 473b 02b8 62bb 913a dabc
00000210: 9e0b 373c 7b1c 20bd f36d 0b3d c7a8 e53b
00000220: 401b b53b 186b 80bc 7fe3 c2bb b698 1fbd
00000230: f6b3 8f3c 9519 faba 0aba d43c 698c 09bd
00000240: a601 e8bc 1095 26bd ecde e9bc 785d 0e3d
00000250: 7f4b da3c 9366 26bd d71b b93c 5e6d d73c
00000260: 7c59 e53c bd98 223d 2acc cb3c 4eff 6dbc
00000270: e088 553c 97f8 583c 72a8 d53c 964e 1ebd
00000280: bc40 03bc b8b1 7c3a 9330 673a 4798 c3bc
00000290: bcde a1bc 6cfa 1abd 1e84 153c b5e6 653c
000002a0: eb60 f83c dd20 a33b 1352 083d 4c10 fb3c
000002b0: f7b1 7cbb c0e3 91bc 6d5c 1f3d 2203 acba
000002c0: fb87 dfbc af52 fabc 027d adbc 4dff a5bb
000002d0: 791a a33c ae0c 82bc e3a6 b7bc e21a d0bc
000002e0: bc49 413c c196 ddbc 7563 273b b261 8fbc
000002f0: 50e6 84bb f573 b3bc b2ee c0bc 3e45 c4bb
00000300: 734e 03bc 45d9 e6bc 65c6 f1bc 5341 a53c
00000310: 2546 0dbd 3761 243c 84f7 203d 805f eabc
00000320: d86e 223d d6c1 1abd f4a8 8ebb 3f97 553c
00000330: 3965 3dbc ec32 043d d256 b9bc df87 4ebc
00000340: e297 d73c 7195 1e3d e742 5d3c 1452 23bc
00000350: 58a5 49bc 4860 d23b 414e b63c f2f9 aabc
00000360: 395a a0bb 6860 f23c 83e1 ed3c 7403 01bb
00000370: c9ec 3f3c 7cfe ae3c ee8d e3ba 87fc 1d3c
00000380: 5614 153d c4ed 3abc 3584 d23c 06ee 10bd
00000390: 782b 0a3c a371 6b3c edeb ccbc b7d1 043c
000003a0: 8d3a 9fbc cda4 433c 0ff8 873c 6bbd d039
000003b0: b43d 76bb 2bea 7bb9 9653 6e3c abd5 86bc
000003c0: 0c2c 883c 956c 023d f4f4 2fbc c555 c5bc
000003d0: b556 0abd 7259 fb3c 9e03 a53b e9c9 e7bc
000003e0: 5e2b 793c f1ab 21bd 5705 0f3d 9f32 043d
000003f0: 861f 903b 5812 743c 343d dc3c 8368 28bc
