Model/LSTM/LSTM_model_fc.pkl (torch, 1916 bytes, 1 tensors)

weight f4 [1, 100]
000000 0d 2e 4f 3c 2f 92 c7 3d 30 9e 30 bd 00 d4 92 3c
       0.012645257 0.09744679 -0.04311961 0.017923355
000010 93 b8 80 3d da f7 ea bc 53 04 bf 3d 80 85 47 bd
       0.06285205 -0.028682638 0.09326997 -0.0487113
000020 58 16 b3 bd b8 f1 9c 3d 7f a2 94 bd 8d 32 93 bc
       -0.08744496 0.07663292 -0.07257556 -0.01796844
000030 17 f8 b7 bd 23 52 ca 3d da ba 8a 3c 80 0d 3b bc
       -0.08982866 0.098789476 0.0169348 -0.011416793
000040 b2 37 b9 3d e0 5f 01 3d 07 f1 d1 bc a7 51 d5 3c
       0.09043826 0.031585574 -0.025627626 0.026039911
000050 17 e7 81 3d ab 31 9e 3d 33 ab 9e bb 13 59 13 3d
       0.06342905 0.07724317 -0.004842186 0.03597362
000060 fb b9 ca 3d 10 cc 78 3d 15 f9 a4 bd 40 9f 4c 3c
       0.09898754 0.060741484 -0.08055321 0.01248914
000070 f3 d5 83 bd ca 12 3d 3d cd 4a a5 ba db f0 9e bd
       -0.06437292 0.046160497 -0.0012610793 -0.07760783
000080 83 06 5a 3d ad 48 13 bd ba 24 84 bd 6b b6 90 3d
       0.053228866 -0.03595798 -0.064523175 0.070660435
000090 40 61 18 bd f3 14 6a 3d 73 dd 72 3c 8a b4 31 3d
       -0.03720212 0.057148885 0.014823305 0.043385066
0000a0 b2 ea aa bd 9a c7 9c 3d 5a de bf 3c 40 4e 89 3c
       -0.08345546 0.076552585 0.023421455 0.016760945
0000b0 75 63 8d bd 5a 42 e8 bc e5 1a ad 3d b3 f8 58 3d
       -0.069037355 -0.028351951 0.08452395 0.052971553
0000c0 2d 2e 9e 3d c0 b4 b4 bc c7 c2 28 bd 53 fc 50 bd
       0.07723651 -0.022058845 -0.04120138 -0.051021885
0000d0 33 15 56 bd 67 25 f7 bc 4a 42 b9 3d 00 8b b1 bc
       -0.05226631 -0.030169202 0.09045847 -0.021672726
0000e0 ff e0 ba 3d 37 96 4c 3d 9a 6f 81 3d 9f 9f a4 3d
       0.09124946 0.049947944 0.063201144 0.08038258
0000f0 23 36 75 3d 33 94 88 bc 4d 88 c7 bb 27 19 02 3c
       0.059866082 -0.01667223 -0.0060892464 0.007940567
000100 5b 8e 98 3d 68 ac ad bd 3a 6c 66 bd 5f 49 bc 3d
       0.07449027 -0.084801495 -0.056255557 0.09193682
000110 2d 78 b3 bc d3 9a 4f bd 9d ad 39 3d b7 8b 78 3d
       -0.02190789 -0.05068476 0.045331586 0.060680117
000120 fd 3d 15 bd 22 ba b9 bd 00 73 63 bd 97 85 b0 bd
       -0.03643607 -0.09068705 -0.055529594 -0.0861923
000130 58 a9 92 3d 8f bf 86 bd a7 38 52 3d 68 b2 c5 3d
       0.07161206 -0.06579506 0.05132356 0.09653169
000140 33 68 35 bb f3 f7 24 bc 80 86 cd bb 7f c4 c4 3d
       -0.0027680516 -0.010068881 -0.006272137 0.09607791
000150 60 eb a2 3d ff ad c2 bd b8 f9 a6 3d 0d 44 03 3d
       0.079550505 -0.09505843 0.08153099 0.03204732
000160 e0 21 f1 bc 25 73 af bd 63 9e b4 bd c0 88 27 3d
       -0.029435098 -0.08566884 -0.08819272 0.0409019
000170 fd 53 4c 3d 07 a0 f9 3c ba 3f 93 bd 8d d6 33 bd
       0.049884785 0.030471815 -0.07189889 -0.043905783
000180 e0 ae 97 3c af 76 ac bd f7 45 6e 3d 5f fe a6 3d
       0.018516004 -0.084210746 0.058172192 0.08153986
