Model/LSTM/LSTM_model.pt (torch, 168873 bytes, 5 tensors)

lstm.weight_ih_l0 f4 [400, 2]
0	0xbfe24879	-1.7678367
1	0x3f5776c2	0.84165585
2	0xbe84c7b7	-0.2593362
3	0xbe6c8f6c	-0.23101586
4	0xbe7cbd5e	-0.24681613
5	0xbec4228e	-0.38307613
6	0xbe61b168	-0.22040331
7	0xbefe0d04	-0.49619305
8	0x3c181b7e	0.009283898
9	0xbe892d44	-0.26792347
10	0xbf33e6bb	-0.7027394
11	0xbf57ab0b	-0.84245366
12	0xbf04affd	-0.51831037
13	0xbf230b91	-0.63689524
14	0xbeb7c351	-0.35891202
15	0xbf47df9c	-0.78075576
16	0xbe952ff3	-0.29138145
17	0xbee44f8a	-0.44591933
18	0xbf5d553e	-0.86458194
19	0xbf65ac5c	-0.89716125
20	0xbc9f55c5	-0.019450078
21	0xbdd5a255	-0.10431353
22	0xbedf4e3a	-0.4361437
23	0xbf097eac	-0.5370891
24	0xbd8d983c	-0.06913802
25	0xbea48516	-0.32132787
26	0xbf40d14b	-0.75319356
27	0xbe5574b3	-0.20845298
28	0xbeca4513	-0.39505824
29	0xbef7c682	-0.48393637
30	0xbf3bfd29	-0.73433167
31	0xbf10c2d2	-0.5654727
32	0xbeb0abc7	-0.34506056
33	0xbe56ee3b	-0.20989315
34	0xbeca8dcd	-0.3956131
35	0xbef3bafe	-0.476036
36	0xbef53b4c	-0.47896802
37	0xbf022409	-0.50836235
38	0xbf1859ed	-0.59512216
39	0xbf425d1e	-0.75923336
40	0xbf8518f2	-1.0398238
41	0xbeade864	-0.33966362
42	0xbf6b6e3e	-0.9196509
43	0xbe22f38f	-0.15913223
44	0x3ddc3a7f	0.10753345
45	0xbe3a4d50	-0.18193555
46	0xbf3acd08	-0.729691
47	0xbf280e15	-0.6564649
48	0xbf482185	-0.78176147
49	0xbdd7d8a8	-0.10539371
50	0xbf357432	-0.70880425
51	0xbf2c3abe	-0.67277133
52	0xbe57ef9b	-0.21087496
53	0xbebd78bd	-0.37006178
54	0xbf5c1269	-0.8596559
55	0xbeeea916	-0.46613377
56	0x3cab5383	0.020913845
57	0xbe6f9b68	-0.23399127
58	0xbf1067b4	-0.5640824
59	0xbf0bf09f	-0.54664034
60	0xbf0f9b52	-0.56096375
61	0xbeb51693	-0.35368785
62	0xbe7a4a3b	-0.24442379
63	0x3e9636e1	0.29338744
64	0xbeda34a2	-0.4261828
65	0xbf080773	-0.53136367
66	0xbe1e842c	-0.15480107
67	0xbea2fa98	-0.31831813
68	0x3ef6e739	0.48223284
69	0xbf1d9c00	-0.6156616
70	0x3f34a8eb	0.7057025
71	0xbf031298	-0.51200247
72	0xbeca5594	-0.39518416
73	0xbf26883c	-0.6505163
74	0xbf141d6e	-0.57857406
75	0xbf445ddd	-0.76705724
76	0xbe5f0119	-0.21777762
77	0x3dd07c80	0.101799965
78	0xc002fed2	-2.046803
79	0x3f43a2b3	0.76420134
80	0x3f14046a	0.57819235
81	0xbececb65	-0.40389553
82	0xbecc6f87	-0.3992884
83	0x3dcc6a80	0.09981251
84	0xbf516277	-0.8179087
85	0xbf6f4795	-0.934686
86	0xbfaf59dc	-1.3699298
87	0x3ee45794	0.44598067
88	0xbd5decab	-0.054180782
89	0xbed4ecb5	-0.41586843
90	0xbf0ad0a4	-0.5422461
91	0xbee84d0d	-0.45371285
92	0xbf2f5533	-0.6848938
93	0xbee12bba	-0.43978673
94	0xbf279600	-0.65463257
95	0xbeb70e3f	-0.35753056
96	0xbf1b4995	-0.6065915
97	0xbe9506a9	-0.29106644
98	0xbee41400	-0.4454651
99	0xbe08076f	-0.13284086
100	0xbe89dd41	-0.26926616
101	0xbed9745a	-0.42471582
102	0xbe969e5c	-0.29417694
103	0xbea8899c	-0.32917488
104	0xbe90adb4	-0.28257525
105	0xbf076b33	-0.5289795
106	0xbea825f4	-0.32841456
107	0xbee2836d	-0.44240895
108	0xbf0f500c	-0.55981517
109	0xbf02971a	-0.5101181
110	0xbf19dd2c	-0.60103106
111	0xbed52175	-0.41627088
112	0xbf7b6d9d	-0.9821413
113	0x3eb47219	0.352433
114	0xbeff849e	-0.49905866
115	0xbef8ca2a	-0.4859174
116	0xbdebbf5d	-0.11511109
117	0xbeb6550b	-0.35611758
118	0xbf4fc2e4	-0.81156754
119	0xbf25de95	-0.6479276
120	0xbe754e25	-0.23955591
121	0xbf2895f6	-0.6585382
122	0xbe6c962b	-0.2310416
123	0xbe8bf093	-0.2733198
124	0xbeb60b8d	-0.35555688
125	0xbf10446b	-0.563544
126	0xbe60224e	-0.21888086
127	0xbf25b098	-0.64722586
128	0xbe0c9ec1	-0.13732435
129	0xbea6f427	-0.32608148
130	0xbf4d5b4f	-0.8021745
131	0xbe8e1108	-0.2774737
132	0xbe714b9d	-0.23564
133	0xbe87faf6	-0.26558656
134	0xbf34229f	-0.7036533
135	0xbf15c34b	-0.5850112
136	0xbf392a35	-0.7233003
137	0xbeec0c5d	-0.46103182
138	0xbec2caac	-0.3804525
139	0xbf0781ab	-0.5293223
140	0xbf3aae04	-0.72921777
141	0xbf15ded9	-0.58543164
142	0xbf2360e0	-0.63819695
143	0xbed98b5f	-0.42489144
144	0xbee264ce	-0.44217533
145	0xbf5289f2	-0.8224174
146	0xbe12af2b	-0.14324634
147	0xbf0f16f9	-0.5589443
148	0xbe877ff5	-0.2646481
149	0xbe29de52	-0.16588715
150	0xbe291f4a	-0.16515842
151	0xbe8dfae0	-0.27730465
152	0xbe816e8d	-0.25279656
153	0xbeb20803	-0.34771737
154	0xbe839828	-0.25702024
155	0xbf07e6a9	-0.53086334
156	0xbecd0577	-0.40043232
157	0xbf128fac	-0.57250476
158	0x3f26d52e	0.65169036
159	0x3e1e6bd6	0.15470824
160	0xbecb7e63	-0.39744863
161	0xbef437e5	-0.47698894
162	0xbe1f8f29	-0.15581955
163	0xbf25475b	-0.64562005
164	0xbf4ed894	-0.8079922
165	0xbeb472a3	-0.3524371
166	0xbf218e15	-0.63107425
167	0xbdff3987	-0.12462144
168	0xbccfdd1e	-0.025373992
169	0xbe3af209	-0.18256392
170	0xbe482fe2	-0.19549516
171	0xbece0b07	-0.40242788
172	0xbf141bbd	-0.57854825
173	0xbf6c4cf0	-0.923049
174	0xbf6fde2b	-0.93698376
175	0xbf3e9340	-0.74443436
176	0xbf5534a2	-0.83283436
177	0xbf1f1ac4	-0.62150216
178	0xbf809de3	-1.0048183
179	0xbf3be75c	-0.733999
180	0xbeceb93e	-0.40375704
181	0xbeb17c02	-0.34664923
182	0xbecad412	-0.39614922
183	0xbf41e4d2	-0.7573978
184	0xbf23f6f1	-0.6404868
185	0xbeacb79f	-0.33733842
186	0xbefbd693	-0.49187145
187	0xbf6a248a	-0.91462004
188	0xbe8b2c5d	-0.27182284
189	0xbe99e78e	-0.30059475
190	0xbf11fbef	-0.57025045
191	0xbeddcc6d	-0.43320027
192	0xbf0df28e	-0.55448234
193	0xbf11bec7	-0.5693173
194	0xbf14bb43	-0.5809824
195	0xbe605790	-0.21908402
196	0xbf115e83	-0.5678484
197	0xbf67568f	-0.9036645
198	0xbf1d3654	-0.61411023
199	0xbeb15801	-0.34637454
200	0xbfc169f0	-1.5110455
201	0xbd6d0ba7	-0.05787244
202	0xbe14df22	-0.14538243
203	0xbf14addb	-0.5807778
204	0x3beedca4	0.007289486
205	0xbe751e07	-0.23937236
206	0x3dcebb3d	0.100943066
207	0xbdb52612	-0.08845152
208	0x3df428e0	0.11921859
209	0xbda14192	-0.07873835
210	0xbecc7971	-0.39936402
211	0xbf2046b0	-0.6260786
212	0xbe340276	-0.17579064
213	0xbeeb7241	-0.45985606
214	0xbe236170	-0.15955138
215	0xbf10910e	-0.56471336
216	0x3cee14fb	0.029062739
217	0xbebee662	-0.37285143
218	0xbe1aa451	-0.15101744
219	0xbf45af67	-0.7722077
220	0x3e1710ba	0.14752474
221	0xbd22cad8	-0.039744228
222	0xbd9cfb24	-0.07665089
223	0xbe866391	-0.26247838
224	0x3cc01f18	0.023452327
225	0xbe0f9446	-0.14021406
226	0x3c11f25e	0.0089078825
227	0xbf4442db	-0.76664513
228	0xbc4ecaad	-0.012621564
229	0xbe6cbde8	-0.23119318
230	0xbd7fb772	-0.062430806
231	0xbebfe1b0	-0.37476873
232	0xbe5049cd	-0.20340653
233	0xbd60b118	-0.05485639
234	0xbe215a49	-0.15757097
235	0xbee8986c	-0.4542879
236	0xbe4df299	-0.20112075
237	0xbeabd7c4	-0.33563054
238	0xbdae908c	-0.08523664
239	0xbe8dc980	-0.27692795
240	0xbea22641	-0.3166981
241	0xbf837c95	-1.0272394
242	0xbed433a8	-0.4144566
243	0xbf7a17cc	-0.9769256
244	0x3e16803e	0.14697358
245	0xbdaccbe9	-0.0843733
246	0xbed85279	-0.42250422
247	0xbf1f9ad3	-0.6234562
248	0xbe90daf0	-0.28292036
249	0xbf356585	-0.7085803
250	0xbe060021	-0.13085987
251	0xbf040fff	-0.5158691
252	0x3c3086b9	0.010774308
253	0xbec312b4	-0.38100207
254	0xbe3f8f52	-0.18707016
255	0xbef2076b	-0.47271284

lstm.weight_hh_l0 f4 [400, 100]
0	0xbf058422	-0.52154744
1	0xbee4dc07	-0.44699118
2	0x4002c684	2.0433664
3	0x3fad72c7	1.3550652
4	0xbf953f4f	-1.1659945
5	0xbfa1b710	-1.2633991
6	0x4013aae1	2.3073046
7	0x3ef068ea	0.46955043
8	0x400a929a	2.1651978
9	0x3fc832de	1.5640523
10	0xbfaeab8c	-1.3646102
11	0x3f8ebd6d	1.1151558
12	0xbfaf3cc3	-1.3690418
13	0xc0293d94	-2.6443834
14	0x3f89f60f	1.0778216
15	0xbfd90aac	-1.6956382
16	0xbfa35294	-1.2759576
17	0xc00a7bdd	-2.16381
18	0xbffb2c6c	-1.9622931
19	0xbfe0ba49	-1.755685
20	0x400b7804	2.1792002
21	0xbf3aecad	-0.7301739
22	0x3fe0fd16	1.7577236
23	0x3ffff695	1.9997126
24	0x3f4dd375	0.8040078
25	0x4005351a	2.081366
26	0xc0282560	-2.6272812
27	0x401361f9	2.3028548
28	0xbe59fd2c	-0.21287984
29	0xbf389511	-0.7210246
30	0xbfbdea1d	-1.4837071
31	0x40285bdd	2.630607
32	0xbfd5cd47	-1.6703271
33	0x3f0da729	0.5533319
34	0x3e819cbe	0.25314897
35	0x3f3e7655	0.7439931
36	0x3f99e137	1.2021855
37	0x40012b20	2.0182571
38	0xbf57544a	-0.8411299
39	0xbf2d469a	-0.67685854
40	0x3e92a00e	0.28637737
41	0x3f34f2fb	0.7068326
42	0x3f99a5c1	1.2003709
43	0xbea9fc33	-0.33200225
44	0x3fbfd680	1.4987335
45	0xbfd1588a	-1.6355145
46	0x40220125	2.5313199
47	0x401ce2a2	2.4513326
48	0x40104e15	2.2547657
49	0x3f8cc9d7	1.0999097
50	0xbfe1039d	-1.7579228
51	0xbf458055	-0.77148944
52	0x3feacefe	1.8344419
53	0x3fe4da4a	1.7879117
54	0xbfd62180	-1.6728973
55	0x3fe657d4	1.7995553
56	0x3f526b9c	0.8219545
57	0xbf9ed13b	-1.2407602
58	0xbf952fcc	-1.1655211
59	0x3fa9ac24	1.3255658
60	0xbf36a6a3	-0.7134802
61	0xbfaed153	-1.3657631
62	0x3fde09a9	1.7346698
63	0x3f9ce806	1.2258308
64	0xbfd465f2	-1.6593611
65	0x3f3925db	0.7232339
66	0xbfd87a67	-1.6912354
67	0x3ff1177c	1.8835292
68	0x40306b1e	2.756538
69	0xbfb16489	-1.3858806
70	0x3fdeee32	1.7416441
71	0xbf9a93b9	-1.2076331
72	0xbfa382e1	-1.2774316
73	0x3f028f37	0.5099978
74	0x3fbefd2a	1.492101
75	0x40020e15	2.0321095
76	0xc00a741e	-2.1633372
77	0xbf1eebb5	-0.6207841
78	0xbfbc05a3	-1.468922
79	0xbf363396	-0.71172464
80	0x4009a696	2.1507926
81	0x3f40e858	0.7535453
82	0xbf1b9339	-0.6077152
83	0x3f778fb7	0.96703666
84	0x3ecd2c5d	0.4007291
85	0x3f899170	1.0747509
86	0xbf0ae67e	-0.54257953
87	0x3fd1da80	1.6394806
88	0xbf751232	-0.9573089
89	0x3fbfab87	1.4974221
90	0xbfd3b261	-1.6538812
91	0xbf7e8702	-0.99424756
92	0x3fbc6c48	1.4720545
93	0x3dca4ade	0.09877561
94	0xbfb469c4	-1.4094777
95	0x40171424	2.3606043
96	0x3fc7c69c	1.5607486
97	0xbf8793e1	-1.0592004
98	0x3fb4a34c	1.4112334
99	0xbf9f05fd	-1.2423702
100	0x3ea9614d	0.33082047
101	0xbdb96d22	-0.090540186
102	0x3e099a25	0.13437708
103	0xbe34717b	-0.17621414
104	0xbd2dc8c7	-0.042427804
105	0xbb8ee638	-0.0043609403
106	0xbe1ae0fb	-0.15124886
107	0x3cdeecf7	0.027212603
108	0xbdb50dcf	-0.088405244
109	0xbb817367	-0.0039505246
110	0x3e734cd2	0.23759773
111	0xbd4ab43a	-0.049488284
112	0xbc817dcb	-0.015807053
113	0xbe526e1b	-0.20549814
114	0xbe89ad9a	-0.2689026
115	0x3cc91f03	0.02455092
116	0x3efe90d7	0.4971988
117	0x3e018f44	0.12652308
118	0x3e2d9a98	0.16953504
119	0x3d386dc2	0.04502655
120	0x3d8e085c	0.06935188
121	0xbe9b06a3	-0.302785
122	0xbde38367	-0.111090474
123	0xbe324f71	-0.17413117
124	0x3dcd8b09	0.100362845
125	0x3d31cfad	0.043410946
126	0xbc04b7a9	-0.008100429
127	0x3d369d15	0.0445834
128	0x3e9507f9	0.29107645
129	0xbe4b779d	-0.19869848
130	0x3e6d2b4f	0.23161052
131	0xbd69f218	-0.057115644
132	0x3dd23f59	0.10265989
133	0x3e822dd3	0.25425586
134	0xbd37c24c	-0.04486303
135	0xbda33d1f	-0.07970642
136	0xbe5e4591	-0.21706225
137	0x3e06788b	0.13131921
138	0xbe2125a3	-0.15737014
139	0x3ee595fa	0.44840986
140	0xbd875bf7	-0.06609338
141	0x3d507bbb	0.05089925
142	0x3d0be10e	0.034150176
143	0xbed2f7b4	-0.41204607
144	0x3a8f47e9	0.0010931465
145	0x3ebcd3b1	0.36880258
146	0xbe098e7c	-0.1343326
147	0xbd91c711	-0.07118047
148	0x3db8c3bb	0.090217076
149	0xbb954294	-0.004555056
150	0x3d84bff0	0.06481922
151	0xbe884129	-0.26612213
152	0x3ba0228e	0.0048869317
153	0xbe2abc8d	-0.16673489
154	0x3e6a27b4	0.22866708
155	0xbe7c2b0b	-0.24625795
156	0x3e9e95d3	0.30973682
157	0x3ec60c2e	0.38681167
158	0xbcfa3e24	-0.03054721
159	0x3c91f06a	0.017814834
160	0xbd7c7552	-0.061635323
161	0x3e3b6f7e	0.1830425
162	0xbe297a0e	-0.16550466
163	0xbcd3d963	-0.025860494
164	0x3d9e8092	0.077393666
165	0xbddf8177	-0.10913365
166	0x3d7d58a6	0.06185212
167	0x3db8b4ae	0.09018837
168	0x3e28e9de	0.16495463
169	0x3e27fc1c	0.16404766
170	0xbe8af4ce	-0.27139896
171	0x3e306f1e	0.17229888
172	0x3d7cece9	0.061749373
173	0x3ca13fa8	0.019683674
174	0xbeca3b3f	-0.39498326
175	0xbe2e6205	-0.17029579
176	0x3e386220	0.18006182
177	0xbd38571e	-0.045004956
178	0x3e72299a	0.23648682
179	0xbded9de9	-0.116023846
180	0xbe44a7c9	-0.1920463
181	0x3d43150a	0.047627486
182	0x3d43b299	0.047777746
183	0xbeec3ab2	-0.4613853
184	0x3e3d8208	0.18506634
185	0x3e1fdabc	0.15610784
186	0xbe26449d	-0.16237111
187	0xbe1c1950	-0.15244031
188	0xbd6c912d	-0.057755638
189	0x3e1064df	0.1410098
190	0x3ebb5d3e	0.36594576
191	0xbe0bea3e	-0.13663575
192	0xbeb45e74	-0.35228312
193	0x3d9eda92	0.07756533
194	0x3ec486e5	0.38384166
195	0xbe0b8045	-0.1362315
196	0xbe0d587a	-0.13803282
197	0xbd7f38d2	-0.062310047
198	0x3dd65f90	0.10467446
199	0x3eeea078	0.46606803
200	0x3f96c803	1.1779789
201	0x3e1fa87f	0.1559162
202	0x3e4812c4	0.19538409
203	0x3d03bf65	0.03216495
204	0xbdd10157	-0.10205334
205	0xbe3c29c6	-0.1837531
206	0x3de9becb	0.11413344
207	0x3e037948	0.12839234
208	0x3eab3d56	0.33445233
209	0xbd70a5a8	-0.058751732
210	0xbe162186	-0.14661226
211	0x3def2d67	0.11678582
212	0xbde1b21c	-0.110203
213	0xbdc5a794	-0.096511036
214	0xbdc4bef0	-0.09606731
215	0xbdccfe3b	-0.10009428
216	0xbe2660cc	-0.16247863
217	0xbe471474	-0.19441396
218	0xbea306b6	-0.31841058
219	0xbdad6144	-0.084658176
220	0x3cc622ee	0.024186578
221	0xbdd14e2a	-0.10219987
222	0x3cd650bb	0.026161542
223	0x3e41e2b2	0.18934134
224	0xbe2566a7	-0.1615244
225	0x3e99c9ab	0.30036673
226	0xbe19479c	-0.14968723
227	0x3e8e180b	0.27752718
228	0x3dd886af	0.10572564
229	0x3ba7e5f3	0.0051238476
230	0xbea4fbba	-0.32223302
231	0x3e7a4b51	0.24442793
232	0xbe546c2d	-0.20744391
233	0x3e18c8b8	0.14920318
234	0x3e14c8ba	0.14529696
235	0x3e763c56	0.24046454
236	0x3d1b61b8	0.03793499
237	0x3e7c8627	0.2466055
238	0x3cddb797	0.027065082
239	0x3fadd192	1.3579581
240	0x3dbc345e	0.09189676
241	0xbd8bfd17	-0.068353824
242	0x3d1752cb	0.036944192
243	0x3e2c75cb	0.1684181
244	0x3d82253c	0.06354758
245	0xbdf7352a	-0.12070687
246	0x3e6ec64a	0.23317829
247	0x3e741047	0.23834334
248	0x3e9df8b0	0.30853796
249	0x3e9bfe92	0.3046766
250	0xbe69c145	-0.22827633
251	0xbd9e5cdb	-0.077325545
252	0x3ea84c9c	0.32870948
253	0x3e6ef7f2	0.23336771
254	0xbd72e914	-0.059304312
255	0x3e3434d8	0.17598283

lstm.bias_ih_l0 f4 [400]
0	0xbdb27b55	-0.0871493
1	0xbecc03c7	-0.39846632
2	0x3b3ee8f8	0.002913056
3	0xbd5ed850	-0.05440551
4	0xbde90d71	-0.11379517
5	0xbe82d634	-0.2555405
6	0xbc820c6d	-0.015875066
7	0xbef09300	-0.46987152
8	0x3ce878ec	0.028377973
9	0xbe5828e3	-0.21109347
10	0xbdd0dbc3	-0.10198166
11	0xbe5c7b48	-0.21531403
12	0xbdae8922	-0.0852225
13	0x3d98ac8c	0.07454786
14	0xbe44f5fb	-0.19234459
15	0xbe39b75a	-0.1813635
16	0x3d2e5ee0	0.04257095
17	0xbcbc41d4	-0.022980608
18	0xbcf0232a	-0.029313643
19	0xbdf7843b	-0.12085768
20	0x3c269f68	0.010169841
21	0xbe99e2e0	-0.30055904
22	0x3d929e14	0.07159057
23	0xbd34dbd3	-0.044154953
24	0xbee9d921	-0.4567347
25	0xbd28406a	-0.041077055
26	0x3dccb6a4	0.099957734
27	0xbd5b356d	-0.053517748
28	0xbe33c7c0	-0.17556667
29	0xbefdfb14	-0.4960562
30	0xbd577b67	-0.05260792
31	0x3ec8200f	0.3908696
32	0xbe09c969	-0.13455738
33	0xbead29ee	-0.33821052
34	0xbf26220c	-0.648957
35	0xbec3aa97	-0.38216087
36	0xbe4c6e6f	-0.19964002
37	0xbdee707d	-0.11642549
38	0xbef20798	-0.4727142
39	0xbd90e41a	-0.07074757
40	0xbe8128e9	-0.25226524
41	0xbeff3654	-0.49846137
42	0xbec6ccaf	-0.38828036
43	0xbe266550	-0.16249585
44	0x3bedd36a	0.0072578685
45	0xba1f6d25	-0.00060816325
46	0x3cb1683b	0.021656146
47	0x3ddf930b	0.10916718
48	0x3e1aa1b3	0.15100746
49	0x3e4c027f	0.19922827
50	0xbdd7ecf1	-0.1054324
51	0xbf161c07	-0.58636516
52	0xbd2f2594	-0.042760447
53	0x3aac49d0	0.0013144556
54	0xbde91095	-0.11380116
55	0xbe1e1f8a	-0.15441719
56	0xbe825019	-0.25451735
57	0xbe0c3de5	-0.13695486
58	0xbe3134d1	-0.17305304
59	0xbb33bf98	-0.0027427431
60	0xbee8a02a	-0.45434695
61	0x3d332ab4	0.043741897
62	0xbd579e77	-0.05264136
63	0xbee52746	-0.44756526
64	0xbdec7cd6	-0.11547248
65	0xbecc0626	-0.3984844
66	0x3d3c2772	0.045936055
67	0xbb9c8e1a	-0.004777682
68	0xbd5cac70	-0.053875387
69	0xbd85e7bc	-0.065383404
70	0xbd716fc9	-0.058944497
71	0x3c9f273f	0.019427894
72	0xbee210f8	-0.4415357
73	0xbeeee4cc	-0.46658933
74	0x3e48b721	0.19601108
75	0x3e2f4f13	0.17120008
76	0x3e1b3dee	0.15160343
77	0xbddf2533	-0.10895767
78	0xbdcf8ee2	-0.101346746
79	0xbeb2ba42	-0.34907728
80	0xbd6efa37	-0.058344092
81	0xbed293fc	-0.41128528
82	0xbeec7a65	-0.4618713
83	0x3dfe8df7	0.124294214
84	0xbda1b3e0	-0.078956366
85	0xbe495293	-0.19660406
86	0xbed90184	-0.4238397
87	0xbe734722	-0.23757604
88	0xbe6c762c	-0.23091954
89	0xbe6198ee	-0.22030994
90	0x3dbe4879	0.09291167
91	0xbe852c36	-0.26010293
92	0x3cfc9eab	0.030837378
93	0xbf096eec	-0.5368488
94	0x3d8f40d2	0.06994785
95	0x3d15daa9	0.036585484
96	0xbdd63d9d	-0.104609706
97	0x3d470914	0.048592642
98	0xbed06e91	-0.40709355
99	0x3d820a91	0.06349672
100	0xbf03cd21	-0.51484877
101	0xbf295d51	-0.66158015
102	0xbdf9c87c	-0.121964425
103	0xbc837916	-0.01604895
104	0xbdfa641e	-0.12226127
105	0xbea23926	-0.31684226
106	0xbdf058f3	-0.11735716
107	0xbec19892	-0.37811714
108	0xbdf6f15a	-0.12057753
109	0xbe352b97	-0.1769241
110	0x3db4b7c7	0.08824115
111	0xbd831a8c	-0.06401548
112	0xbd88904e	-0.06668149
113	0xbe1935e5	-0.14961965
114	0xbe595ef7	-0.21227632
115	0xbd02da0e	-0.031946234
116	0x3d569367	0.052386668
117	0x3bfa2c53	0.0076346784
118	0x3c8d0feb	0.017219504
119	0xbddc382a	-0.107529
120	0xbe0efeb0	-0.13964343
121	0xbf1173de	-0.56817424
122	0xbcaf1a12	-0.021374736
123	0xbe2f87c3	-0.17141633
124	0xbf1cfe06	-0.6132511
125	0xbd864bd9	-0.065574355
126	0xbd854482	-0.065072075
127	0xbe07d375	-0.13264258
128	0xbedf4e73	-0.4361454
129	0xbefa3a1e	-0.48872465
130	0xbddc47e2	-0.10755898
131	0xbe04a9bc	-0.12955374
132	0xbe3712ab	-0.17878215
133	0xbe9412b1	-0.2892051
134	0xbf2ae85a	-0.6676079
135	0xbf1b5def	-0.60690206
136	0xbe60ebd0	-0.21964955
137	0xbd61310d	-0.05497842
138	0xbeefa45b	-0.4680508
139	0xbed55b95	-0.41671434
140	0xbefe48e1	-0.49664977
141	0xbf0c8d86	-0.5490345
142	0xbe63ba98	-0.22239149
143	0xbf3cc4a8	-0.73737574
144	0x3bbd1cdc	0.0057712626
145	0x3bd9538a	0.006632273
146	0xbdce642e	-0.100777015
147	0xbd30564e	-0.043051057
148	0xbe2b008a	-0.16699424
149	0x3d554317	0.052065935
150	0xbdf9926d	-0.121861316
151	0xbee41f8e	-0.44555324
152	0xbdbe1a2b	-0.09282335
153	0x3daf1bab	0.08550199
154	0xbd6297b2	-0.05532045
155	0xbdf149d3	-0.11781659
156	0xbf1588fd	-0.5841215
157	0x3be5170b	0.0069912723
158	0xbc84e334	-0.01622162
159	0xbda8a1ba	-0.08233972
160	0xbe81dad8	-0.25362277
161	0x3d5dd8a6	0.05416169
162	0xbdfa6568	-0.12226373
163	0xbead78ee	-0.33881325
164	0x3a2c4e94	0.00065729883
165	0xbe642d56	-0.2228292
166	0x3d8e9030	0.06961095
167	0xbd259cbb	-0.040432673
168	0xbdede872	-0.11616601
169	0xbdbfdce0	-0.093683004
170	0xbdfcaa14	-0.12337127
171	0xbdb82fad	-0.089934684
172	0xbe68feb2	-0.22753409
173	0xbeb1091b	-0.3457726
174	0x3bca581c	0.0061750542
175	0x3c81ecf3	0.015860057
176	0x3d92da55	0.0717055
177	0xbe2c2a71	-0.16813065
178	0xbce55414	-0.027994193
179	0xbf397b19	-0.7245346
180	0xbd3bb883	-0.04583026
181	0xbea37902	-0.3192826
182	0xbf7b2e8b	-0.98117894
183	0x3d9f1d5c	0.07769272
184	0xbe215863	-0.15756373
185	0xbe23a542	-0.1598101
186	0xbece5415	-0.40298524
187	0xbe2c7591	-0.16841723
188	0xbedab7cf	-0.4271836
189	0xbe89ac3f	-0.26889226
190	0xbd8c54e3	-0.06852128
191	0xbec22c20	-0.3792429
192	0xbdd39ff2	-0.103332415
193	0xbf1339ca	-0.57510054
194	0x3b4776da	0.0030435831
195	0xbe0b2bbb	-0.135909
196	0xbdbb68b1	-0.09150828
197	0xbde38c72	-0.11110772
198	0xbec102da	-0.37697488
199	0x3d3324d2	0.043736286
200	0x3d401549	0.0468953
201	0x3c07afeb	0.008281688
202	0x3da8d81c	0.082443446
203	0xbd00efea	-0.0314788
204	0xbc41bc87	-0.011824734
205	0xbca2a30a	-0.019853134
206	0x3d5ddf58	0.054168075
207	0x3d6c7395	0.057727415
208	0xbd83f664	-0.0644348
209	0x3c6ff2ec	0.014645319
210	0xbcdb845e	-0.026796516
211	0x3cf3fa92	0.029782567
212	0xbcd98bda	-0.026555944
213	0x3d482178	0.048860043
214	0x3c63a31c	0.013893869
215	0x3c9d963d	0.019236678
216	0xbb8b9a0a	-0.0042603062
217	0x3d04df37	0.032439437
218	0xbd666507	-0.05624869
219	0xbc9d286a	-0.01918431
220	0x3d5ee8c5	0.054421205
221	0x3885dbe2	6.3828906e-05
222	0xbd282be3	-0.04105748
223	0x3d1b199c	0.03786622
224	0x3ce51638	0.027964696
225	0x3daf0025	0.085449494
226	0xbcf3b853	-0.029750979
227	0xbcd86acb	-0.02641811
228	0x3d59bd27	0.053158905
229	0xbd7aa163	-0.061189067
230	0x3cb2431d	0.021760518
231	0x3ca10cc1	0.019659402
232	0x3d34dd4f	0.04415637
233	0x3d433bd7	0.04766449
234	0xbc6e1ded	-0.014533502
235	0xbd52253f	-0.051305052
236	0x3bcab2ee	0.006185881
237	0x3cff883c	0.031192891
238	0x3a21a3c0	0.0006166063
239	0x3b7f3b38	0.003894521
240	0xbd16637d	-0.036715973
241	0x3c925cde	0.017866548
242	0x3cd4368a	0.025904913
243	0x3d289301	0.04115582
244	0x3d17450c	0.036931083
245	0xbc4c3817	-0.012464545
246	0x3d646c84	0.05576755
247	0xbd5947c1	-0.053046945
248	0xbda1d657	-0.0790221
249	0x3be4d721	0.006983653
250	0xbd9da1df	-0.0769689
251	0x3bd1ff70	0.0064086244
252	0xbd789d88	-0.06069711
253	0x3d59cd26	0.05317416
254	0xbce9b071	-0.028526517
255	0xbd8dce90	-0.06924164

lstm.bias_hh_l0 f4 [400]
0	0xbe42f762	-0.19039682
1	0xbee47e8b	-0.44627795
2	0x3da41cdc	0.08013317
3	0xbdf04d4e	-0.11733495
4	0xbdf6b3ca	-0.12046011
5	0xbe9bcf7a	-0.3043173
6	0xbdb7f36e	-0.089819774
7	0xbee7b277	-0.45253345
8	0xbcfb0018	-0.030639693
9	0xbea0cb40	-0.31405067
10	0x3da7b473	0.08188715
11	0xbe45b0f9	-0.19305791
12	0xbde64d18	-0.11245173
13	0x3dcc5e79	0.09978957
14	0xbe6e98e0	-0.23300505
15	0xbe463b35	-0.19358523
16	0x3d34233c	0.043978915
17	0xbb3e70d1	-0.0029058943
18	0xbca5ff35	-0.020263294
19	0xbdef0640	-0.11671114
20	0x3c1e4421	0.009659798
21	0xbeab5e6e	-0.33470482
22	0x3d943ddf	0.072383635
23	0xbd485f9b	-0.0489193
24	0xbf0329c1	-0.51235586
25	0xbdafacb4	-0.085778624
26	0x3e4c815e	0.19971225
27	0xbd111aab	-0.035425823
28	0xbe856480	-0.26053238
29	0xbf16d552	-0.5891925
30	0xbd4bd3dc	-0.04976259
31	0x3f01cc4b	0.5070235
32	0xbe4f2a98	-0.20231092
33	0xbe9a34a0	-0.30118275
34	0xbf0b65ce	-0.54452217
35	0xbeacf55c	-0.33780944
36	0xbe7c8dcd	-0.24663468
37	0xbd721dea	-0.05911056
38	0xbf10be77	-0.56540626
39	0xbde5d0c3	-0.11221459
40	0xbe9a6c5c	-0.30160797
41	0xbef923e5	-0.48660198
42	0xbea0afed	-0.3138422
43	0xbdf360da	-0.11883707
44	0xbe13864c	-0.14406699
45	0x3b495104	0.0030718455
46	0x3de23060	0.11044383
47	0x3e2eab6a	0.17057577
48	0x3d367ba3	0.044551503
49	0x3e339c35	0.17540057
50	0xbcb5829d	-0.022157008
51	0xbf127716	-0.5721296
52	0x3d721dad	0.059110332
53	0xbbf38ffa	-0.007432935
54	0xbdad1c8e	-0.08452712
55	0xbd69f8c4	-0.057122007
56	0xbe8a782e	-0.27044815
57	0xbe0b9246	-0.13630018
58	0xbd12249b	-0.03567944
59	0xbe23f9da	-0.1601328
60	0xbee000da	-0.4375065
61	0xbbdaad1d	-0.0066734687
62	0x3c5d9791	0.013524906
63	0xbed42c50	-0.41440058
64	0x3d098a55	0.03357919
65	0xbeaa9fe0	-0.333251
66	0x3d0650f5	0.03279205
67	0x3c10936e	0.0088242125
68	0x3d5be563	0.053685557
69	0xbe0679d7	-0.13132416
70	0xbde1bb41	-0.11022044
71	0xbdd7e0f9	-0.10540957
72	0xbeb63d02	-0.3559342
73	0xbed666c5	-0.41875282
74	0x3e379351	0.1792729
75	0x3dd4f6d7	0.103986435
76	0x3b2c3451	0.00262763
77	0xbdea75e2	-0.114482656
78	0xbcefb789	-0.029262321
79	0xbeb7dfd7	-0.35912964
80	0x3d05bb2c	0.032649204
81	0xbf04dbfd	-0.51898175
82	0xbf0b82bc	-0.5449636
83	0x3dda8776	0.106703684
84	0xbc4ad868	-0.012380697
85	0xbdd57d07	-0.10424238
86	0xbf0655a3	-0.5247442
87	0xbe072aa3	-0.13199858
88	0xbebcdd33	-0.36887512
89	0xbe9059c0	-0.28193474
90	0x3dea64c2	0.11444999
91	0xbe30cdc9	-0.17266001
92	0xbcaf1dc8	-0.021376505
93	0xbf048b39	-0.51774937
94	0xbc729c5b	-0.014807786
95	0xbc7a0a3e	-0.015261231
96	0xbb4e2306	-0.003145398
97	0x3e054204	0.13013464
98	0xbeaa27d7	-0.3323352
99	0x3d932389	0.07184512
100	0xbf1733c8	-0.59063387
101	0xbf4cda22	-0.80020344
102	0xbcd75bb8	-0.026288852
103	0x3d428f08	0.047499686
104	0x3d0dbf7f	0.034606453
105	0xbe8bb87c	-0.27289188
106	0xbe20e215	-0.15711243
107	0xbeb585f8	-0.35453773
108	0x3c9b9364	0.01899118
109	0xbe24cfc2	-0.16094878
110	0x3dbbbcd1	0.09166873
111	0xbde533d8	-0.11191529
112	0x3b88d376	0.0041755987
113	0xbdb12584	-0.08649734
114	0xbd8485e3	-0.06470849
115	0xbe4864e9	-0.19569744
116	0x3dd9999b	0.10625001
117	0xbd0321fe	-0.03201484
118	0x3ceec880	0.02914834
119	0xbd808f62	-0.06277348
120	0xbe84298e	-0.25812954
121	0xbf1cd788	-0.61266375
122	0x3da8211e	0.082094416
123	0xbe86098a	-0.26179153
124	0xbf21d56a	-0.6321627
125	0xbb8cdb2c	-0.0042985883
126	0xbd0cf670	-0.03441471
127	0x3d5f9556	0.054585777
128	0xbe837f21	-0.2568293
129	0xbed8a074	-0.42309916
130	0x3d93e514	0.072214276
131	0xbd626f36	-0.05528184
132	0xbe298adb	-0.16556875
133	0xbeb6912d	-0.35657635
134	0xbf0dec33	-0.55438536
135	0xbf24c12a	-0.64357245
136	0xbe6c0f48	-0.23052704
137	0xbe275ff0	-0.16345191
138	0xbf03cd49	-0.51485115
139	0xbeb752b1	-0.35805276
140	0xbef909c8	-0.48640275
141	0xbf26f7be	-0.65221775
142	0xbe8639e0	-0.2621603
143	0xbf346b6d	-0.7047642
144	0xbdf96adb	-0.12178584
145	0xbd491653	-0.049093556
146	0xbe0055ed	-0.12532778
147	0xbd573b7c	-0.052546963
148	0xbd3f2d75	-0.04667421
149	0xbe055793	-0.13021688
150	0x3c318178	0.01083409
151	0xbede35dc	-0.43400466
152	0x3d28f9c3	0.041253816
153	0x3db9af85	0.09066681
154	0xbe33ea60	-0.17569876
155	0xbe2c0d20	-0.16801882
156	0xbf1a08ab	-0.60169476
157	0xbd5320df	-0.05154502
158	0xbcf8e082	-0.030380491
159	0xbdc02227	-0.09381514
160	0xbeb7fd0c	-0.35935247
161	0xbd5a140c	-0.053241774
162	0xbdd651ef	-0.10464846
163	0xbe7a87a2	-0.24465802
164	0xbce1ef09	-0.027579801
165	0xbead3bd2	-0.33834702
166	0xbdcf1f14	-0.101133496
167	0xbd36802d	-0.04455583
168	0xbcd4de36	-0.025984865
169	0x3d0244d6	0.03180393
170	0xbe59f40b	-0.21284501
171	0xbde21198	-0.11038512
172	0xbe67a22b	-0.22620456
173	0xbe8e3c24	-0.2778026
174	0x3bdbdab6	0.006709422
175	0x3d6bb182	0.05754233
176	0xbcfcaddf	-0.030844627
177	0xbe94e049	-0.29077366
178	0xbddf7e29	-0.10912735
179	0xbf36de42	-0.7143289
180	0xbcda702b	-0.026664814
181	0xbe8f46ee	-0.27983803
182	0xbf61db14	-0.8822491
183	0xbcb4390a	-0.021999855
184	0xbe7da166	-0.247686
185	0x3b04edda	0.0020283372
186	0xbec30784	-0.3809167
187	0xbe6c3350	-0.23066449
188	0xbf01ea05	-0.5074771
189	0xbe594b74	-0.2122019
190	0x3dbed715	0.093183674
191	0xbebaabce	-0.36459202
192	0xbd8389fd	-0.064228036
193	0xbee70035	-0.45117345
194	0x3db42091	0.08795274
195	0xbe12f51d	-0.14351316
196	0xbc6c529e	-0.014423994
197	0xbd98360a	-0.07432182
198	0xbe8bbeba	-0.2729395
199	0x3daed798	0.08537215
200	0x3d738653	0.059454273
201	0x3bd47582	0.0064837346
202	0xbd99b066	-0.075043485
203	0x3c84a9a0	0.016194165
204	0x3ccf53e5	0.025308559
205	0xbc86183a	-0.016368974
206	0xbd5f5521	-0.054524545
207	0xbcedddcc	-0.029036425
208	0x3d8a782d	0.06761203
209	0xbbdbae12	-0.0067041004
210	0x3d74113d	0.059586752
211	0xbd065e23	-0.03280462
212	0x3ca6733e	0.020318624
213	0xbd69aa8e	-0.05704742
214	0xbcff0dfc	-0.031134598
215	0xbd213540	-0.039357424
216	0x3c0a7ec4	0.008453075
217	0xbd2b92d9	-0.04188809
218	0x3d051cee	0.032498293
219	0x3b5dae2a	0.0033825734
220	0xbd0b78e2	-0.03405083
221	0xbc9ffb26	-0.019528937
222	0x3bd079a2	0.006362156
223	0xbce8aa93	-0.028401649
224	0xbccab63e	-0.024745103
225	0xbd913714	-0.070905834
226	0x3d4f82be	0.050661795
227	0x3d4d0120	0.0500499
228	0xbba1f0a9	-0.004942019
229	0x3d30e55d	0.043187488
230	0xbd727084	-0.059189335
231	0xbc94bdb0	-0.018156856
232	0xbd313c87	-0.043270614
233	0xbbfd0a11	-0.0077221473
234	0x3ca44901	0.020054342
235	0x3d532f51	0.051558796
236	0xbd1dd976	-0.038537465
237	0xba978554	-0.0011560121
238	0x3c40275c	0.011728134
239	0x3dd5426f	0.10413062
240	0x3c92d800	0.017925262
241	0xbcb4cffe	-0.022071835
242	0xbb8c5455	-0.004282514
243	0xbb60d758	-0.0034308042
244	0xbd1a9d2c	-0.037747547
245	0x3ca748b1	0.020420404
246	0xbd854e2a	-0.06509049
247	0x3d586def	0.052839216
248	0x3d9b3d40	0.07580042
249	0x3c1982ed	0.009369594
250	0x3d9664ca	0.07343443
251	0xbbc0fe9f	-0.005889728
252	0x3d9d76fe	0.076887116
253	0xbd142265	-0.036165614
254	0x3cc3a3a9	0.02388175
255	0x3d955c77	0.07293027

linear.weight f4 [1, 100]
0	0xbe87370d	-0.26409188
1	0xbd7ae174	-0.061250165
2	0xbe1c5a28	-0.15268767
3	0xbdd288f9	-0.10280032
4	0x3ddfa694	0.10920444
5	0x3d520c4d	0.051281262
6	0xbdf988ea	-0.121843174
7	0xbc9f3434	-0.019434072
8	0xbe272af9	-0.16324987
9	0xbd6af781	-0.057364944
10	0x3e2f1acb	0.17100064
11	0xbd9e8603	-0.077404045
12	0x3dba29b8	0.090899885
13	0x3dce7cfe	0.10082434
14	0xbd8aee49	-0.067837305
15	0x3d9da0a2	0.07696654
16	0x3e698ec4	0.22808367
17	0x3e15c87a	0.14627257
18	0x3e2bfb8d	0.16795178
19	0x3dad35fd	0.08457563
20	0xbd9d375a	-0.07676573
21	0xbc76741c	-0.015042331
22	0xbe1ee3df	-0.15516613
23	0xbdbb8d99	-0.09157867
24	0xbd0c22f8	-0.034213036
25	0xbe0601a3	-0.13086562
26	0x3e5e15f7	0.21688066
27	0xbdee703c	-0.11642501
28	0x3ce9da7a	0.02854656
29	0x3d2785df	0.040899154
30	0x3e0bcb85	0.13651855
31	0xbe5add44	-0.21373469
32	0x3dc03cd6	0.093866035
33	0xbca87ef9	-0.020568358
34	0xbd45ff82	-0.048339374
35	0xbdb13e20	-0.086544275
36	0xbdad3d04	-0.084589034
37	0xbdcd7691	-0.1003238
38	0xbbd99b27	-0.00664081
39	0xbe50fc1e	-0.20408675
40	0xbd8c4de1	-0.06850792
41	0xbc58f5b9	-0.013242179
42	0xbd15eff2	-0.036605783
43	0xbe343e9b	-0.17602007
44	0xbde829f7	-0.11336129
45	0x3e3572f9	0.1771964
46	0xbe37f62b	-0.17965
47	0xbe4d3dd5	-0.20043118
48	0xbe137277	-0.14399134
49	0xbe597261	-0.21235038
50	0x3e14baff	0.14524458
51	0x3bd8a941	0.0066119735
52	0xbe264491	-0.16237094
53	0xbe31d853	-0.17367677
54	0x3e07ae18	0.13250005
55	0xbdfaa8d0	-0.1223923
56	0xbd33a415	-0.043857653
57	0x3e127782	0.14303401
58	0x3dd2e3e0	0.1029737
59	0xbda93614	-0.08262268
60	0x3cfd115a	0.030892063
61	0x3e0f5f74	0.14001256
62	0xbe2d4c03	-0.16923527
63	0xbd350c16	-0.04420098
64	0x3e05406e	0.13012859
65	0xbcb854bb	-0.02250134
66	0x3e1ea3e7	0.15492211
67	0xbdc45f41	-0.09588481
68	0xbdef3ba4	-0.116812974
69	0x3dea7b64	0.11449316
70	0xbe0fbeaa	-0.14037576
71	0x3dc6c034	0.097046286
72	0x3da319ed	0.07963929
73	0xbb56f00b	-0.0032796885
74	0xbe8692d6	-0.26283902
75	0xbe6cc791	-0.23123004
76	0x3e357595	0.17720635
77	0x3da6158a	0.08109577
78	0x3ddb2166	0.106997296
79	0x3d2ae3c6	0.041721128
80	0xbe1cbe69	-0.1530701
81	0xbc8208d3	-0.015873348
82	0x3cb56cbe	0.022146579
83	0xbe769d78	-0.24083507
84	0x3cd7598b	0.026287815
85	0xbdca0eae	-0.09866081
86	0xbc4db9d3	-0.012556511
87	0xbd97c64e	-0.074108705
88	0xbb2529f8	-0.0025202017
89	0xbd7e560f	-0.06209379
90	0x3e5d8610	0.21633172
91	0x3d72670c	0.059180304
92	0xbe22db2d	-0.15903921
93	0x3cbea2aa	0.023270924
94	0x3e579447	0.21052657
95	0xbdf50489	-0.11963756
96	0xbdeadc89	-0.11467845
97	0x3e633448	0.22187912
98	0xbd3d5501	-0.046223644
99	0x3e35d10b	0.17755525
