Model/LSTM/LSTM_model.pkl (torch, 11435 bytes, 8 tensors)

weight_ih_l0 f4 [40, 18]
000000 cd 8a 68 3e 10 f2 38 3e 4b 02 69 be 17 86 fc 3b
       0.22709198 0.1806109 -0.22754781 0.0077064144
000010 7f 73 bd 3d fa f2 82 bd 03 bf 82 be cc ec 19 be
       0.09250545 -0.06394 -0.25536355 -0.15031737
000020 f1 33 f4 3d f5 76 88 3d 4b 32 82 3e ed 24 9c be
       0.119239695 0.06663314 0.25428995 -0.30496922
000030 bb e7 67 3e 20 91 8f be 7c bb 9c 3e 32 d3 9f be
       0.22646992 -0.2804041 0.3061179 -0.31215817
000040 ba b2 c5 bd d1 08 51 bd eb 1d a3 3d b8 ae a4 be
       -0.0965323 -0.0510338 0.07964691 -0.3216455
000050 37 1a 40 3d 71 e9 8f 3e 72 89 e5 3d ef bb 80 3e
       0.0469 0.2810779 0.11207856 0.25143382
000060 ec 0e b3 3c 79 07 38 be 98 00 f9 bd 84 93 2c bd
       0.021857701 -0.179716 -0.121583164 -0.04213287
000070 92 57 ed 3d 4c b0 8c 3d c3 58 89 be 2e 3b 58 3e
       0.11588968 0.068695635 -0.26825532 0.21116325
000080 7f b0 d0 bd b3 71 15 3e 7c 0e d0 bd af 88 92 3c
       -0.10189914 0.14594154 -0.10159013 0.017887441
000090 fe 1b 41 3e ff 8b 95 be 76 45 21 bd e0 0c a2 be
       0.18858334 -0.2920837 -0.039372884 -0.31650448
0000a0 73 4a 2c 3d 15 49 b9 3d 1e ed a2 be 2f 3a f9 3b
       0.042063188 0.090471424 -0.3182153 0.007605813
0000b0 4b 62 7a 3e 21 c5 54 3d 61 b1 64 3d 3a ba 29 bb
       0.24451558 0.05194581 0.055833224 -0.0025898353
0000c0 b1 a0 1f 3e 34 93 80 3c 20 a8 b6 bd 70 29 0a be
       0.15588643 0.015695192 -0.08918786 -0.1349237
0000d0 7f d5 cc 3d b0 18 b2 bd 6f e6 32 be 29 c4 47 3e
       0.10001659 -0.08696115 -0.17470716 0.19508423
0000e0 1e 73 66 3e 5f d9 99 3d a3 04 ad bd 61 a1 9a be
       0.22504851 0.07512163 -0.0844815 -0.30201247
0000f0 8b c7 55 3e 0c 99 35 3e f7 16 80 3e bf 4c 78 be
       0.20876901 0.17734164 0.2501752 -0.24248026
000100 13 ba 53 be 7a 96 a4 3d 55 59 7b be 69 c2 3f 3e
       -0.2067645 0.080365136 -0.24545796 0.18726505
000110 0c 33 4f 3e d6 b2 70 3e fd d1 97 be 5a 00 60 be
       0.20234317 0.2350572 -0.29652396 -0.21875134
000120 87 cb 6d 3e 77 f4 65 3e 55 d6 13 3e cb c5 f9 bd
       0.23222171 0.22456537 0.1443723 -0.12195929
000130 41 18 95 3e a6 d6 13 3e b7 d7 98 3e 3f a5 48 bd
       0.29120067 0.1443735 0.29852077 -0.048985716
000140 f0 ae 5e be df f9 6e 3e 8c f7 18 be f7 fa 71 3e
       -0.21746421 0.23337506 -0.14938182 0.23630892
000150 7f 91 45 3c 40 fd a0 be 7d 5b 98 be 6c 3e 55 3e
       0.012058615 -0.31443214 -0.297573 0.20824593
000160 81 5c 66 3e 07 8d 83 be ca 60 0d bd f6 25 72 bd
       0.22496225 -0.25693533 -0.034516133 -0.059118234
000170 6e fd 3c be 52 da cb bc c8 43 92 be c3 f4 37 3d
       -0.18456051 -0.024884377 -0.28567338 0.044911157
000180 61 04 59 3e 39 08 58 3c 42 f1 34 3e 59 1f 05 3e
       0.21193077 0.013185554 0.17670158 0.1300024
000190 5d 45 9b bd 56 2f 94 bd 29 a7 93 3e 9f 63 8e be
       -0.07581589 -0.07235591 0.2883847 -0.2781038
0001a0 ae b4 be 3d 96 56 41 be 9b 68 15 3e 61 27 19 be
       0.09311806 -0.18880686 0.14590685 -0.14956428
0001b0 2c 7e 84 be d4 40 a3 bd 54 a7 90 3e b7 bc 42 3e
       -0.25877512 -0.07971349 0.2825266 0.19017301
0001c0 e0 2c 38 3e 1c 91 4c be 80 aa 49 be c8 f8 85 be
       0.17985868 -0.1997723 -0.19693947 -0.26166368
0001d0 cd c8 78 bd 7b ec 4d bc 32 89 9b bd 32 6a c1 bc
       -0.060738374 -0.012568588 -0.07594527 -0.023610208
0001e0 2f 27 f4 3d a7 16 78 be 79 ad 80 be cd dc c4 3d
       0.11921536 -0.24227391 -0.2513235 0.09612427
0001f0 68 7a 1f bd 12 a7 7a be 55 d3 70 be 3a a3 86 bd
       -0.038935095 -0.24477795 -0.23518117 -0.06574102
000200 07 55 31 3d 4d b2 12 3d 70 be 48 be 59 43 92 3e
       0.04329398 0.035814572 -0.19603896 0.28567007
000210 1e c1 93 be ce e1 8c 3d fe 6f 75 3e d8 b5 af bd
       -0.28858274 0.06879006 0.23968503 -0.08579606
000220 1b 19 2e bd 71 64 4a 3d 7d 1f 99 be f7 59 3f be
       -0.04250441 0.049412195 -0.29906836 -0.18686663
000230 37 a4 1d 3c cc 8e db bc 40 83 7a 3e 62 0b 8b bd
       0.009621671 -0.02680149 0.2446413 -0.067892805
000240 5f 6b 71 3d 69 1b 18 bd 92 59 11 3e 50 fd 98 be
       0.058940288 -0.037135515 0.14194325 -0.29880762
000250 38 83 e2 bc 80 2a 4d 3e be 12 76 3e 79 9d ec 3d
       -0.02765046 0.20035744 0.24030587 0.11553473
000260 bd 15 20 3e 77 17 a6 3c 0f a0 6c 3e e3 44 51 bd
       0.15633292 0.02027486 0.23107933 -0.051091086
000270 27 3b 39 3d 32 f4 64 be f8 8a 11 3e 44 c1 08 3e
       0.045222428 -0.22358778 0.14213169 0.13354975
000280 32 1e 15 bd c2 ea f6 bd 3e 1d 23 3e d3 16 48 be
       -0.03640575 -0.12056495 0.15929124 -0.19539957
000290 ab bf 65 be 0a 87 32 3d c8 21 6b be c7 4b 34 3e
       -0.22436397 0.043585815 -0.22962105 0.17607032
0002a0 0e 90 a1 be 4c 2e 8b be 25 d3 9b be e1 a0 8a be
       -0.31555218 -0.2718376 -0.30434528 -0.27075866
0002b0 fd e7 ab 3d 90 35 93 be 2e 21 29 be d8 2e 9a be
       0.08393858 -0.28751802 -0.16516563 -0.30113864
0002c0 49 e9 87 3e 2e a0 35 be 82 78 62 be 73 77 a0 bd
       0.2654517 -0.17736885 -0.22116283 -0.07835283
0002d0 14 23 91 bd f1 e3 a0 bc f0 1f ea 3d 7c f8 59 bd
       -0.07086769 -0.019639941 0.11431873 -0.05321549
0002e0 90 23 a1 be 20 4c 78 3e d3 a0 75 be 3d 2a 4b bc
       -0.31472445 0.2424779 -0.23987131 -0.012400207
0002f0 4e 1b 8c 3e 8e a8 a1 bc 2b 42 14 3e b5 45 57 3e
       0.27364582 -0.019733693 0.14478366 0.21022685
000300 ae c5 37 bd 76 9e 25 bd 1b a0 39 bd 8d 28 72 3d
       -0.044866256 -0.040434323 -0.045318704 0.059120703
000310 d5 2a 8e be d9 d7 0b be 7b a8 8d be 41 d6 2d be
       -0.27767053 -0.13656558 -0.27667603 -0.16976263
000320 89 93 5d 3e 21 af db bc 36 da f3 bd ec d3 37 bc
       0.21638311 -0.026816906 -0.11906855 -0.01121996
000330 b0 3c 2b 3d 8d 7a 3e bc 27 10 c0 3d 0d 12 bc bc
       0.041805923 -0.011625898 0.09378081 -0.022957826
000340 93 0c 85 3c ae 5e a9 bd 2b 63 9c be 84 ea 12 be
       0.016241347 -0.08270012 -0.3054441 -0.14347273
000350 4c e7 54 be e9 b3 eb 3d 25 35 81 bc ed 1c 42 3d
       -0.20791358 0.115089245 -0.015772412 0.047390867
000360 18 89 50 3e 10 86 97 be 4e 2c 79 bd 44 a7 76 3e
       0.20364797 -0.2959447 -0.060833268 0.24087244
000370 bd 2d 93 3e 3c 9e 21 be 1f 03 83 be 79 d5 89 be
       0.28745833 -0.15783018 -0.2558832 -0.2692068
000380 6c d0 d7 bd e5 ee 7a be a7 ea 83 3e 27 56 31 be
       -0.105378 -0.24505194 0.25764963 -0.17318021
000390 b8 5f b1 3d e3 b0 2e 3e 5c f5 e7 3c 1f 06 ae 3d
       0.08660835 0.17059664 0.028315239 0.08497261
0003a0 8e 5f ee bd fa 54 6b 3e 58 8a 90 be 73 a9 a7 be
       -0.11639319 0.22981635 -0.28230548 -0.32746467
0003b0 92 f6 7b 3e 2c a0 c6 3c c1 19 a1 bd 1f 5a ae 3d
       0.24605778 0.024246298 -0.0786624 0.08513283
0003c0 52 76 9c bd a3 cc 6c be c9 1e 17 bd ff 6a 89 be
       -0.07639755 -0.23124938 -0.036894593 -0.26839444
0003d0 49 65 0b 3e c6 e1 70 be 78 a0 8d be bc f9 f5 bd
       0.13612856 -0.23523626 -0.2766149 -0.12010524
0003e0 4f 0b 63 be 4d d0 41 3e 45 37 e9 bb 5d 86 03 bd
       -0.22172283 0.18927117 -0.0071171843 -0.03211056
0003f0 ea 76 52 3e f0 7c 2f be 0e c3 51 3e e8 c9 d1 3d
       0.20553175 -0.17137504 0.20484564 0.10243589

weight_hh_l0 f4 [40, 10]
000000 63 52 09 3e c9 65 8b be d8 5a 9c 3e a2 57 b9 bd
       0.13410334 -0.27226093 0.30538058 -0.09049918
000010 e3 11 86 be f4 85 e4 3d f3 af 93 be e5 49 f0 bd
       -0.2618552 0.11158362 -0.28845176 -0.11732844
000020 96 f3 c2 bc ea 5e 2a be 13 51 08 3e e1 95 a2 3e
       -0.023797791 -0.1663777 0.13312177 0.31754974
000030 4c bf de bd 5c c3 91 be 3e fe e3 bb ab 0c 83 be
       -0.10876331 -0.2846936 -0.0069577983 -0.25595602
000040 b3 a8 2e be ff ef 95 3e 39 08 49 be 80 14 7d be
       -0.17056541 0.29284665 -0.19632043 -0.24714851
000050 49 0b 2f 3e 06 d8 4f 3e 47 09 a2 3e 8e 47 31 3e
       0.17094149 0.2029725 0.31647703 0.17312452
000060 17 69 01 3e 23 65 2e 3e 0c 99 28 3e 88 e5 db 3c
       0.12637745 0.17030768 0.16464633 0.026842847
000070 1e 59 32 3e cd d0 a0 bd 6b 47 07 3c 8d 8c ce bd
       0.17416808 -0.078523256 0.008256773 -0.10085402
000080 a6 79 01 be c6 04 61 bd a1 97 66 3e b1 96 9f be
       -0.12644061 -0.054936193 0.2251878 -0.31169656
000090 03 c7 2d be 36 84 8c 3e ae ac 91 3e 61 e8 52 be
       -0.16970448 0.2744462 0.28452057 -0.20596458
0000a0 2d a0 84 3e b1 7b 24 3c ee 52 28 bd d9 73 7b bd
       0.25903454 0.010039256 -0.041094713 -0.061389778
0000b0 10 a1 b1 3d 98 ff 6d be 8e 8b 84 be 18 14 a7 bc
       0.08673298 -0.23242033 -0.25887722 -0.020395324
0000c0 c3 d8 85 3e 02 b9 03 3e a6 e9 90 3e fc 47 08 3e
       0.2614194 0.12863544 0.2830326 0.1330871
0000d0 37 5f a1 3b 7c 2a 64 bb 0d a6 96 be 30 dd 2e 3e
       0.0049246806 -0.0034815362 -0.29423562 0.17076564
0000e0 5b 85 81 bd 83 62 75 3e ff 92 c0 3c 83 fd 03 be
       -0.06324264 0.2396336 0.023507593 -0.12889676
0000f0 21 29 04 3e 8c 57 8c 3e 1d 9b 60 3e 91 58 7f be
       0.12906314 0.27410543 0.21934171 -0.24936129
000100 99 62 91 be f9 4b 95 3e fb f1 9d bd 9e d8 93 3e
       -0.28395537 0.29159525 -0.0771217 0.28876203
000110 47 be 49 3e b0 46 3e be 90 b2 06 bd f8 a8 49 3e
       0.19701491 -0.18581653 -0.032885134 0.19693363
000120 dd c7 36 3e 16 85 56 3e f3 0d a2 be 62 9d b2 3c
       0.1784968 0.20949206 -0.31651267 0.021803562
000130 d2 e8 35 3e 47 ee 89 3e 3e c4 59 bc c3 a2 2a bd
       0.17764595 0.26939604 -0.013291417 -0.041659128
000140 51 1a 84 bd b6 90 8c 3e 5f da 59 3e 31 d0 c7 3d
       -0.06450332 0.27454156 0.21274708 0.09756506
000150 48 06 90 be 33 e0 8d 3d 30 b0 83 be 6b 91 84 3e
       -0.28129792 0.06927528 -0.25720358 0.25892195
000160 82 79 1f 3e 41 24 5b 3e 37 03 b8 3d 5e 4e f6 bd
       0.15573695 0.21400549 0.08984988 -0.12026666
000170 24 45 1c bd 00 c9 7e 3e 72 ef 4d be f8 41 52 3e
       -0.038151875 0.24881363 -0.20110872 0.20532978
000180 54 aa 9a bd 40 7e 6e be 0c e6 44 be c9 11 f2 bd
       -0.07552019 -0.23290348 -0.19228381 -0.118197985
000190 90 25 7a be 8f 84 d2 bc 83 ac 70 3e 80 51 85 3e
       -0.24428391 -0.025697974 0.23503308 0.26038742
0001a0 d4 31 9c 3e a9 28 15 be 14 c5 24 be 58 63 14 be
       0.30506766 -0.14566292 -0.16090804 -0.14491022
0001b0 79 03 a2 ba ec 34 09 3d 9a 71 13 3e 65 c5 96 be
       -0.0012360654 0.033497736 0.14398804 -0.29447475
0001c0 4e 9b cc 3c 1b 0f 35 3e ae f2 e5 bd 07 ea 8a 3e
       0.024976399 0.17681544 -0.11227928 0.27131674
0001d0 d3 a8 4d bd 5e ae 5c 3e b0 c6 90 be da ca 50 be
       -0.05020983 0.21550891 -0.28276587 -0.20389882
0001e0 83 63 91 3d b9 b6 bf bd 27 a1 42 be 9d cd fb bd
       0.070990585 -0.093610235 -0.19006787 -0.12295077
0001f0 f9 f6 8e 3b 01 e2 e8 bd 15 75 bd bd 4d ec bd 3d
       0.0043629375 -0.11371232 -0.09250847 0.092735864
000200 9d a9 db 3d 50 e1 3d 3e 2d c9 95 3e cb 4f 2d 3e
       0.107257105 0.18542981 0.29255047 0.1692497
000210 f3 a6 8b 3d c7 de 43 be 69 8b eb 3d b6 38 28 be
       0.068189524 -0.19127952 0.115012 -0.16427884
000220 cd f7 2c be bf e4 41 3e 40 35 cd 3d cc 10 1e bd
       -0.16891403 0.18934916 0.10019922 -0.038590237
000230 1c 1a 38 3e d8 37 0c 3c 5a a6 1f be a8 12 11 3e
       0.1797871 0.008558236 -0.15590802 0.14167273
000240 15 84 15 3e 4a f7 68 be 72 9a a7 be 76 2e 09 be
       0.14601167 -0.22750583 -0.3273502 -0.1339663
000250 2e 8e aa bd c0 7a 65 be 25 02 81 3e a5 19 1e 3e
       -0.083279 -0.22410107 0.2519695 0.1543947
000260 d8 92 90 bd cc e9 4b bc 7e a5 d2 bd 65 ac 2a be
       -0.07059258 -0.012445878 -0.102854714 -0.16667326
000270 6c ea 56 bc a0 91 45 3d 11 e9 7d bd b3 8d 5b 3e
       -0.013117414 0.048234582 -0.061989848 0.21440773
000280 5c 96 9b 3e a3 2b 2a be a5 0e 00 bc 1f 16 70 be
       0.30388153 -0.16618209 -0.0078159915 -0.23445939
000290 57 3d 2e be 85 8b 53 3c 52 5d 76 be 67 4c 86 be
       -0.17015587 0.012911682 -0.24059036 -0.26230165
0002a0 c8 96 bf bd 8d bb f4 bc e7 53 15 be a1 28 4e 3e
       -0.09354931 -0.029874587 -0.14582787 0.20132686
0002b0 a4 e4 9e be b9 64 16 ba 24 65 e6 bd c0 90 97 be
       -0.31033814 -0.0005737055 -0.1124976 -0.29602623
0002c0 75 2a fb bd b7 0b f3 bc 56 1a 4d 3e 1f c0 21 bd
       -0.122639574 -0.029668672 0.20029578 -0.03948986
0002d0 e9 12 29 3e aa 98 56 3e 75 aa 84 3e 04 f3 86 be
       0.1651112 0.20956674 0.25911298 -0.2635728
0002e0 2d b7 9d be c8 f6 9a 3e c9 6d a1 be 42 0e 0a be
       -0.30803815 0.30266404 -0.31529072 -0.13482001
0002f0 3f 2d 9b be cd 7e 07 3e 8b b4 a2 bd bc a8 01 3d
       -0.30307958 0.13231964 -0.07944592 0.03165506
000300 02 8a 77 be 58 d4 14 3d dc e4 48 be 44 29 84 3e
       -0.2417374 0.03633532 -0.19618553 0.25812733
000310 98 b3 4f 3e 16 bf e9 3d 34 68 e6 3d d3 e4 81 3e
       0.20283353 0.114134 0.11250344 0.25369892
000320 36 de db bd 2a a2 af 3d 97 41 94 bd 4b 02 06 3e
       -0.10735743 0.08575852 -0.07239073 0.13086812
000330 69 fb 1b 3e 07 63 68 3e f0 8b 95 be f1 66 4a 3e
       0.15232624 0.22694026 -0.29208326 0.19765832
000340 0b 7b f5 bd 40 cb e0 3d b1 6a dd 3d c2 f4 64 be
       -0.11986359 0.10976267 0.108113654 -0.22358993
000350 8b 5a 92 3e 8e de f5 3d d6 63 93 be d8 5d 49 be
       0.28584704 0.120053396 -0.28787106 -0.19664705
000360 92 83 04 be 7e be 94 3e 17 dd 82 3d b3 04 86 3e
       -0.12940815 0.29051584 0.06389826 0.2617546
000370 73 0a 73 bc ba 88 9e be a3 6d b2 bd 0a 97 16 be
       -0.014834034 -0.3096369 -0.08712318 -0.14706054
000380 3c b8 e6 3d b4 db 5f 3e ac 87 1a be 1f a5 91 3e
       0.11265609 0.21861154 -0.15090817 0.2844629
000390 4a 4e 96 bd dd c1 12 be 9e d9 3d bd be 0c 94 be
       -0.07339151 -0.14331765 -0.046350114 -0.28915972
0003a0 b3 ad bf 3d 2c 6e 6e 3b ac dd df bd 54 a4 39 be
       0.09359302 0.0036381586 -0.109309524 -0.18129092
0003b0 66 72 1a 3c 0e 0f 7a 3e 26 c6 97 be ac c5 95 be
       0.009426689 0.24419805 -0.29643363 -0.29252374
0003c0 58 c0 05 3e 04 b6 24 be e0 94 0b 3e 0c 3a 91 be
       0.13061655 -0.16085058 0.1363101 -0.283646
0003d0 04 1f f1 3d b1 17 34 be cc 9d 45 be 0d 97 8f 3e
       0.11773494 -0.17587163 -0.19298476 0.2804493
0003e0 6c 12 44 3d 2d 30 37 3e 6a af ff b8 68 30 c6 bd
       0.04786913 0.17889471 -0.00012192021 -0.096772015
0003f0 fd 46 17 be 85 51 c2 bd a6 ee bb bd 9e b4 27 be
       -0.14773174 -0.09488205 -0.09176378 -0.16377494

bias_ih_l0 f4 [40]
000000 ff 17 4c 3e a2 96 98 3e fc 07 08 3e cb 2d b1 3d
       0.19931029 0.29802424 0.13284296 0.086513124
000010 3d 0b 36 3e 7b 5a 0a 3e c6 b0 ed bd 12 d3 c4 3b
       0.17777725 0.13511078 -0.116059825 0.006006607
000020 72 a3 04 be 09 78 05 be 3f a9 54 be ae 1b 0b be
       -0.12952974 -0.13034071 -0.20767687 -0.13584778
000030 ae 27 6e be 54 8f ce 3c 3a 3b 25 be 54 ce 60 3c
       -0.23257324 0.025214829 -0.16135874 0.013721067
000040 d5 1a 19 3e ba 0f 6f 3e ac cf bd bd 59 72 86 be
       0.14951642 0.23345843 -0.09268126 -0.26259115
000050 5c bf 45 bd 4d c0 6a 3e a4 28 1a 3c 06 dc 37 3e
       -0.048278198 0.2292492 0.009409104 0.17955026
000060 8a 29 8b be 6d 98 71 3e 12 58 6a 3e 14 06 80 be
       -0.2718013 0.23593302 0.22885159 -0.25004637
000070 5e c6 d7 3d e2 64 6a 3e ce 8a 1d be 37 62 a7 be
       0.105358824 0.22890046 -0.15384981 -0.3269212
000080 fe b6 92 be e5 63 e0 3d 13 aa 95 bd 5c b1 55 3c
       -0.28655237 0.10956553 -0.0730783 0.013042774
000090 ff 72 20 3d a4 cd 9e bd 72 ce 42 3e 7d 3f 8e 3e
       0.03917217 -0.077540666 0.19024065 0.27782813

bias_hh_l0 f4 [40]
000000 37 9c 2a be 57 52 88 3e 3a 1a 2c 3e 09 64 67 3d
       -0.16661154 0.2662532 0.1680688 0.056491885
000010 0a 44 31 bb f1 0e 51 3e 77 7f d1 3d d4 de 2c 3e
       -0.002704861 0.20415856 0.1022939 0.16881877
000020 ca ba 8c 3e 5d b6 4f bd 9e b2 52 be 94 fe 19 3e
       0.2748626 -0.050711025 -0.2057595 0.1503852
000030 3f 0a 59 3d 97 21 f3 3a 54 cb 81 3e 3b 24 8b 3e
       0.052988287 0.0018549439 0.2535044 0.2717608
000040 03 85 d9 bd da 81 59 be f8 17 a0 3e aa 1d 91 bc
       -0.10621073 -0.2124094 0.31268287 -0.01771434
000050 60 a7 01 bd ee 03 9d 3c ac cf fe 3d bc 64 1b bb
       -0.031653762 0.019166913 0.12441954 -0.0023711165
000060 78 ef 5d be f5 e7 d5 3d f1 a4 46 be 28 04 3c 3e
       -0.21673381 0.10444633 -0.19398858 0.1836096
000070 0d 51 07 3d 1b 94 55 be e1 ac 1f 3e 94 8a 51 be
       0.03303628 -0.20857279 0.15593292 -0.2046302
000080 8a eb 04 3e 36 06 95 be d7 f5 dd bc 44 41 05 be
       0.12980476 -0.291063 -0.027094765 -0.13013178
000090 71 d3 93 be fa 06 54 be 4e 24 be bd 6d 5c 17 bd
       -0.28872254 -0.20705786 -0.09284268 -0.03695338

weight_ih_l0_reverse f4 [40, 18]
000000 59 6f 8c be ca e8 9a 3e 1d 05 34 3e 81 08 a4 bd
       -0.27428702 0.3025573 0.17580076 -0.080094345
000010 3f 18 70 bd 30 fa 52 3e 0b d6 9e be 11 55 32 3c
       -0.058616873 0.20603251 -0.31022677 0.010884539
000020 8e ef 10 3e b3 cb 82 3c 21 45 3c be 48 6f 5f bd
       0.14153883 0.015966272 -0.18385746 -0.054549485
000030 57 85 c1 bd 44 53 53 3e 04 bb 9b 3e 55 9a d4 3d
       -0.09449261 0.20637232 0.3041612 0.10380999
000040 76 d3 01 3c 25 d5 51 bd 3f 77 a7 3d 91 f2 0d 3e
       0.007923951 -0.05122866 0.08177041 0.13862063
000050 49 b5 d4 3d 40 5c 2b be c6 d0 57 bd 1e bf a2 3e
       0.1038614 -0.1673441 -0.052689336 0.31786436
000060 55 33 0f 3e 3f 29 d0 3d ed e1 2f be 35 99 0b be
       0.13984425 0.10164117 -0.17176028 -0.13632663
000070 1c eb a2 bd e6 11 74 3e ec 49 8b 3e e5 05 0f 3e
       -0.07955 0.23834953 0.27204835 0.13967092
000080 2c 45 ad bc ec 8a 48 3e 3e c4 49 3e 0e b2 95 3d
       -0.021151148 0.19584244 0.19703767 0.07309352
000090 a3 28 85 3e ab fe 6b 3e f9 fc 6d 3d de 43 c7 bd
       0.26007566 0.23046367 0.05810258 -0.097297415
0000a0 ef 9f 5d be 36 9e 11 be 82 ae f5 3c 92 db 67 bd
       -0.21643041 -0.14220509 0.029990438 -0.056605883
0000b0 12 a5 56 3d 7b 24 fb 3d 18 f7 02 bd 75 bd 74 be
       0.052403517 0.122628175 -0.03197393 -0.23900397
0000c0 06 c6 75 be ce a0 19 be a6 0a d9 bc 0d 04 8f bd
       -0.24001321 -0.15002748 -0.026494335 -0.069831945
0000d0 85 8c 8e be a3 00 14 3e fe ed 8a be fd 0b 6f be
       -0.27841583 0.14453368 -0.271347 -0.23344417
0000e0 1c 9c 9f 3d 8f 05 55 be 5c 54 4a 3b 0c ce 92 be
       0.077934474 -0.20802902 0.0030873036 -0.28672826
0000f0 1f 12 5c be 99 40 d5 3d 02 3c 33 3e e0 6f b1 3d
       -0.21491288 0.10412712 0.1750336 0.086639166
000100 87 1b 1a 3e cd 32 c2 3d 70 22 84 be 34 56 3f 3e
       0.15049563 0.09482346 -0.25807524 0.18685228
000110 98 96 9c be a6 64 db bd 0d 6f a0 3d d4 1b 40 bb
       -0.30583644 -0.107125565 0.07833681 -0.0029313462
000120 3d a1 8d be 70 5d d5 3d 54 99 92 3e b0 7b 25 be
       -0.27662078 0.104182124 0.28632605 -0.16160464
000130 01 6e 7e bd 67 cc 95 3e 36 62 ea bd 95 69 d7 3d
       -0.062116627 0.2925751 -0.114445135 0.10518185
000140 de 6e 77 3d 93 b0 79 3e 23 32 31 bd 06 a6 39 3e
       0.060408466 0.24383764 -0.043260705 0.18129739
000150 37 87 24 bd 19 24 9a bd 0c 41 e5 3d bb 6d fc bd
       -0.040168013 -0.07526416 0.11194047 -0.12325617
000160 28 a3 37 3e 43 7a 82 3e 22 c5 39 bd d8 37 86 bd
       0.17933333 0.25483903 -0.045354016 -0.0655362
000170 ac 15 f9 3d 7b ef 66 3d ab 4a 6c be 61 d9 aa bd
       0.12162337 0.05638073 -0.23075359 -0.08342243
000180 97 a6 b1 bd 91 f5 e7 bd 65 ec 09 bd d9 ef a6 3e
       -0.086743526 -0.11326135 -0.03367271 0.32604864
000190 06 fd 49 be a6 0c 87 be 41 39 91 be 6d cb 4f be
       -0.19725427 -0.26376837 -0.28363994 -0.20292445
0001a0 d5 e6 84 3b c9 1d 99 be 12 17 87 3e 6e 16 94 3e
       0.0040558376 -0.29905537 0.2638479 0.28923362
0001b0 29 3d 4a bd 58 78 51 3e e3 58 8e 3e b4 2a ac bd
       -0.049374733 0.20456064 0.2780219 -0.084065825
0001c0 2c a3 5e be 34 5e 0f 3e e6 7e e4 3d e8 ca 81 3e
       -0.21741933 0.1400078 0.111570165 0.25350118
0001d0 69 7e 2b bc 2d 86 ed 3c c1 e0 89 be 03 bd b9 bc
       -0.01046715 0.028994644 -0.26929286 -0.022673136
0001e0 b4 4c 7d be 54 11 7d 3e 1d ee 98 be ff 1e b6 bc
       -0.24736291 0.24713641 -0.29869166 -0.022231577
0001f0 c7 43 5c 3e 8f 4f 5e 3d 6d 57 33 3d 8c 6d 87 bd
       0.2151023 0.05427509 0.043784548 -0.06612691
000200 c6 71 02 3d f6 c6 9d 3d 8b 9e 99 3d 41 7e 89 bd
       0.031846784 0.077039644 0.07500943 -0.06713534
000210 cd ca 22 3e 81 9f 58 be dc df 81 3c bf 43 70 3d
       0.15897675 -0.21154596 0.015853815 0.058658358
000220 76 95 49 be 37 aa 0c 3e de 40 21 be f4 41 41 3e
       -0.19685921 0.13736807 -0.15747401 0.18872815
000230 a9 e4 9a ba 71 a6 3d be c8 2a 11 bd 62 88 8c be
       -0.0011817414 -0.18520524 -0.03544119 -0.27447802
000240 52 a8 1a bd 44 44 67 be 4f f7 0f be 1e 22 25 bd
       -0.03775818 -0.22584635 -0.14059184 -0.04031574
000250 96 fb 97 be 36 e8 48 3e 0a 12 94 3d ed 0a 0c be
       -0.29684132 0.19619831 0.07230003 -0.13676043
000260 1a 72 84 be 2b cd 62 be 14 d0 60 3e fa 6b ca bd
       -0.25868303 -0.22148578 0.21954376 -0.09883876
000270 58 d6 92 3e c5 6b d9 3c 76 0a dd bd c7 0b 89 be
       0.28679156 0.026540646 -0.10793011 -0.26766798
000280 f6 21 b2 bd 1a 50 42 3e 97 cd 6c be 1b e4 02 3d
       -0.08697884 0.18975869 -0.23125301 0.03195582
000290 f7 d6 28 3e ab b2 01 be c4 ec a5 bd 27 c3 b4 bd
       0.16488253 -0.12665813 -0.081018 -0.08826285
0002a0 ed b0 a8 3d f3 e5 d1 bd 7f 25 01 be 9e 67 97 3d
       0.08236871 -0.102489375 -0.1261196 0.0739281
0002b0 8d f7 80 be 9e 89 78 3e cc f0 a1 3e 9d 6b 40 3d
       -0.25188866 0.24271247 0.31629026 0.046977628
0002c0 22 72 70 be a5 58 45 be 51 ad cd 3d 3b 02 60 3e
       -0.23481038 -0.19272096 0.10042823 0.21875851
0002d0 d8 c8 7a be dc 1c f2 3d 18 9f 77 bd ee f8 ff bd
       -0.24490678 0.11821911 -0.060454458 -0.124986514
0002e0 9b 1c c0 3c 9f b5 89 3e c9 dc 01 3e 62 d9 7f bd
       0.02345114 0.26896378 0.12681879 -0.06246317
0002f0 67 09 e2 bd 06 60 8e bc 0c 9f 97 3e 56 fd e0 3c
       -0.110369496 -0.017379772 0.2961353 0.02746455
000300 4e b3 7c bd e8 07 7e be 20 5c a2 b7 8d 9b 8e 3e
       -0.061694436 -0.24807703 -1.9354804e-05 0.2785305
000310 7a a4 83 bd 43 f7 a8 bd f9 4c 5a be bb a6 63 be
       -0.06427856 -0.082502864 -0.21318425 -0.22231571
000320 22 ad 84 3e 95 64 9e 3d 4b 45 14 be dd ee 35 be
       0.2591334 0.07734028 -0.14479558 -0.177669
000330 91 a7 c1 bd a5 11 67 be 3e 1f 3f 3e ee f8 c2 3d
       -0.09455789 -0.22565325 0.18664262 0.09520136
000340 bc 9a 29 be 8a 17 56 3e 40 cc b9 b9 82 0a 86 3e
       -0.16562933 0.20907417 -0.00035438128 0.26179892
000350 57 cc 3b 3b f1 dc dc 3d fa 74 18 be 49 2d 44 3e
       0.0028655732 0.10784329 -0.14888373 0.191579
000360 45 19 a8 bd b0 bf 44 3c 59 70 dc bd c3 d1 dd bd
       -0.08207945 0.0120085925 -0.10763616 -0.108310245
000370 73 d2 83 bc 66 59 7b bd 6c 94 83 be 2f 83 41 be
       -0.016091561 -0.061364554 -0.25699174 -0.18897699
000380 65 28 f9 bd 0d f2 d8 bd 86 4e 8b bd 78 d6 a4 bd
       -0.12165908 -0.105930425 -0.068020865 -0.08048719
000390 fa c7 97 be 85 29 a2 3d c4 23 70 bd 43 b2 1c be
       -0.29644758 0.079180755 -0.05862786 -0.15302376
0003a0 ce 7c 6c bc 79 d9 16 3d 54 f5 96 be f6 59 99 3e
       -0.014434053 0.03682849 -0.29484046 0.29951447
0003b0 80 03 e1 bc 0a d0 23 3e db 2d 58 3e 04 4c 66 3e
       -0.02746749 0.1599733 0.21111242 0.22489935
0003c0 df 33 4f bc ad 32 46 be fa 65 a2 bd 14 ea 1c 3e
       -0.012646644 -0.19355269 -0.07929607 0.15323669
0003d0 96 b5 9b 3d 83 4f 29 be e4 80 98 3e af c8 29 3e
       0.07602994 -0.16534238 0.29785836 0.16580461
0003e0 40 3e 21 3d d0 bf b7 bd 1d de bb 3d 92 6f 49 3d
       0.039366007 -0.08972132 0.09173224 0.049178667
0003f0 b5 af 82 be 62 4a ad 3d d2 3e 04 3e 91 92 97 ba
       -0.2552468 0.08461453 0.12914589 -0.0011564066

weight_hh_l0_reverse f4 [40, 10]
000000 3e fa 3f 3e bf 4e 35 3e a7 03 68 be d9 2b 8d be
       0.18747804 0.1770582 -0.22657643 -0.27572516
000010 55 9b 3f 3e 6d 1f 9f 37 b9 7f cc bd 86 15 50 3e
       0.18711598 1.896891e-05 -0.09985299 0.2032071
000020 14 1e 99 be 95 b1 04 3e 46 52 35 be a9 af 3c 3e
       -0.2990576 0.12958367 -0.17707166 0.18426384
000030 c5 15 9f bc 4a 28 ef bd 60 89 05 3e 8d 9e 63 be
       -0.01941956 -0.116776064 0.13040686 -0.22228451
000040 9d 1b 50 be b0 bb 74 3e d0 f1 ad bd 0c 18 75 3e
       -0.20323034 0.23899722 -0.08493388 0.23934954
000050 fa a0 22 3e 50 3c 64 be 0b 67 9c 3d 8b b4 89 bc
       0.1588172 -0.22288632 0.076368414 -0.016809722
000060 ac a7 ad bc 3d ab 70 3a 4e 28 7b be e8 87 ec 3c
       -0.021198116 0.000918079 -0.24527094 0.028873399
000070 da f5 df bd 0d 6d 80 3e 33 92 64 3b fd cc 71 3e
       -0.10935564 0.250832 0.003487718 0.23613353
000080 81 93 31 bc 6d a8 89 3e eb d9 1c be ac 97 2e 3e
       -0.01083839 0.2688631 -0.15317504 0.17050046
000090 ba ca 2a 3e c5 21 93 be d4 c2 62 3e 8a 84 81 bd
       0.16678897 -0.28736702 0.22144634 -0.06324108
0000a0 39 db 2f be 78 e6 d7 bc c1 ef 67 3e 0c 82 5a 3d
       -0.1717347 -0.026355013 0.22650053 0.05334668
0000b0 e2 dd 3b 3d 59 ca 57 be f7 e7 cc bc 33 00 11 3d
       0.0458659 -0.21073283 -0.025012953 0.03540058
0000c0 c5 93 43 be 7c c2 88 3e 15 a2 6a 3e 2b 3d 47 3e
       -0.19099338 0.2671088 0.22913392 0.19456927
0000d0 f9 2b 4c be aa 05 69 ba f3 b6 01 3e 9c 05 67 3d
       -0.19938649 -0.00088890886 0.12667446 0.056401834
0000e0 f8 44 8d 3e 50 a2 40 3d f2 56 5c be 4f 79 42 be
       0.2759168 0.047029793 -0.21517542 -0.18991588
0000f0 03 90 97 be 9d 3f 95 3e 23 38 6e be be 54 97 3e
       -0.2960206 0.29150096 -0.23263602 0.2955684
000100 55 ad fa bd a1 5a 53 be aa 82 08 be 7c 1e fd 3d
       -0.12240092 -0.20640041 -0.13331094 0.1235933
000110 52 55 f3 3c 08 80 27 bd 55 e0 d9 bc b9 4e 03 3e
       0.02970377 -0.040893584 -0.026596228 0.12822999
000120 8b ce 1a be 90 e7 02 bd 23 46 58 be fa 88 4e 3e
       -0.15117852 -0.031959116 -0.21120505 0.2016944
000130 5c b1 7e be eb fc 70 3e 41 6f 1f 3d 17 c6 ce 3d
       -0.24872345 0.2353398 0.03892446 0.100963764
000140 cc 2c 89 3e f8 3c 6b bd 5e f5 17 b6 a0 fd f4 3d
       0.2679199 -0.05743119 -2.2643576e-06 0.11962438
000150 21 6b 44 3e f6 bd 78 bd 46 fc 28 be f0 f2 2f 3e
       0.19181491 -0.060728036 -0.16502485 0.17182517
000160 c5 30 96 bd 7b fe 07 3e 10 46 04 3e 3f e0 f7 3d
       -0.07333521 0.1328067 0.12917352 0.121033184
000170 29 5e f0 3d ad 01 2d be a9 4b 28 be 26 a3 74 3d
       0.117367096 -0.1689517 -0.16435112 0.059725903
000180 f6 79 47 3e f9 3b e7 bd 0b 56 43 be e3 f1 67 3e
       0.19480118 -0.11290736 -0.19075792 0.22650866
000190 87 82 1a be 30 c1 bf 3d 80 e9 44 3e 63 f8 8a bd
       -0.15088855 0.093630195 0.19229698 -0.06785657
0001a0 a3 97 0c bd 6e ef 8d 3e 8b 38 b5 bd 9d dc 60 bd
       -0.0343243 0.27721733 -0.08848675 -0.054897893
0001b0 ca 47 88 3d c4 b2 d2 bd 66 b6 5b be 4c d1 67 3e
       0.06654318 -0.10288003 -0.21456298 0.22638434
0001c0 a2 4e 70 3e 26 62 87 be a2 b9 40 3c 5b 81 c2 3d
       0.23467496 -0.2644207 0.011763008 0.09497329
0001d0 4a 60 70 3e d3 de 43 3e fe f8 74 3e f7 ad a7 bd
       0.23474231 0.1912797 0.23923108 -0.08187478
0001e0 11 a6 51 3e fa 1e 47 3e 8d f2 95 3e e8 2a f1 b6
       0.20473506 0.1944541 0.29286614 -7.1873546e-06
0001f0 aa 00 3b 3e a2 99 86 3e 44 4d fd 3d af 7b 07 be
       0.18261972 0.26289088 0.12368253 -0.13230775
000200 62 1d 10 3e 53 45 9a be 80 4d 37 3c a0 00 40 be
       0.14073709 -0.30131015 0.011187911 -0.18750238
000210 5d e4 5a 3e 54 2d 6f bd 20 86 1d be 61 10 45 3e
       0.21376176 -0.058392838 -0.15383196 0.1924453
000220 70 85 e4 bd 06 19 3b be ee d4 74 3d ed d9 85 3d
       -0.11158264 -0.18271264 0.059773378 0.06535707
000230 e8 2d a0 bb a6 ef b6 3c d0 2f f5 3d 3b f5 42 3e
       -0.004888285 0.02233107 0.1197201 0.1903886
000240 e7 98 c6 bc 8f ce 58 be 69 cc 8b be 22 99 0d bd
       -0.024242831 -0.21172546 -0.2730439 -0.034569867
000250 89 d9 d6 bd 00 bf 76 be 06 c5 42 be 3a a8 25 be
       -0.1049071 -0.24096298 -0.19020471 -0.16177455
000260 e7 26 88 3e 12 1c 0d 3e 53 e2 3d be 3e 84 4b 3e
       0.2659218 0.13780239 -0.18543367 0.19874665
000270 a8 de b3 3b 5c 63 7c be 82 81 b2 3c ea f3 94 be
       0.005489189 -0.24647278 0.02179027 -0.29092342
000280 86 63 84 3e 25 33 03 3e e7 6c 81 be f1 2d 26 be
       0.2585718 0.12812479 -0.25278398 -0.16228463
000290 a0 26 4a bd 7e 4f 7e be 4a 25 94 3e 12 4d 8f be
       -0.049353242 -0.24835011 0.289347 -0.27988487
0002a0 a6 07 19 be 68 f2 89 3c e6 95 68 be 81 d4 24 3e
       -0.14944324 0.016839221 -0.22713432 0.16096689
0002b0 20 a0 55 be ea 31 b3 bd 04 9f 53 be 6f 40 6c 3e
       -0.20861864 -0.08749755 -0.20666128 0.23071454
0002c0 0a c9 76 be 44 f2 95 be 22 66 cf bd f6 d7 54 bd
       -0.24100128 -0.29286397 -0.10126902 -0.05196377
0002d0 e7 4d 8f bd fb 0f 2e b9 34 b5 64 3d 66 13 f5 bd
       -0.069972806 -0.00016599886 0.05583687 -0.119665906
0002e0 bf 6b 9d bd aa 01 9f 3c 43 22 af bc 6c 0e 82 3e
       -0.076865666 0.019409973 -0.021378642 0.25401628
0002f0 7c 8b 78 be 97 d9 59 3e af ce 86 be d5 88 90 be
       -0.24271959 0.2127441 -0.26329562 -0.28229395
000300 ec e3 36 3e f7 26 80 3e 8a 0f 84 be 9e 91 0d 3e
       0.17860383 0.25029728 -0.25793105 0.1382508
000310 1b d7 45 be e2 08 d5 3d 5a a1 8c be cb 0d 64 bd
       -0.19320337 0.10402085 -0.2746685 -0.055677217
000320 5a 8d e9 bc 4b 4a 69 3e 58 a9 91 3d ca 24 47 3c
       -0.028509784 0.22782247 0.07112378 0.012154767
000330 f9 83 c4 bd 27 1a 69 3e 38 79 5f bd e3 5c c0 3d
       -0.09595484 0.22763883 -0.054558963 0.09392717
000340 a4 ea 73 3e 6f c6 5e be 71 96 93 3e 64 24 3d be
       0.23819977 -0.21755384 0.28825715 -0.18470913
000350 1b f9 c0 3d 62 05 27 3e 7e 93 4a 3a cc 5c 30 be
       0.09422513 0.16310647 0.00077276665 -0.17222899
000360 f1 c4 14 be fc 18 93 3c fc a8 8d be 95 d6 09 be
       -0.14528252 0.01795625 -0.27667987 -0.13460763
000370 0a 80 85 be 16 58 05 3e c1 96 6b 36 59 79 27 3e
       -0.2607425 0.13021883 3.510548e-06 0.16354884
000380 da 75 4f 3d ec 03 3b 3d b2 b3 33 3d 08 6b 37 3e
       0.0506495 0.045658037 0.043872543 0.17911923
000390 f5 5f c0 3d eb 8e 30 be 94 c1 af 3d 70 b8 83 be
       0.09393302 -0.17242019 0.08581844 -0.25726652
0003a0 ad 17 9b 3e c6 61 b8 bd dc e1 6f 3e 17 69 72 3e
       0.302915 -0.09003024 0.23426002 0.23672901
0003b0 8c ff 96 3e 64 6d 91 be 3f 12 90 bd dd 1c 92 bd
       0.29491842 -0.2840377 -0.0703473 -0.071344115
0003c0 fe 36 3e 3e d8 b9 4f b6 2a 10 a6 3d 58 47 2f 3e
       0.18575665 -3.095358e-06 0.08108552 0.17117059
0003d0 a3 d3 d4 3d 94 52 97 3e 67 12 ef bd a8 09 06 be
       0.10391929 0.2955519 -0.11673432 -0.13089621
0003e0 91 34 93 3e 5f 35 37 3d 63 33 21 3e 11 65 f7 3d
       0.28751042 0.044728633 0.15742259 0.12079824
0003f0 aa 20 d2 3d 33 af bc b8 d6 ad 75 be 41 31 4d ba
       0.102601364 -8.997172e-05 -0.23992094 -0.0007827469

bias_ih_l0_reverse f4 [40]
000000 6a f6 e1 3d 6a 9c 5b bc 12 48 73 be 52 22 dd bd
       0.11033328 -0.013403991 -0.23757961 -0.10797562
000010 fb c1 7d 3e e1 63 b7 bd cc 54 8c 3e 1f 22 67 be
       0.24781029 -0.08954597 0.27408445 -0.2257161
000020 9a e1 97 be 6a e3 65 be 0f 03 1b bd 0f fe 42 b7
       -0.29664308 -0.22450033 -0.037844714 -1.1622454e-05
000030 b4 3f 65 3e ec 66 c1 3d cc 91 00 3e eb 21 9b be
       0.22387582 0.09443459 0.12555617 -0.30299315
000040 a4 28 47 3e 80 c8 74 3e d5 7c 04 be 3a a0 44 be
       0.19449097 0.2390461 -0.12938245 -0.19201747
000050 e6 22 81 bd 7d 1a c9 ba a6 4f 41 bc 37 65 65 3e
       -0.063054845 -0.0015342977 -0.011798775 0.22401892
000060 e8 a1 0d be bd 43 3a be d9 7e 95 3e 1b b7 49 3d
       -0.13831294 -0.18189903 0.2919834 0.04924689
000070 ab 3e 99 be 2e 54 bc 3b f9 3e f0 bd bc 71 8f bd
       -0.29930624 0.0057473397 -0.11730761 -0.07004115
000080 da 42 f0 3d de 7f 92 3e 86 f7 04 bd 4c f3 8d bd
       0.11731501 0.2861318 -0.03246262 -0.06931171
000090 a5 82 4a be 02 de cb bd 6e 1d 80 3b 5b a7 03 3e
       -0.197764 -0.09954454 0.0039097583 0.1285681

bias_hh_l0_reverse f4 [40]
000000 f8 1b 99 be 70 bd de bc fe c4 96 3d 90 1c 8a be
       -0.2990415 -0.02718994 0.07361792 -0.26974916
000010 d4 63 fc 3d d8 5c ba bd 30 16 c0 bd 65 80 1a 3e
       0.12323728 -0.0909974 -0.09379232 0.15088041
000020 4d a5 86 be 6a 11 e3 bb 6f 05 86 3e 3c 2f 5e 3c
       -0.2629799 -0.006929566 0.2617602 0.013561066
000030 d1 f8 c8 3d de e3 7a 3b 0a b8 a9 3d df 95 91 be
       0.09813083 0.0038282792 0.08287056 -0.28434655
000040 27 cb 81 be ee f7 82 be 0c 03 c3 bd 1d 75 88 be
       -0.25350305 -0.2557978 -0.095220655 -0.2665185
000050 b0 96 02 3c 11 73 81 be 4a 82 90 be b3 95 99 be
       0.007970497 -0.252831 -0.28224403 -0.29997024
000060 2f 16 87 be 16 4c ec bc d9 21 90 3e d5 d5 62 bd
       -0.26384112 -0.028844874 0.28150824 -0.055379707
000070 cd aa 04 be 21 81 04 be 11 f4 6a 3e 9a 72 84 be
       -0.1295578 -0.12939884 0.22944666 -0.25868684
000080 6a c6 31 3e 7b f8 ad bd fa cb 13 3e 54 cf 56 be
       0.17360845 -0.084946595 0.1443328 -0.20977527
000090 6b 08 9f 3c 0f 00 4b be 52 27 4e 3e 30 ed 50 3e
       0.019413194 -0.19824241 0.20132187 0.2040298
