Model/LSTM/LSTM_model.pt (torch, 178473 bytes, 5 tensors)

lstm.weight_ih_l0 f4 [400, 8]
0	0x3d825356	0.06363551
1	0x3d66e098	0.056366533
2	0xbd9efe22	-0.07763316
3	0x3b4d8702	0.0031360989
4	0x3ce91b24	0.028455324
5	0xbcb1467e	-0.021640059
6	0xbdaca73f	-0.08430337
7	0xbd2dfd7b	-0.042478066
8	0x3d130d48	0.035901338
9	0x3c9b499a	0.018955994
10	0x3da08e1c	0.07839605
11	0xbdceeb48	-0.1010347
12	0x3d8f3adb	0.06993648
13	0xbdc13b97	-0.09435194
14	0x3db3a8cb	0.08772429
15	0xbdcdf0ed	-0.100557186
16	0xbca7c43e	-0.020479318
17	0xbc11cffd	-0.008899686
18	0x3d131acd	0.03591423
19	0xbdba2d5f	-0.09090685
20	0x3cccb3fc	0.024988167
21	0x3dcd40ed	0.10022149
22	0x3d3e0393	0.046390127
23	0x3d9938be	0.07481526
24	0x3bce539a	0.006296587
25	0xbd6aa6d2	-0.057288
26	0xbd1f9196	-0.0389572
27	0xbc5b67a6	-0.013391411
28	0x3d140713	0.03613956
29	0x3caac063	0.02084369
30	0xbdae831b	-0.085211
31	0x3d81bd9d	0.06334994
32	0xbcb7ec79	-0.022451626
33	0x3d661006	0.056167625
34	0xbcb510ee	-0.0221028
35	0x3c726474	0.014794458
36	0x3d8cd976	0.06877415
37	0xbda78d47	-0.081812434
38	0xbb1a4e1c	-0.0023545092
39	0xbdb6df7a	-0.089293435
40	0x3cc513a6	0.02405722
41	0x3d23c3c6	0.039981626
42	0xbdb74a72	-0.08949746
43	0x3c53f454	0.01293667
44	0x3db1eab1	0.08687342
45	0x3ce53b3f	0.027982352
46	0x3cebd896	0.0287898
47	0x3c187e71	0.00930749
48	0x3d447c67	0.0479702
49	0x3b5e36f9	0.0033907278
50	0xbcf3b604	-0.029749878
51	0xbd32a6f9	-0.04361627
52	0x3cfafc29	0.030637817
53	0xbcf1ea33	-0.02953062
54	0xbd68f071	-0.056869928
55	0x3d73f578	0.05956027
56	0x3da7a754	0.08186212
57	0x3d0e3240	0.03471589
58	0xbc7ea2aa	-0.015541712
59	0xbdad27eb	-0.084548794
60	0x3d999d5a	0.075007156
61	0x3d8b505d	0.068024375
62	0x3db95ee0	0.09051299
63	0xbd8483b1	-0.06470431
64	0xbd61b13c	-0.055100664
65	0x3d13b516	0.03606137
66	0xbd898ba7	-0.0671609
67	0x3d8dcafa	0.0692348
68	0x3d965cd1	0.07341922
69	0x3dae37ea	0.085067585
70	0xbdaa5961	-0.08317829
71	0xbd70e507	-0.058812167
72	0x3daac346	0.08338027
73	0x3da684b5	0.081307806
74	0x3d62c58e	0.055364184
75	0xbceb821d	-0.028748566
76	0x3dd02a86	0.10164361
77	0x3d67660f	0.056493815
78	0x3dd6d7a5	0.1049035
79	0xbbb86858	-0.005627673
80	0xbd8cd1c9	-0.06875951
81	0x3d95f8b7	0.07322829
82	0xbd41f8cc	-0.04735641
83	0x3d97de16	0.074154064
84	0x3b8949eb	0.00418972
85	0xbdc72701	-0.09724236
86	0xbdbf06cc	-0.09327468
87	0x3d81af34	0.063322455
88	0x3da112e1	0.07864929
89	0xbd8f30a0	-0.06991696
90	0xbbecfa01	-0.007231951
91	0xbc80eecb	-0.015738865
92	0xbd5e1aa7	-0.054224636
93	0xbc429976	-0.011877408
94	0xbdb566ad	-0.088574745
95	0x3bac11b2	0.005251133
96	0x3d8da500	0.06916237
97	0x3bd54fdd	0.0065097646
98	0x3d6e5ddb	0.058194976
99	0x3d2f9a90	0.04287201
100	0xbcb76fdf	-0.022392211
101	0xbca490af	-0.020088522
102	0x3dbfaedd	0.093595244
103	0xbdad9144	-0.08474973
104	0x3d053763	0.032523524
105	0xbd669439	-0.0562937
106	0x3d49e992	0.049295016
107	0xbd32e8a5	-0.0436789
108	0xbd91f02f	-0.071258895
109	0xbc6ac1d2	-0.014328437
110	0x3dcceb8e	0.10005866
111	0x3d8b3481	0.06797124
112	0x3d859278	0.06522077
113	0xbd53a7f0	-0.05167383
114	0xbd4f08c2	-0.05054546
115	0xbd9609f0	-0.07326114
116	0xbc0d5e8f	-0.008628502
117	0xbb7e25d2	-0.0038779867
118	0xbc8d281c	-0.01723104
119	0xbaac9c77	-0.0013169189
120	0x3d3c3bf3	0.04595561
121	0xbd83d084	-0.064362556
122	0xbd86777f	-0.06565761
123	0x3d0454c7	0.032307412
124	0x39dae30c	0.00041749363
125	0xbd82b3a5	-0.06381921
126	0xbd8ae585	-0.067820586
127	0xbc859ebb	-0.01631104
128	0x3bb06994	0.0053836796
129	0x3b1c7c10	0.0023877658
130	0xbd9080b6	-0.070558
131	0x3da728d8	0.08162087
132	0xbdc95de5	-0.09832362
133	0x3c5727a6	0.0131320115
134	0x3d8a0c70	0.067406535
135	0xbd039b1a	-0.03213034
136	0xbcb5265c	-0.022113018
137	0x3bdf5c85	0.006816449
138	0xbdd34236	-0.10315363
139	0xbd884acd	-0.06654892
140	0xbbae3247	-0.005316052
141	0xbc902748	-0.017596856
142	0x3d8baa15	0.0681955
143	0xbcd287af	-0.025699465
144	0x3cd7ee5e	0.02635878
145	0xbbef4f86	-0.007303181
146	0x3d62263b	0.05521224
147	0xbdbc18f7	-0.09184449
148	0xbb99c3ed	-0.0046925456
149	0x3d958ee7	0.07302647
150	0x3db09681	0.08622456
151	0x3d1a465a	0.03766475
152	0x3d2dd135	0.042435843
153	0xbb0f2a2a	-0.00218452
154	0x3d83f5a7	0.06443339
155	0xbcb178b8	-0.021664008
156	0x3be5d756	0.0070141954
157	0xbd9e0083	-0.07714941
158	0x3d2490b2	0.040177055
159	0x3d10dae1	0.03536499
160	0xbc9f8bc3	-0.019475823
161	0xbd3db352	-0.04631359
162	0x3d484dc9	0.048902307
163	0xbd808434	-0.06275216
164	0xbd92cfaf	-0.07168519
165	0x3c459da7	0.012061513
166	0xbd97cc1f	-0.0741198
167	0x3d5bc69b	0.0536562
168	0xbdb78dc2	-0.08962585
169	0xbd9aaf68	-0.07552987
170	0xbdafbb4c	-0.08580646
171	0xbd9b3a0f	-0.07579433
172	0x3d13b960	0.03606546
173	0xbda43ed2	-0.080197945
174	0xbd2a9eea	-0.04165546
175	0xbdacab67	-0.0843113
176	0x3dc42edf	0.095792525
177	0xbd2d4afa	-0.04230783
178	0xbd664f1c	-0.05622779
179	0xbc412998	-0.011789702
180	0xbc8b30fa	-0.016991127
181	0x3c0412f9	0.008061164
182	0x3d2d4451	0.04230148
183	0xbb9a015a	-0.004699868
184	0xbdccc12e	-0.099977836
185	0x3d982d0e	0.074304685
186	0xbda60236	-0.081058905
187	0xbc44e9fd	-0.012018678
188	0x3dae6963	0.08516195
189	0xbbec8fe6	-0.0072193025
190	0x3d36f96a	0.044671454
191	0x3d771dba	0.060331084
192	0xbb688ec9	-0.0035485497
193	0xbb914850	-0.004433669
194	0xbc27dd74	-0.01024567
195	0x3ce38565	0.027773568
196	0xbd9e182b	-0.077194534
197	0xbd0f9a7b	-0.035059433
198	0xbd9c605d	-0.07635567
199	0xbd2e3fb8	-0.042541236
200	0x3d8a72f6	0.06760208
201	0xbc0f6c61	-0.008753867
202	0xbd1c76dd	-0.038199294
203	0xbb596cc5	-0.0033176404
204	0x3c4e4e8d	0.01259197
205	0xbb9b4df6	-0.0047395183
206	0x3cea4c77	0.028600914
207	0xbbe363d8	-0.0069393925
208	0x3b8ec94c	0.0043574926
209	0xbcdb59ab	-0.026776155
210	0xbdc5e8aa	-0.09663518
211	0xbd3b8aef	-0.045786794
212	0xbd832c7b	-0.06404968
213	0x3d16ed00	0.036847115
214	0xbbaba98b	-0.005238717
215	0x3c6d2037	0.014473013
216	0x3d9babc5	0.07601122
217	0xbda6f6ed	-0.08152566
218	0xbbf2a775	-0.0074052163
219	0x3db1d858	0.086838424
220	0x3dcc77d0	0.0998379
221	0xbd189310	-0.037249625
222	0xbd8cb59d	-0.068705775
223	0xbd9504e4	-0.072763234
224	0xbcb3b318	-0.021935984
225	0xbd87198f	-0.06596672
226	0x3dbdcab6	0.0926718
227	0xbd4492eb	-0.047991674
228	0x3d19aece	0.037520222
229	0x3d84f8b1	0.064927466
230	0x3ca45d07	0.02006389
231	0x3d0e81ed	0.034791876
232	0xbcdb3b9d	-0.026761824
233	0x3da98329	0.0827697
234	0xbda1dd13	-0.07903495
235	0xbdbfc56f	-0.09363829
236	0x3db2521b	0.087070666
237	0x3c941005	0.018074045
238	0xbc6e8346	-0.014557665
239	0x3d10073e	0.035163157
240	0xbc48622a	-0.012230435
241	0xbd784e7b	-0.06062172
242	0x39fcdf55	0.0004823158
243	0xbd957e06	-0.07299428
244	0x3d59c698	0.05316791
245	0xbd7d37b5	-0.061820704
246	0xbd99e051	-0.07513488
247	0xbcd4a768	-0.025958732
248	0xbd929591	-0.07157434
249	0x3d6e333a	0.058154322
250	0xbb7c84ea	-0.0038531371
251	0xbc3f7e5d	-0.011687842
252	0x3d8281cb	0.06372412
253	0xbd64f79b	-0.055900197
254	0x3d7f706f	0.062363084
255	0x3cfaff97	0.030639453

lstm.weight_hh_l0 f4 [400, 100]
0	0x3c01e104	0.007927183
1	0x3da55660	0.08073115
2	0xbdb33651	-0.087505944
3	0xbdb82eee	-0.08993326
4	0xbdac83cd	-0.084235765
5	0xbd83f3b4	-0.06442967
6	0xbda2e204	-0.07953265
7	0x3d2ce923	0.042214524
8	0xbd6bd957	-0.05758032
9	0x3d7524e2	0.059849627
10	0x3d3cbb9b	0.046077352
11	0xbd2592f9	-0.040423367
12	0x3cd8cecd	0.026465798
13	0x3d472e5d	0.0486282
14	0xbc14bf88	-0.009078868
15	0xbc4f839a	-0.012665654
16	0xbd46e803	-0.048561107
17	0xbc94d44c	-0.018167637
18	0xba8d120b	-0.0010762824
19	0x3dac78db	0.08421489
20	0xbcd34ec0	-0.025794387
21	0x3d76d76d	0.06026404
22	0x3d662693	0.05618913
23	0x3dae31b7	0.08505576
24	0x3cb070e6	0.02153821
25	0xbd6a0a51	-0.057138745
26	0x3cf0bb1f	0.029386101
27	0xbc168c5e	-0.00918874
28	0x3bfb32a5	0.0076659494
29	0x3bb3b54e	0.0054842597
30	0x3cfa7cbf	0.030577062
31	0x3c9d1177	0.019173367
32	0xbdaa19d3	-0.08305707
33	0xbd8b2120	-0.067934275
34	0xbd5e598f	-0.05428463
35	0xbd94610f	-0.07245075
36	0x3d4c1dc1	0.049833063
37	0xbd7c42e6	-0.061587237
38	0x3db61f48	0.08892685
39	0xbd2286bd	-0.039679278
40	0x3bfe50ca	0.0077610957
41	0x3d9cb039	0.07650799
42	0xbbe52ec2	-0.0069940994
43	0xbd55d34d	-0.052203465
44	0xbc919743	-0.017772323
45	0xbcd4f62c	-0.02599629
46	0x3db24a4a	0.08705576
47	0x3d14c7c6	0.03632333
48	0x3bd2a316	0.0064281328
49	0xbcd13d12	-0.025541816
50	0x3c351eeb	0.011054735
51	0xbaf8549d	-0.0018946115
52	0x3dab658f	0.0836898
53	0x3c08b725	0.008344446
54	0xbbbec8c7	-0.0058222744
55	0x3cb6555a	0.022257496
56	0x3ce45e8b	0.027877113
57	0xbda12af0	-0.07869518
58	0x3d9de957	0.07710522
59	0x3b5e82db	0.0033952508
60	0x3d391aac	0.045191452
61	0x3cd46b45	0.025930056
62	0x3d8df779	0.06931967
63	0xbc837b42	-0.016049985
64	0xbd83ccbd	-0.06435535
65	0xbc855c5f	-0.016279398
66	0xbd9252c2	-0.07144691
67	0xbc2d1d0b	-0.010566006
68	0xbd106656	-0.035253845
69	0xbd9b4d35	-0.075830854
70	0xbd419d5f	-0.04726922
71	0xbd4fb4e2	-0.050709613
72	0xbd6e9ad9	-0.058253143
73	0x3d543ce5	0.051815886
74	0x3d1e5acc	0.03866081
75	0xbb3c39bf	-0.0028720943
76	0xba2d6d96	-0.0006615756
77	0xbcfe064b	-0.03100886
78	0xbd8df137	-0.06930774
79	0x3d7ee6c7	0.062231805
80	0x3b4e6658	0.0031494107
81	0xb7a24166	-1.9342358e-05
82	0xba0caadf	-0.0005366038
83	0x3d2129d8	0.039346546
84	0xbcba376c	-0.022731505
85	0xbd9fc814	-0.07801834
86	0xbcc4854d	-0.023989344
87	0xbda80cc9	-0.082055636
88	0xbdba603d	-0.09100387
89	0x3c1ffbc2	0.009764614
90	0x3dab7bca	0.0837322
91	0x3d83b1b5	0.06430379
92	0xbd4c6dd9	-0.049909446
93	0x3da460c2	0.080262676
94	0xbdb97951	-0.090563424
95	0x3c2ffa26	0.010740792
96	0x3d9c5bb2	0.07634677
97	0x3da752e0	0.08170104
98	0x3cc63063	0.024192994
99	0xbdb111c8	-0.0864597
100	0x3cdec74c	0.027194642
101	0x3cd8880f	0.026432065
102	0x3db9e94e	0.090777025
103	0x3c204953	0.009783107
104	0xbdc74993	-0.0973083
105	0xbd88cf96	-0.06680219
106	0xb90fbbbb	-0.00013707478
107	0x3d9af719	0.075666614
108	0x3b6dbc2d	0.0036275492
109	0x3d80ff8b	0.06298741
110	0x3caf4fa6	0.021400284
111	0xbd860ecd	-0.06545792
112	0x3dc5748c	0.0964137
113	0x3cdc7f90	0.026916295
114	0xbd86bd7a	-0.065791085
115	0xbdb18cdc	-0.08669445
116	0x3cf3fbfc	0.029783241
117	0xbb498377	-0.0030748525
118	0x3ca5a2d5	0.020219246
119	0x3d87651c	0.06611082
120	0x3d5075b4	0.0508935
121	0xbcbe1741	-0.023204448
122	0xbdbedb93	-0.09319224
123	0xbc650c9c	-0.013980057
124	0x3c6e9ff0	0.014564499
125	0xbd28532a	-0.041094936
126	0xbdc5d036	-0.09658854
127	0xbccc9e3c	-0.024977796
128	0x3d90f9ac	0.07078871
129	0x3d9acbb8	0.075583875
130	0xbdbbca22	-0.09169413
131	0x3d17ad4d	0.037030507
132	0x3c45d922	0.012075694
133	0x3d82aaa7	0.063802056
134	0x3d4fc143	0.050721418
135	0xbd75d08a	-0.06001333
136	0x3bb732d3	0.0055907755
137	0x3d14be87	0.036314514
138	0x3cdea271	0.027177067
139	0xbd873e9b	-0.06603738
140	0xbcd55f44	-0.026046403
141	0x3dc1a048	0.09454399
142	0xbd9f6f8a	-0.07784946
143	0x3d989287	0.07449823
144	0xbc84cf67	-0.016212178
145	0x3d879483	0.06620123
146	0x3da24cc8	0.07924801
147	0x3cdae646	0.026721131
148	0xbdae9633	-0.08524742
149	0xbd50eb46	-0.051005624
150	0x3d922e82	0.07137777
151	0xbda80b68	-0.082053006
152	0x3da04a47	0.07826667
153	0x3c2994f0	0.010350451
154	0x3c7361a1	0.0148548195
155	0xbd301962	-0.042992957
156	0x3c37e8d3	0.011224943
157	0xbd0143cd	-0.0315588
158	0x3c0c5a6d	0.008566481
159	0xbd8c090a	-0.068376616
160	0xbd969317	-0.07352274
161	0x3dc8a22e	0.09796558
162	0xbd6f81e5	-0.058473486
163	0x3d9d221f	0.07672524
164	0x3cb65dc2	0.022261504
165	0xbd66de80	-0.056364536
166	0xbc4add44	-0.012381855
167	0xbdaaa15b	-0.08331557
168	0xbd299a8d	-0.041407157
169	0xbd8a87f8	-0.06764215
170	0xbd316414	-0.043308333
171	0xbbd23184	-0.006414594
172	0x3daade3e	0.083431706
173	0x3da3a4c1	0.07990409
174	0x3d800ffc	0.06253049
175	0xbc166a5a	-0.00918063
176	0x3dbe96bb	0.09306093
177	0xbb350fab	-0.0027627747
178	0x3d524b55	0.051341373
179	0xbd57c53a	-0.052678324
180	0x3c980aae	0.01855978
181	0x3dbe07e1	0.092788465
182	0x3d35d5ab	0.044393223
183	0xbdb91d42	-0.090387836
184	0xbca4635f	-0.020066915
185	0xbda363dc	-0.07978031
186	0xbd2eb654	-0.04265435
187	0x3daee75c	0.08540222
188	0xbdb16bba	-0.08663125
189	0xbd95458d	-0.072886564
190	0x3bbe3181	0.005804241
191	0xbdb642ac	-0.088994354
192	0xbcaf7407	-0.02141763
193	0x3d595592	0.05306012
194	0xbbc22e3e	-0.0059259227
195	0x3dad0e5d	0.08450005
196	0x3db5e53a	0.08881612
197	0xbcc9327a	-0.024560202
198	0xbc89cdc3	-0.016821748
199	0x3da3184a	0.07963617
200	0x3d9ab6ad	0.07554374
201	0xbcfda7f8	-0.030963883
202	0x3aba004c	0.0014190762
203	0x3d168022	0.03674329
204	0xbdb1ba59	-0.08678121
205	0x3d83a673	0.06428232
206	0x3d4a4c4f	0.04938918
207	0xbd056ab9	-0.03257248
208	0x3dadd033	0.084869765
209	0xbda96f34	-0.082731634
210	0x3d895685	0.067059554
211	0x3d51a933	0.05118675
212	0xbda253d2	-0.07926144
213	0x3d2f38fe	0.04277896
214	0x3ca5f29f	0.020257292
215	0xbd6172f1	-0.055041257
216	0x3d90bfa7	0.07067805
217	0xbd660eca	-0.056166448
218	0xbdc5b9bd	-0.096545674
219	0xbd9f7ccb	-0.07787474
220	0xbd1bba7c	-0.038019642
221	0x3dade994	0.08491817
222	0x3d1775a0	0.03697741
223	0xbdba06b4	-0.0908331
224	0x3c4b1028	0.012393989
225	0x3d9c32e2	0.076268926
226	0xbcd8c33c	-0.026460283
227	0x3dbeee3d	0.09322784
228	0x3d4a1cc4	0.04934384
229	0x3a2652ff	0.0006344765
230	0x3d884288	0.06653315
231	0x3dab938b	0.08377751
232	0x3ce4b973	0.02792046
233	0x3d83ac6d	0.06429372
234	0x3d749f0b	0.059721988
235	0x3c5c1a79	0.013434046
236	0x3d9c52e3	0.07632997
237	0x3d9f170e	0.07768069
238	0x3cfc3d69	0.030791001
239	0xbc265b3a	-0.010153586
240	0x3da0e0c4	0.07855371
241	0x3d49d064	0.049271002
242	0x3cdfa92e	0.02730235
243	0xbd51aa66	-0.051187895
244	0xbcb37133	-0.021904564
245	0xbd489294	-0.048967913
246	0xbcfc91b8	-0.030831203
247	0xbc7e9b6a	-0.015539983
248	0x3db566b9	0.088574834
249	0xbd754148	-0.05987671
250	0xbc0c2f45	-0.008556192
251	0x3bf06425	0.007336157
252	0xbdaf537b	-0.085608445
253	0x3ce17bf7	0.027524931
254	0x3d9a9cb4	0.0754942
255	0xbd82e03b	-0.06390425

lstm.bias_ih_l0 f4 [400]
0	0xbc951f16	-0.0182033
1	0x3db21661	0.08695675
2	0xbd53e744	-0.051734224
3	0x3d8e7a0d	0.06956873
4	0xbd4c4b09	-0.049876247
5	0xbd67a20e	-0.05655103
6	0x3c06925e	0.008213608
7	0x3d32f877	0.043693986
8	0xbd709606	-0.058736823
9	0x3dca4431	0.09876288
10	0x3db0f761	0.08640934
11	0xbd6919cb	-0.056909364
12	0xbd75e295	-0.06003054
13	0x3c321d42	0.010871233
14	0xbb24341e	-0.0025055478
15	0xbd75dbee	-0.060024194
16	0x3d7703b7	0.060306277
17	0x3d2ba97f	0.04190969
18	0xbcab3eb5	-0.020903924
19	0xbd7b8772	-0.061408468
20	0xbc726ad4	-0.014795978
21	0x3d8a81b9	0.06763024
22	0x3cb11696	0.021617215
23	0x3c85772d	0.016292179
24	0xbd23ef92	-0.040023394
25	0x3d34cde7	0.044141676
26	0xbd88765d	-0.06663201
27	0xbd951c2d	-0.07280765
28	0x3c922552	0.017840061
29	0x3d94e479	0.0727014
30	0x3d0b5dc8	0.034024984
31	0x3ce7f8b0	0.028316826
32	0x3c2a3e44	0.010390822
33	0x3c2418e6	0.010015702
34	0xbd628c7c	-0.055309758
35	0x3ba03083	0.0048885955
36	0x3d4f4a87	0.050608184
37	0xbd840dda	-0.064479545
38	0xbd3c4f61	-0.04597414
39	0xbd31470c	-0.043280646
40	0xbd893f62	-0.067015424
41	0xbd9eb1c8	-0.07748753
42	0xbd8f0763	-0.06983831
43	0x3bec44ae	0.0072103357
44	0x3d50f68f	0.051016387
45	0xbd550c2d	-0.052013565
46	0xbcc4e417	-0.024034543
47	0xbca0aeae	-0.019614544
48	0x3dc8a877	0.09797757
49	0x3cce9918	0.025219485
50	0x3ce9d410	0.028543502
51	0x3d87c101	0.066286094
52	0xbd2bb82e	-0.041923694
53	0xbd5bfd0e	-0.05370813
54	0x3cfdff0a	0.031005401
55	0xbdcb7c43	-0.099358104
56	0xbc42c55c	-0.011887874
57	0x3d67b6e6	0.05657091
58	0xbd8045fc	-0.062633485
59	0x3c079ca0	0.008277088
60	0xbcd29253	-0.025704538
61	0x3cc2f498	0.023798272
62	0xbd43182b	-0.04763047
63	0xbda9ce02	-0.08291246
64	0x3db9659c	0.090525836
65	0x3d8a33ea	0.06748183
66	0x3dc5f44e	0.09665738
67	0xbcd9a333	-0.026567077
68	0xbd26c1ee	-0.04071229
69	0xbcfa93bf	-0.030588029
70	0xbc98ef71	-0.018668862
71	0xbc626304	-0.0138175525
72	0xbd4ec8d7	-0.050484505
73	0xbd79ec9d	-0.061016668
74	0x3db6f374	0.08933154
75	0x3c84eda4	0.016226597
76	0x3d821448	0.063515246
77	0x3d7fb193	0.062425207
78	0xbd6d71a3	-0.0579697
79	0xbc42c073	-0.011886704
80	0x3d9edc7a	0.07756896
81	0xbba03c1e	-0.004889979
82	0xbdb38890	-0.087662816
83	0x3da0ae35	0.07845727
84	0x3d74b04c	0.059738442
85	0xbd91fc55	-0.07128207
86	0xbd4030de	-0.046921603
87	0x3d97abe5	0.07405833
88	0x3d362ee2	0.044478305
89	0xbda0a739	-0.07844395
90	0xbc979b56	-0.018506687
91	0x3d161d35	0.036648948
92	0xbd872cfd	-0.06600378
93	0xbc7f06c4	-0.015565578
94	0x3d6bfd70	0.057614744
95	0x3d6e1d11	0.05813319
96	0x3ccd5a2a	0.025067408
97	0xbd6e8cb3	-0.05823965
98	0x3d3779bc	0.04479383
99	0x3dc65f4d	0.09686146
100	0xbcf12ab3	-0.029439306
101	0xbd1a38e9	-0.03765193
102	0x3da4f5df	0.08054709
103	0xbb3b5bd0	-0.002858866
104	0x3d97689b	0.07392999
105	0xbcac983b	-0.021068683
106	0x3ca8b4ce	0.020594027
107	0x3c94a59e	0.018145379
108	0x3d23a58b	0.039952796
109	0x3d822693	0.06355014
110	0xbc122fc6	-0.008922523
111	0xbd95598f	-0.072924726
112	0x3d7f42fc	0.06231974
113	0xbcff7263	-0.031182474
114	0x3ce349f1	0.027745219
115	0xbd914590	-0.07093346
116	0xbd76e368	-0.060275465
117	0xbdcd9a65	-0.10039214
118	0xbd491f67	-0.049102213
119	0xbdce7e6f	-0.10082709
120	0xbdb082c1	-0.08618689
121	0x3c915a48	0.017743245
122	0xbcf363bb	-0.029710641
123	0x3d2d698f	0.042336997
124	0x3c402e81	0.011729837
125	0xbda8a74f	-0.082350366
126	0xbbdb560e	-0.006693608
127	0xbd88985c	-0.06669685
128	0x3d2dd9d6	0.042444073
129	0x3d5c0219	0.053712938
130	0x3d8199b6	0.06328146
131	0xbd16fa82	-0.036859997
132	0x3d8d50ab	0.06900152
133	0x3cd54141	0.026032092
134	0xba4bac89	-0.0007769545
135	0xbd1f4088	-0.0388799
136	0xbd40109d	-0.046890844
137	0x3c3ae50f	0.011407151
138	0x38f75d48	0.00011795253
139	0xbd3a0cda	-0.045422412
140	0xbd8f5640	-0.06998873
141	0xb9e4b797	-0.00043624334
142	0x3dbce1ad	0.09222732
143	0xbc4b927f	-0.012425064
144	0x3d3d8581	0.046269897
145	0x3dab784b	0.083725534
146	0x3d891fc1	0.0669551
147	0xbd6f3cde	-0.058407657
148	0xbc585caa	-0.013205687
149	0x3d78b516	0.060719572
150	0xbd3118a6	-0.043236397
151	0xbd6d8ec4	-0.05799748
152	0x3d8b1bf4	0.06792441
153	0x3d562ce0	0.05228889
154	0x3b93aac2	0.00450644
155	0xbdd4d453	-0.1039206
156	0xbd1eab4e	-0.038737588
157	0xbda50990	-0.080584645
158	0x3d94bf36	0.07263033
159	0x3d4bba59	0.04973826
160	0x3af60fea	0.0018773053
161	0x3d3a072b	0.045416992
162	0x38e882e4	0.00011087002
163	0x3d42f181	0.047593597
164	0x3d624614	0.055242613
165	0x3d897674	0.06712046
166	0xbd6c18e6	-0.057640933
167	0x3c644391	0.013932125
168	0xbcf78313	-0.030213868
169	0xbd4decd6	-0.050274692
170	0xbd23249f	-0.039829846
171	0x3d165d0a	0.036709823
172	0x3b98f537	0.0046679038
173	0x3d32ca61	0.043650035
174	0xbc31ffe6	-0.010864234
175	0x3d27eea3	0.040999066
176	0xbdb1512a	-0.08658059
177	0xbdae1212	-0.084995404
178	0x3d7c9aaa	0.061670937
179	0xbda7fd58	-0.08202618
180	0x3c0f837f	0.008759378
181	0xbcd34350	-0.025788933
182	0x3cc62728	0.024188593
183	0x3d83802a	0.0642093
184	0xbdce8f9b	-0.10085984
185	0x3cc9f535	0.024653057
186	0x3db4d306	0.08829312
187	0xb8d038d3	-9.928797e-05
188	0x3cbe2f47	0.023215903
189	0xbc467a83	-0.01211417
190	0x3d7a59f7	0.061120953
191	0x3b7e9697	0.0038847083
192	0x3dd619db	0.1045415
193	0x3c08345f	0.0083132675
194	0x3d40c972	0.047067113
195	0x3d84f630	0.06492269
196	0x3d73219c	0.059358224
197	0x3dd2b68d	0.10288725
198	0xbd530386	-0.051517032
199	0xbc89c8bb	-0.016819349
200	0x3d05fb96	0.032710634
201	0xbd943d72	-0.07238282
202	0xbb363d29	-0.002780745
203	0xbb324fba	-0.0027208165
204	0x3ce3a170	0.02778694
205	0xbcd0df46	-0.02549709
206	0xbdbfc617	-0.093639545
207	0xbcdc6e85	-0.026908169
208	0xbcd284db	-0.025698116
209	0xbb722511	-0.0036948363
210	0xbdba66b7	-0.091016226
211	0x3d247262	0.040148146
212	0x3d85c3c2	0.065314785
213	0x3dac2154	0.08404794
214	0xbdbdd2dc	-0.09268734
215	0xbdaee69c	-0.08540079
216	0xbd027784	-0.03185226
217	0x3aec9c34	0.0018051923
218	0xbda0c222	-0.07849528
219	0xbd1af917	-0.037835207
220	0xbd9d9ffb	-0.076965295
221	0x3d1e96a9	0.0387179
222	0xbd8bbbc7	-0.06822925
223	0x3d85116f	0.06497466
224	0xbc8d253e	-0.017229673
225	0xbd850cbc	-0.064965695
226	0x3d651e68	0.0559372
227	0x3b47041a	0.0030367435
228	0xbd998f31	-0.07498015
229	0x3cf14edf	0.029456554
230	0xbd75c4d1	-0.060002152
231	0x3d5ee313	0.054415774
232	0x3db8be4b	0.090206705
233	0xbd32d77d	-0.043662537
234	0x3daa3927	0.08311682
235	0xbda34b24	-0.07973316
236	0xbc0ef439	-0.008725219
237	0x3d1da31b	0.038485628
238	0xbdc523e2	-0.09625985
239	0xbdb3fc26	-0.08788328
240	0xbcb6e496	-0.022325795
241	0x3d359e48	0.044340402
242	0x3ce76498	0.028246209
243	0x3da6e5a6	0.08149271
244	0xbc587721	-0.013211996
245	0x3cfa4c45	0.030553946
246	0xbd409e7f	-0.047026154
247	0xbd89e911	-0.06733907
248	0x3da83fe1	0.08215309
249	0x3d18a694	0.037268236
250	0x3ce1f761	0.02758378
251	0x3d67dc4f	0.056606587
252	0xbd55d8bd	-0.05220865
253	0xbd1a3012	-0.0376435
254	0xbb941db2	-0.0045201415
255	0xbdb1e123	-0.086855195

lstm.bias_hh_l0 f4 [400]
0	0x3c8591f8	0.016304955
1	0xbd14a56c	-0.03629057
2	0xbda1aeed	-0.078946926
3	0xbd80f0f6	-0.0629596
4	0x3c56fd98	0.013121985
5	0xbd7d0839	-0.06177542
6	0x3d96d758	0.07365292
7	0x3d6fb2c2	0.058520086
8	0xbd0618e7	-0.032738592
9	0x3d0e0713	0.034674715
10	0x3d2a27d7	0.0415419
11	0x3c3cffd2	0.011535602
12	0xbc83b9fb	-0.016079893
13	0x3d93d8f6	0.072191164
14	0xbd297bd8	-0.041377872
15	0x3d8923ea	0.06696303
16	0xbdb2ebda	-0.08736391
17	0xbcff25b7	-0.031145914
18	0xbdb48ad8	-0.08815545
19	0xbd46cba9	-0.04853407
20	0x3b034775	0.0020031605
21	0x3d99dbdf	0.0751264
22	0x3daeaf9d	0.08529589
23	0xbd73a387	-0.059482124
24	0x3da49972	0.0803708
25	0xbdb3bf70	-0.08776748
26	0xbdc31657	-0.09525745
27	0x3d8cbd17	0.068720035
28	0xbd19b046	-0.037521623
29	0x3d2b8f8e	0.04188495
30	0x3a643ccf	0.0008706571
31	0x3ccf540e	0.025308635
32	0xbd87ca84	-0.06630424
33	0x3c7d6dc1	0.015468062
34	0x3ce04f3b	0.02738153
35	0x3c04c184	0.008102778
36	0xbd989d90	-0.07451928
37	0x3cf3c138	0.02975522
38	0xbb8ae215	-0.004238377
39	0xbd1b0cb5	-0.037853915
40	0xbd8e291f	-0.06941437
41	0x3d1b93e8	0.03798285
42	0x3cb7bbfe	0.022428509
43	0x3c859f48	0.016311303
44	0x3d9c51c9	0.07632787
45	0x3da9aee4	0.08285311
46	0x3cc69085	0.024238834
47	0x3d8f2865	0.069901265
48	0xbc22e678	-0.009942643
49	0x3d62d395	0.05537756
50	0xbc8d0729	-0.017215328
51	0x3d71ee68	0.059065253
52	0xbd44e532	-0.04807014
53	0x3dbfa6fe	0.09358023
54	0xbccce598	-0.025011823
55	0xbcb31002	-0.021858219
56	0xbdabc321	-0.08386827
57	0x3db332e4	0.08749941
58	0xbd036fd0	-0.032089055
59	0xbc390dec	-0.011294823
60	0xbd4bea0f	-0.049783763
61	0xbdac2c66	-0.08406906
62	0x3d84a2c2	0.06476356
63	0xbd98b15d	-0.07455704
64	0x3d401824	0.046898022
65	0x3c9e152d	0.019297207
66	0x3dc2fb91	0.09520639
67	0xbd7c2c1f	-0.061565515
68	0x3c93fc0e	0.018064525
69	0xbd02bab8	-0.03191635
70	0xbd143821	-0.03618634
71	0xba904c70	-0.0011009108
72	0x3d2f73ad	0.042834926
73	0x3d392d38	0.04520914
74	0x3dbbd6b5	0.091718115
75	0x3d39655b	0.045262676
76	0xbdb48457	-0.08814304
77	0x3dad1ce2	0.084527746
78	0xbdd29b24	-0.10283497
79	0xbda47da7	-0.08031779
80	0x3d8319a7	0.06401377
81	0x3d3e18c8	0.046410352
82	0xbdb97079	-0.090546556
83	0xbd0baad6	-0.03409847
84	0x3d86b757	0.06577938
85	0x3d842279	0.06451888
86	0xbc37e8f8	-0.011224978
87	0x3ceda241	0.029008033
88	0xbbc6eeee	-0.006070963
89	0x3dcbd402	0.09952547
90	0x3d3ebbc3	0.046565782
91	0xbd8f6ebf	-0.07003545
92	0xbcd49ea6	-0.025954556
93	0xbcf48096	-0.02984647
94	0x3d5e9b2d	0.054347206
95	0x3d93cdf1	0.072170146
96	0xbd7bf719	-0.061514948
97	0x3d9a1479	0.07523436
98	0xbdacff98	-0.08447188
99	0xbd1295f7	-0.03578755
100	0xbd9cb521	-0.07651735
101	0x3dbf1ade	0.093312964
102	0xbd797ea0	-0.060911775
103	0xbdc4a887	-0.096024565
104	0xbda024f5	-0.07819549
105	0x3dba77c1	0.091048725
106	0x3c1ce06b	0.00957499
107	0x3dcf5233	0.101231
108	0x3daf1c02	0.08550264
109	0xbd8f4c07	-0.06996923
110	0x3d3a02f0	0.045412958
111	0x3d2a7f1e	0.041625135
112	0xbd239e0f	-0.03994566
113	0x3d3e7ae2	0.04650391
114	0xbcb001e4	-0.021485277
115	0xbd153493	-0.03642709
116	0xbc9063a8	-0.017625645
117	0x3db27378	0.0871343
118	0x3c521213	0.012821692
119	0xbdad4ad8	-0.08461541
120	0xbcc8e358	-0.024522468
121	0x3d9fdf3d	0.07806251
122	0x3d056d97	0.032575216
123	0xbcc6cfff	-0.024269102
124	0xbbca258f	-0.006169028
125	0xbd0ad4e4	-0.033894435
126	0xbdb719d7	-0.089404754
127	0xbda9ce1a	-0.08291264
128	0x3dc500f1	0.0961932
129	0x3c92dbf9	0.017927157
130	0x3dd7dd5d	0.105402686
131	0x3d738939	0.059457038
132	0x3d4173a4	0.047229424
133	0x3cad0ba8	0.021123722
134	0x3c542ce5	0.012950157
135	0x3dcde55e	0.10053514
136	0x3d26e520	0.040745854
137	0xbdd3416d	-0.10315213
138	0xbd8c7ca7	-0.06859713
139	0xbc7021b9	-0.014656478
140	0xbd69596d	-0.05697005
141	0xbd20a5ea	-0.039220728
142	0xbc85dee8	-0.016341642
143	0x3bcf4315	0.0063251355
144	0x3cff6507	0.031176103
145	0xbd6dbcf2	-0.05804152
146	0xbd8ce2df	-0.0687921
147	0xbd936042	-0.07196094
148	0xbd568614	-0.05237396
149	0x3dae242c	0.08502993
150	0xbcb2c360	-0.021821678
151	0x3cca3b93	0.02468661
152	0x3db042c5	0.08606485
153	0xbd24765c	-0.04015194
154	0xbd9b84dc	-0.075937
155	0xbcb6df62	-0.022323314
156	0x3dab2684	0.08356956
157	0x3da5bd9b	0.08092805
158	0xbd91f19b	-0.07126161
159	0x3cdb6afd	0.026784414
160	0x3dadcf59	0.08486814
161	0xbdb7066f	-0.08936774
162	0x3db05b8a	0.0861121
163	0x3cc405ee	0.023928609
164	0x3d5cb075	0.05387922
165	0xbbc60f70	-0.0060443208
166	0xbdb5af33	-0.08871307
167	0x3dcc5b1c	0.09978315
168	0x3d983548	0.074320376
169	0x3c3ddb1d	0.011587885
170	0x3d0e7463	0.034778964
171	0xbbf49c7f	-0.007464945
172	0xbd6e3af9	-0.05816171
173	0xbd48516e	-0.048905782
174	0xbdba9bb6	-0.09111731
175	0xbd3758a1	-0.044762257
176	0xbd23e7ff	-0.04001617
177	0x3dda9c33	0.10674324
178	0xbb5a85ac	-0.0033343835
179	0xbd8a6a4d	-0.067585565
180	0xbd5fdfa8	-0.054656655
181	0xbcd6c07b	-0.026214829
182	0xbb6e1efb	-0.0036334384
183	0x3d8a68ee	0.06758295
184	0xbcea8e35	-0.028632263
185	0xbd98e8fb	-0.074663125
186	0x3d9456ee	0.07243143
187	0xbd6565e3	-0.05600537
188	0x3bbb4764	0.0057152975
189	0xbd72b7f1	-0.05925745
190	0x3ca4aca3	0.02010185
191	0x3dd1dd09	0.10247237
192	0xbd4819c4	-0.048852697
193	0x3d59dc02	0.05318833
194	0x3cee473f	0.029086707
195	0x3d8be5b0	0.06830919
196	0xbc66002e	-0.014038129
197	0x3dd24779	0.102675386
198	0x3da2afa7	0.07943659
199	0xbd0f8db9	-0.035047267
200	0xbdc21989	-0.09477527
201	0xbc6b9ff0	-0.014381394
202	0xbdc744c6	-0.09729914
203	0xbd772565	-0.060338397
204	0x3d9b4a1e	0.07582496
205	0xbd95daa7	-0.07317095
206	0xbd4f7e34	-0.050657466
207	0x3cc13b4c	0.023587845
208	0xbdc5edc0	-0.09664488
209	0x3dc34dbc	0.09536311
210	0x3da23b9f	0.07921528
211	0xbd962d27	-0.07332831
212	0xbdb8c4a8	-0.09021884
213	0x3d915722	0.070966974
214	0x3dba1ae7	0.090871625
215	0x3dc11e68	0.09429628
216	0x3d0a855d	0.03381859
217	0xbd9b0e3c	-0.07571074
218	0xbc68026e	-0.0141607355
219	0xbce90ac4	-0.028447516
220	0xbb01dedc	-0.0019816672
221	0xbcca9e2d	-0.024733627
222	0x3db55d2b	0.08855661
223	0xbd80ff4f	-0.06298696
224	0x3d8fddb0	0.070247054
225	0xbd0bcef2	-0.034132905
226	0xbc33b836	-0.010969212
227	0xbc9d1af3	-0.01917789
228	0x3c6298c3	0.013830367
229	0x3d715345	0.058917303
230	0xbdbc97bc	-0.092086285
231	0x3da461d6	0.08026473
232	0xbd83e45f	-0.06440043
233	0xbcdf7e2d	-0.027281845
234	0xbd91aefd	-0.071134545
235	0x3da91141	0.08255244
236	0xbc321b5a	-0.010870779
237	0xbd14a4b8	-0.0362899
238	0x3d6b8859	0.057503078
239	0xbd5b689f	-0.05356657
240	0xbd2cd17d	-0.04219197
241	0xbd1ac9e0	-0.03779018
242	0xbc479559	-0.012181603
243	0xbdbd2b98	-0.092368305
244	0xbda4e8ad	-0.08052192
245	0x3d983944	0.074327976
246	0xbcf44e25	-0.029822418
247	0x3db69581	0.08915234
248	0x3d347ca0	0.044064164
249	0xbc9cd656	-0.019145172
250	0xbd84706d	-0.06466756
251	0x3d6801e5	0.05664243
252	0x3d33638e	0.043796115
253	0xbb97593c	-0.004618792
254	0xbd1fc3b5	-0.039005
255	0x3d13faae	0.03612774

linear.weight f4 [1, 100]
0	0x3beb45c2	0.0071799466
1	0x3dbc136a	0.091833904
2	0xbd4c0958	-0.0498136
3	0x3c4aaea2	0.012370737
4	0x3d8de3da	0.06928225
5	0xbd1223c3	-0.035678636
6	0x3db38b1e	0.08766769
7	0xbd6706c2	-0.05640293
8	0xbdc0a5d4	-0.09406629
9	0x3daa316b	0.08310207
10	0xbd8d0653	-0.06885972
11	0xbcb044ae	-0.021517124
12	0xbdc49f6d	-0.096007206
13	0x3dd8ec0f	0.105918996
14	0x3ca73aba	0.020413745
15	0xbb6af8ec	-0.0035853935
16	0x3daf630d	0.08563814
17	0x3cd44637	0.025912387
18	0xbd031f65	-0.032012362
19	0x3ca824af	0.020525305
20	0x3d6ca1ad	0.057771374
21	0x3dabbb34	0.083853155
22	0x3b0bb1c5	0.0021315676
23	0x3cfd479e	0.030917939
24	0x3dda443f	0.10657548
25	0x3d653c1b	0.055965524
26	0xbd9c6860	-0.076370955
27	0x3c9ccea2	0.019141499
28	0xbd92d511	-0.071695454
29	0x3d583c1d	0.052791703
30	0xbc060ec9	-0.008182236
31	0xbd93392f	-0.07188641
32	0x3d74d0c0	0.059769392
33	0xbcfe3e88	-0.031035677
34	0xbd738395	-0.05945166
35	0x3d9e2e54	0.0772368
36	0xbd3383cf	-0.043826874
37	0x3d53b474	0.051685765
38	0x3c16cdea	0.009204367
39	0x3d1abd35	0.037778098
40	0xbdb8bffe	-0.090209946
41	0x3d942d41	0.07235194
42	0x3cd1fc80	0.025633097
43	0x3c603ef3	0.013686883
44	0xbd9bd71a	-0.07609387
45	0xbcbcbf72	-0.023040507
46	0x3dbb9225	0.09158734
47	0x3d7686ad	0.06018703
48	0x3daf2322	0.08551623
49	0xbce69b21	-0.028150143
50	0xbd49b9b8	-0.04924938
51	0xbd3bc01d	-0.04583751
52	0xbd4e78e1	-0.050408248
53	0xbd177d35	-0.03698464
54	0x3dc7d003	0.09756472
55	0xbc84f5b9	-0.016230451
56	0x3daf4ace	0.0855919
57	0x3d6766d2	0.05649454
58	0x3d6c123f	0.05763459
59	0x3d9c1210	0.07620633
60	0x3d5f6962	0.05454386
61	0xbcbe07e9	-0.023197131
62	0xbc4f7b65	-0.012663697
63	0x3bc0cfae	0.0058841323
64	0x3d8e9dbf	0.069636814
65	0xbdbc2d10	-0.091882825
66	0xbd635bd8	-0.05550751
67	0x3dca75c0	0.0988574
68	0xbc8bc931	-0.017063709
69	0xbd6de118	-0.058075994
70	0x3d59445f	0.05304372
71	0x3d83c692	0.06434359
72	0xbd0f3336	-0.034960948
73	0xbdc6f769	-0.097151585
74	0xbd7fb6d3	-0.062430214
75	0xbdbe701b	-0.09298726
76	0x3da0f012	0.0785829
77	0xbd97e12f	-0.07415997
78	0x3d3e8051	0.04650909
79	0x3dba4692	0.090954915
80	0x3b823844	0.0039739925
81	0xbb729db4	-0.0037020268
82	0x3a6c953c	0.0009024923
83	0x3dd1afa5	0.1023858
84	0x3d981649	0.074261256
85	0xbdcfb535	-0.101419844
86	0x3db3b8df	0.08775496
87	0x3cd75f11	0.026290448
88	0xbd138a95	-0.036020834
89	0xbdbe74e3	-0.09299638
90	0xbdc4236d	-0.095770694
91	0x3d42a044	0.047516122
92	0x3d6882d4	0.056765392
93	0x3d195bed	0.037441183
94	0xbd8c3a6f	-0.06847083
95	0xbd4eb57e	-0.050466053
96	0x3c5aa700	0.01334548
97	0xbdb948bb	-0.09047075
98	0x3d859f1c	0.06524488
99	0x3dac34ee	0.08408533
